agent.onnx (onnx, 473859 bytes, 6 tensors)

actor.0.weight f4 [256, 162]
-0.07035927 0.24450877 -0.33705354 -0.041240573 -0.21167415 0.61750054 -0.15422997 -0.5040203
-0.13690142 -0.77063286 -0.0700099 -0.18172179 -0.1222541 -0.47675055 -0.29028562 0.0012892777
0.07091762 -0.38766995 0.13040686 -0.16165967 -0.16948485 -0.3175854 -0.13640206 0.020290991
-0.33210403 -0.114754386 -0.61105263 -0.16437097 -0.2707704 -0.68162185 0.7055509 0.079373226
-0.55017644 -0.5105481 -0.19632903 -0.6593309 0.071089596 0.039796125 -0.125413 -0.0137004545
-0.70973927 -0.7337957 -0.62340415 -0.65176535 -0.5528422 -0.10444119 -0.6323516 -0.54828435
-0.26520932 -0.3387721 0.51929516 -0.41261056 -0.41919792 -0.22692294 0.084201366 0.04763595
-0.058544435 -0.086697094 -0.50648195 -0.41588667 0.5098909 0.8457666 -0.10867951 0.34243184
1.3355136 0.29480717 0.74377716 0.7425686 -0.17215076 0.5218707 -0.38765705 0.27494562
-0.13079602 -0.5020114 0.07684415 -0.08471351 0.23798518 -0.009384907 0.13825066 -0.33016503
0.8367341 -0.54130566 -0.20691435 -0.18239813 -1.1162227 -0.47871172 -0.14980166 -0.32717487
0.4410561 0.09228901 0.8959525 0.06905463 0.18654501 0.3691764 -0.461042 -0.1835762
-0.40862298 0.3413864 0.43192908 0.27397808 -0.5928461 -0.15525238 -0.421565 -0.6648026
-0.38642016 -0.1536647 -0.1644129 -0.0019218677 -0.20753793 -0.094783135 0.12503782 -0.020260662
0.89626366 -0.49821016 0.07921237 -0.48741496 0.41591388 -0.41310704 0.0092255 0.58323103
-0.045943927 -0.0070922654 -0.7923251 0.15103737 -0.0014821548 0.24678366 0.33137134 -0.6717991
0.40984967 0.21208347 -0.37861332 0.2606508 -0.45781115 -0.22697267 0.10570252 -0.10866049
0.2833364 -0.53425246 -0.10598882 -0.3642179 -0.10772542 0.25384 -0.25473675 0.5163272
0.35888308 0.43270525 -0.16062596 -0.25214952 -0.34287527 -0.024705503 -0.6218622 0.1893523
-0.37378198 -0.29909483 0.49620706 -0.3716508 -0.034098275 0.37644798 -0.15067747 0.3195727
0.02092186 -0.31542048 0.19863246 -0.09845268 0.12969774 0.17995085 0.17059682 -0.15384914
-0.13873328 0.042584497 -0.079231806 0.16237709 -0.08974054 0.021174217 -0.0073011457 -0.1408899
-0.10068365 -0.023102418 -0.26040834 -0.14653575 -0.014669051 0.18112214 0.061158612 0.07655153
-0.098203 0.2633464 0.11961641 0.06281892 0.041514896 -0.04051526 -0.009468305 -0.1443857
-0.2536556 0.21661289 -0.019001208 0.1164797 0.06874285 0.08751518 0.06018643 -0.1618061
-0.18368256 -0.06981831 0.38112956 0.42469916 0.5311207 0.38811964 0.058717858 -0.039104894
0.4221327 -0.12565695 -0.07257869 0.18307777 0.07315331 0.48417893 0.5351205 0.28488058
0.038747694 0.48619196 0.70042753 0.20301376 0.08408147 0.18053366 -1.3157511 -0.7245479
-0.6739335 -1.0862515 -0.6284755 -1.0124309 -0.91088223 -0.9502345 -0.7261405 -0.7438031
-0.051334128 -0.012384323 0.0038853325 0.5434942 0.46853963 0.33444273 0.32625777 0.095944755
0.07386373 -0.122894704 0.40995264 0.6394606 0.39872426 0.8618151 0.752564 0.6803609
0.932644 0.5069191 0.8591342 0.35269246 0.38352212 2.454828 1.1628835 2.1397884
00000000: 8518 90bd 8260 7a3e 4892 acbe e0eb 28bd
00000010: 1cc1 58be 8414 1e3f 76ee 1dbe 7907 01bf
00000020: e32f 0cbe 3248 45bf 5a61 8fbd 4715 3abe
00000030: 5c60 fabd a618 f4be 51a0 94be fbfc a83a
00000040: 423d 913d ad7c c6be 6089 053e 1d8a 25be
00000050: 708d 2dbe 8e9a a2be fbac 0bbe 4b39 a63c
00000060: 8a09 aabe 5904 ebbd f26d 1cbf dd50 28be
00000070: 6ba2 8abe c57e 2ebf fc9e 343f 6e8e a23d
00000080: 5dd8 0cbf 48b3 02bf 7a0a 49be e9c9 28bf
00000090: 6c97 913d 4301 233d 446c 00be df77 60bc
000000a0: 79b1 35bf 09da 3bbf 6a97 1fbf 18da 26bf
000000b0: 1187 0dbf 43e5 d5bd cbe1 21bf 5d5c 0cbf
000000c0: 84c9 87be 8973 adbe 87f0 043f b141 d3be
000000d0: 1ca1 d6be 7d5e 68be c471 ac3d ea1d 433d
000000e0: 4acc 6fbd 3f8e b1bd cda8 01bf 19ef d4be
000000f0: 3688 023f 2984 583f 5d93 debd 3a53 af3e
00000100: 1cf2 aa3f f7f0 963e 2e68 3e3f fa18 3e3f
00000110: 4a48 30be 5199 053f fc7a c6be acc5 8c3e
00000120: 64ef 05be d283 00bf 7760 9d3d 477e adbd
00000130: 63b2 733e 27c3 19bc 9591 0d3e 640b a9be
00000140: 3534 563f 0293 0abf 5be1 53be 93c6 3abe
00000150: 63e0 8ebf b419 f5be 9b65 19be 7783 a7be
00000160: 1bd2 e13e 0502 bd3d 255d 653f 846c 8d3d
00000170: a805 3f3e b004 bd3e b20d ecbe 66fb 3bbe
00000180: 0837 d1be 33ca ae3e cf25 dd3e db46 8c3e
00000190: c3c4 17bf 7bfa 1ebe 5ed7 d7be 8130 2abf
000001a0: ddd8 c5be 475a 1dbe db5b 28be 2ee7 fbba
000001b0: d384 54be a91d c2bd ea09 003e b0f9 a5bc
000001c0: 8971 653f 6715 ffbe 183a a23d 748e f9be
000001d0: aaf2 d43e c482 d3be 8d26 173c a14e 153f
000001e0: b32f 3cbd 3c66 e8bb d1d5 4abf 8aa9 1a3e
000001f0: dd44 c2ba dbb4 7c3e 81a9 a93e 07fb 2bbf
00000200: d1d7 d13e 692c 593e 9bd9 c1be 0674 853e
00000210: 3966 eabe 866b 68be 907a d83d 6489 debd
00000220: 7811 913e c5c4 08bf ab10 d9bd c57a babe
00000230: 259f dcbd 51f7 813e db6c 82be 052e 043f
00000240: 86bf b73e 8b8b dd3e 227b 24be be19 81be
00000250: 598d afbe 3263 cabc 5c32 1fbf 92e5 413e
00000260: 5a60 bfbe f522 99be da0e fe3e 0349 bebe
00000270: a2aa 0bbd cabd c03e 324b 1abe 089f a33e
00000280: 5264 ab3c cb7e a1be 4f66 4b3e 8fa1 c9bd
00000290: 7ccf 043e 0945 383e efb0 2e3e a18a 1dbe
000002a0: 1910 0ebe 156d 2e3d 4944 a2bd 2e46 263e
000002b0: e3c9 b7bd 8d75 ad3c 733e efbb 7145 10be
000002c0: 3b33 cebd 4841 bdbc 3e54 85be 780d 16be
000002d0: 7656 70bc 1578 393e 7481 7a3d 0cc7 9c3d
000002e0: a81e c9bd 57d5 863e 73f9 f43d 35a7 803d
000002f0: 860b 2a3d 54f3 25bd f320 1bbc d8d9 13be
00000300: 26df 81be c5cf 5d3e 6ca8 9bbc e98c ee3d
00000310: 0dc9 8c3d 293b b33d 0c86 763d 80b0 25be
00000320: 4817 3cbe e7fc 8ebd 6a23 c33e 2b72 d93e
00000330: 87f7 073f 9eb7 c63e 2382 703d 742c 20bd
00000340: c721 d83e 37ac 00be 23a4 94bd bd78 3b3e
00000350: 67d1 953d 4de6 f73e a8fd 083f dedb 913e
00000360: e7b5 1e3d 27ee f83e 384f 333f d7e2 4f3e
00000370: e832 ac3d d1dd 383e 886a a8bf f97b 39bf
00000380: e886 2cbf 4a0a 8bbf c5e3 20bf 5697 81bf
00000390: 942f 69bf 9142 73bf 58e4 39bf e169 3ebf
000003a0: bc43 52bd 9ee7 4abc 10a1 7e3b 7022 0b3f
000003b0: 6de4 ef3e 143c ab3e 420b a73e af7e c43d
000003c0: de45 973d 38b0 fbbd 50e5 d13e b1b3 233f
000003d0: 9625 cc3e ea9f 5c3f 09a8 403f 222c 2e3f
000003e0: c2c1 6e3f 73c5 013f 38f0 5b3f 1b94 b43e
000003f0: 035d c43e e71b 1d40 5ed9 943f 4bf2 0840

actor.0.bias f4 [256]
-0.31722054 -0.083091095 -0.35116896 -0.14601237 0.010628095 0.14604339 0.15696019 0.07392398
0.005742621 0.020294856 -0.10535374 -0.058688607 -0.07699603 0.2461909 -0.3498454 0.004834057
0.020466657 0.19840828 -0.6038628 -0.3088498 -0.17008218 -0.10724403 -0.29435074 -0.14913116
0.21971574 0.08115214 0.1522345 -0.10613811 0.2001156 -0.0076299207 0.010540898 -0.1133917
-0.22545443 -0.023852527 -0.51953155 -0.16000141 -0.092701375 -0.32673588 0.02494377 -0.40779996
-0.5051007 -0.05482231 0.0008482016 -0.037380487 0.10017104 -0.44399628 -0.5208708 0.0831845
-0.3179063 -0.07828754 -0.074726276 0.06445439 -0.15995005 -0.107651114 0.07467744 0.17453088
0.22279836 0.12850557 -0.16921775 -0.29797477 0.06589767 -0.08793749 0.13848983 -0.2661791
0.09082272 0.3159363 -0.24389312 -0.15857954 0.008456997 -0.52803403 0.20622885 -0.19980569
-0.17340922 -0.23375423 0.034343947 -0.022511287 0.07826115 0.025499683 0.02414473 -0.052812655
-0.017731458 0.061103072 -0.31204602 -0.6187468 -0.06305343 -0.16768825 -0.27111244 -0.47981533
-0.32516938 -0.06046906 -0.45239496 0.093127646 -0.59856725 -0.09038288 -0.08821607 -0.24275552
-0.32162112 0.18491079 -0.33984008 0.15869635 -0.038035117 0.011903019 -0.28051868 -0.4158645
0.07850496 -0.061166417 -0.3613994 -0.37699944 -0.099845566 -0.19027622 -0.37159222 -0.16827255
0.037316937 -0.13835678 -0.50178355 -0.036732875 -0.69252294 -0.24509078 -0.06998198 -0.17193428
-0.31072417 -0.43333414 -0.36324227 0.03234837 -0.069487154 -0.28387165 -0.4498238 0.1804057
-0.048438735 -0.20807526 0.14693476 -0.12780237 -0.36991307 0.21874854 0.0043031373 0.03860935
-0.2380083 -0.32204503 -0.056179736 0.3146882 -0.53307354 -0.15118763 -0.20089456 0.034560278
-0.18928544 -0.11749306 -0.22601785 -0.23356661 -0.1273016 -0.43207076 -0.526238 -0.079952665
-0.35995328 -0.33351207 0.09914383 0.029157443 0.054534283 0.31676987 -0.18480639 -0.14362396
0.09865018 -0.076054744 -0.12563822 0.07296019 -0.16583152 -0.076364785 -0.06670682 -0.063384384
-0.22999506 -0.013928385 0.049233634 -0.12017365 -0.29035634 0.1036384 -0.2842614 0.19442247
-0.15273538 -0.096955426 -0.63917965 -0.17198955 0.21767265 0.08586322 -0.45226666 -0.14353111
-0.2239947 -0.0690655 -0.6071829 -0.07976003 0.20430003 0.13489589 -0.28315616 -0.30090618
-0.46373722 -0.45300588 -0.4245008 0.0002993427 -0.1804077 -0.16848865 0.10005147 -0.092540465
-0.058317162 -0.028806426 0.20796426 -0.22384933 0.16435707 -0.35810322 -0.42833123 -0.027774377
-0.19279067 -0.020250818 -0.28169662 -0.089806035 0.032807697 0.11688981 -0.45727333 -0.16994171
0.108577855 -0.52189493 -0.07508171 0.21508673 -0.13278246 0.11566712 -0.4322277 -0.7671865
-0.20052962 -0.088431835 -0.040216472 -0.21837085 -0.10757541 0.0020523928 -0.29706803 0.15283448
0.050910685 0.27084726 -0.44848862 -0.071591325 -0.4453393 -0.08037541 0.13734187 -0.32679725
0.30974686 -0.35858473 -0.16883405 0.087227784 -0.23197582 -0.39013284 -0.17796525 0.26006323
-0.22433865 -0.33530104 -0.0072565693 0.0353162 0.23624274 0.2272562 -0.22375777 0.022836432
00000000: bb6a a2be aa2b aabd 6bcc b3be 4484 15be
00000010: 7621 2e3c 668c 153e 2cba 203e 7565 973d
00000020: 992c bc3b 6641 a63c b4c3 d7bd 7763 70bd
00000030: 18b0 9dbd 7819 7c3e f01e b3be 0267 9e3b
00000040: b1a9 a73c 8a2b 4b3e c196 1abf 9021 9ebe
00000050: 062a 2ebe c2a2 dbbd 24b5 96be d7b5 18be
00000060: 2afd 603e 1833 a63d 5ce3 1b3e f05e d9bd
00000070: 1beb 4c3e 6a04 fabb bbb3 2c3c e839 e8bd
00000080: 87dd 66be 6066 c3bc 0500 05bf 69d7 23be
00000090: 38da bdbd ed49 a7be e156 cc3c 28cb d0be
000000a0: 484e 01bf 5c8d 60bd d959 5e3a 481c 19bd
000000b0: 7926 cd3d 7b53 e3be ca57 05bf a35c aa3d
000000c0: 9dc4 a2be 3855 a0bd 170a 99bd aa00 843d
000000d0: f2c9 23be 3078 dcbd 7cf0 983d 39b8 323e
000000e0: 4125 643e f796 033e 6b47 2dbe 2690 98be
000000f0: 5cf5 863d 9218 b4bd 47d0 0d3e a148 88be
00000100: 4301 ba3d 67c2 a13e 1ebf 79be ad62 22be
00000110: 378f 0a3c 3d2d 07bf a82d 533e dd99 4cbe
00000120: 3092 31be 455d 6fbe 3dac 0c3d 9769 b8bc
00000130: 6247 a03d b6e4 d03c 2bcb c53c 1552 58bd
00000140: 9041 91bc 3747 7a3d 7fc4 9fbe 3166 1ebf
00000150: 2822 81bd 78b6 2bbe 40cf 8abe 5baa f5be
00000160: 9a7c a6be 68ae 77bd 50a0 e7be b5b9 be3d
00000170: b43b 19bf a91a b9bd a0aa b4bd e794 78be
00000180: 86ab a4be 4159 3d3e 85ff adbe 4c81 223e
00000190: b6ca 1bbd e104 433c 25a0 8fbe 31ec d4be
000001a0: 35c7 a03d a389 7abd 5809 b9be 1206 c1be
000001b0: d57b ccbd c5d7 42be 5641 bebe a44f 2cbe
000001c0: a5d9 183d 66ad 0dbe e374 00bf 3675 16bd
000001d0: 2f49 31bf 14f9 7abe b652 8fbd 8a0f 30be
000001e0: 3d17 9fbe f9dd ddbe e4fa b9be b97f 043d
000001f0: 484f 8ebd a057 91be 4e4f e6be 46bc 383e
00000200: b267 46bd ae11 55be 1176 163e a0de 02be
00000210: 3f65 bdbe 9eff 5f3e 5501 8d3b d624 1e3d
00000220: 73b8 73be 16e3 a4be b91c 66bd d01e a13e
00000230: 8277 08bf eed0 1abe 4eb7 4dbe 148f 0d3d
00000240: 0bd4 41be 34a0 f0bd 3971 67be 162c 6fbe
00000250: 5a5b 02be 6138 ddbe 89b7 06bf 39be a3bd
00000260: cc4b b8be 18c2 aabe ec0b cb3d 97db ee3c
00000270: 575f 5f3d a92f a23e e33d 3dbe 2912 13be
00000280: 1b09 ca3d 97c2 9bbd 4ea7 00be 276c 953d
00000290: bdcf 29be 2465 9cbd 969d 88bd accf 81bd
000002a0: d383 6bbe e233 64bc 35a9 493d 9a1d f6bd
000002b0: 96a9 94be 5f40 d43d b68a 91be af16 473e
000002c0: aa66 1cbe 9190 c6bd 47a1 23bf 071e 30be
000002d0: 94e5 5e3e 0ed9 af3d 7f8f e7be d2f9 12be
000002e0: de5e 65be 3672 8dbd 5770 1bbf 3a59 a3bd
000002f0: 0734 513e 2622 0a3e d8f9 90be 6010 9abe
00000300: f76e edbe 63f0 e7be 2b58 d9be 19f1 9c39
00000310: ccbc 38be 4a88 2cbe c9e7 cc3d db85 bdbd
00000320: fadd 6ebd 74fb ebbc 95f4 543e c238 65be
00000330: 384d 283e 4e59 b7be 3b4e dbbe 1787 e3bc
00000340: eb6a 45be 0be5 a5bc 8a3a 90be 3aec b7bd
00000350: 5d61 063d ed63 ef3d bb1f eabe 3305 2ebe
00000360: 115e de3d e89a 05bf 71c4 99bd b23f 5c3e
00000370: 20f8 07be e2e2 ec3d f34c ddbe 5666 44bf
00000380: a357 4dbe c01b b5bd 07ba 24bd 9c9c 5fbe
00000390: 7f50 dcbd 7081 063b 4d19 98be a480 1c3e
000003a0: b987 503d 7eac 8a3e 4da0 e5be 799e 92bd
000003b0: 8303 e4be dd9b a4bd 59a3 0c3e f851 a7be
000003c0: 2497 9e3e 6b98 b7be d5e2 2cbe 7ba4 b23d
000003d0: 128b 6dbe 7ebf c7be 863c 36be 0227 853e
000003e0: 08b9 65be 94ac abbe 84c8 edbb b8a7 103d
000003f0: 9ee9 713e d9b5 683e c220 65be 7813 bb3c

actor.2.weight f4 [256, 256]
-0.23083434 -0.35727978 -0.07311851 0.27501455 -0.013124956 -0.79486626 -0.39599156 -0.4656073
0.0733089 0.08634948 -0.21333544 -0.2672166 0.15830971 -0.40387338 0.20141484 -0.0070668226
-0.23102711 -0.7343433 0.09768553 0.16268247 0.5924996 0.16909914 0.19234551 -0.5152392
0.09981051 0.11594484 -0.0775524 -0.2465955 -0.020875331 0.066754 -0.24164937 -0.17854184
-0.15745832 -0.22315557 0.3661253 0.17395183 0.6895459 0.34706402 -0.0025273657 0.69390416
0.41819572 -0.2416107 -0.13793866 -0.0056377067 -0.3030788 0.07219013 -0.178774 -0.4330644
0.45965672 -0.18061094 0.12726234 0.09349322 0.053671654 0.15103318 -0.35915977 -0.33607748
-0.3226435 -0.3928261 0.1369278 0.33344018 -0.52232414 0.12258488 -0.33209345 -0.39539227
0.18510507 -0.8026202 0.11872684 0.18128192 -0.38659525 0.3818733 -0.32349756 0.28314748
-0.022224775 0.32723922 -0.031377103 -0.40882745 -0.50064635 -0.49874005 -0.51220536 0.17866194
-0.56308514 -0.053259257 0.25982672 0.11917342 -0.22381172 -0.085724175 0.028945891 0.046392787
0.6426467 -0.18459494 0.019545464 -0.18099359 -0.27645865 -0.14061338 0.5815067 -0.07328602
0.45565477 0.12655422 0.19703856 0.2859639 0.08878384 0.0037855967 -0.5595825 -0.23581184
-0.07908885 0.09177361 0.79177016 -0.1157472 0.13897821 0.29312906 0.3018624 -0.32410333
-0.12062001 -0.35386965 0.808673 -0.10322752 0.60106504 -0.4896842 0.43851152 -0.20150214
0.25727022 -0.07823746 0.23232181 0.012167112 -0.25585085 0.118809104 0.37600347 -0.22844319
0.26741478 -0.4642186 -0.18907373 -0.097226344 0.16183236 0.23919795 -0.2176244 -0.08942792
0.18416832 -0.30997434 -0.08787173 0.08725119 0.3953328 0.08616435 0.060088187 -0.2265146
0.25692075 0.047562446 0.11845552 -0.3008556 0.21024308 0.5117149 0.22514214 -0.50112
-0.12299472 0.0011252869 -0.44424617 -0.034329053 -0.3046077 0.06927027 -0.27200776 -0.36657733
-0.20018493 0.34960327 0.7472444 0.05576004 0.004642067 -0.33760825 0.20521669 0.27394688
-0.018382028 0.1871848 -0.52835304 0.18084908 -0.26353055 -0.43757007 0.23231533 -0.42047146
-0.44079718 0.595391 -0.12793508 0.7518263 -0.24795052 -0.31831706 -0.22235325 0.15683421
1.0106059 0.63530666 0.3869618 0.26546276 -0.13481277 -0.27230778 0.83646905 0.14661708
0.04697175 0.045275092 0.18756644 0.5998069 0.30768973 0.31354746 -0.16242692 -0.44774374
-0.50949764 -0.8871087 -0.255906 0.40551367 -0.11736886 0.14726451 0.122747816 -0.42292348
-0.31118488 0.044832233 0.67900896 -0.18425392 -0.35013968 -0.7048596 -0.06650868 -0.24191478
-0.79414123 -0.061734613 -0.0664349 -0.05401909 0.64960104 -0.06503451 0.6036459 0.1552082
-0.4729419 0.27918273 -0.24520697 -0.24448723 -0.00791272 -0.29402903 0.025826635 -0.026061
-0.4858329 -0.9468405 0.11504454 0.07990309 0.21491201 -0.040841173 -0.19188906 -0.15360585
-0.0219161 -0.088086896 0.2968746 -0.4085438 0.3297173 0.040837534 0.26928645 -0.38056117
-0.52105176 -0.06573137 -0.037072223 -0.06623253 -0.026526826 -0.50105166 -0.15692787 -0.21567065
00000000: d65f 6cbe 60ed b6be 28bf 95bd b5ce 8c3e
00000010: 0e0a 57bc 5b7c 4bbf 68bf cabe 1464 eebe
00000020: fa22 963d ffd7 b03d 9b74 5abe 9dd0 88be
00000030: f11b 223e 7ec8 cebe b13f 4e3e ce90 e7bb
00000040: 5f92 6cbe ecfd 3bbf 5a0f c83d 3c96 263e
00000050: 0eae 173f 5328 2d3e 39f6 443e b7e6 03bf
00000060: 7469 cc3d 7d74 ed3d cbd3 9ebd 8883 7cbe
00000070: be02 abbc 52b6 883d ef72 77be acd3 36be
00000080: c13c 21be e582 64be c674 bb3e 6e20 323e
00000090: 1586 303f 60b2 b13e 29a2 25bb b4a3 313f
000000a0: c01d d63e cc68 77be cb3f 0dbe 83bc b8bb
000000b0: 252d 9bbe 6bd8 933d 8810 37be 9eba ddbe
000000c0: 2058 eb3e 13f2 38be 0f51 023e 6079 bf3d
000000d0: cfd6 5b3d 71a8 1a3e cae3 b7be 5912 acbe
000000e0: 8731 a5be 8120 c9be cd36 0c3e acb8 aa3e
000000f0: 09b7 05bf c80d fb3d 2708 aabe db70 cabe
00000100: 2f8c 3d3e 8478 4dbf 0f27 f33d f8a1 393e
00000110: d0ef c5be e684 c33e 79a1 a5be b5f8 903e
00000120: bb10 b6bc e68b a73e 4785 00bd d551 d1be
00000130: 5c2a 00bf db5a ffbe e41f 03bf 28f3 363e
00000140: 5926 10bf 6126 5abd 0208 853e 3211 f43d
00000150: e62e 65be 2890 afbd ef1f ed3c 5d06 3e3d
00000160: 7e84 243f 7506 3dbe cf1d a03c 6256 39be
00000170: fd8b 8dbe f4fc 0fbe a0dd 143f fb16 96bd
00000180: 954b e93e 6e97 013e 7ac4 493e dc69 923e
00000190: 4dd4 b53d c617 783b cc40 0fbf a978 71be
000001a0: 56f9 a1bd cdf3 bb3d 73b1 4a3f de0c edbd
000001b0: 4e50 0e3e 0315 963e b58d 9a3e dff0 a5be
000001c0: a007 f7bd 672e b5be 3205 4f3f f368 d3bd
000001d0: 66df 193f e3b7 fabe 9584 e03e 9456 4ebe
000001e0: ecb8 833e f63a a0bd c5e5 6d3e 9158 473c
000001f0: e2fe 82be 3052 f33d 8783 c03e 03ed 69be
00000200: 97ea 883e 0fae edbe 8b9c 41be 9b1e c7bd
00000210: 62b7 253e 4ff0 743e eed8 5ebe fc25 b7bd
00000220: 9f96 3c3e f5b4 9ebe 18f6 b3bd c0b0 b23d
00000230: 1069 ca3e ef76 b03d 081f 763d 71f3 67be
00000240: 1e8b 833e d7d0 423d cf98 f23d bf09 9abe
00000250: f649 573e bfff 023f a98b 663e 6649 00bf
00000260: a8e4 fbbd 5d7e 933a 3c74 e3be 9f9c 0cbd
00000270: 8af5 9bbe 92dd 8d3d 9a44 8bbe 06b0 bbbe
00000280: 47fd 4cbe 33ff b23e 694b 3f3f a464 643d
00000290: 7b1c 983b fdda acbe 5324 523e c442 8c3e
000002a0: e895 96bc 5fad 3f3e 2542 07bf 8030 393e
000002b0: 7aed 86be 2f09 e0be 12e4 6d3e 0948 d7be
000002c0: 2bb0 e1be 8b6b 183f 6a01 03be b077 403f
000002d0: bee6 7dbe 74fa a2be 92b0 63be 2699 203e
000002e0: 895b 813f 75a3 223f db1f c63e bcea 873e
000002f0: 5c0c 0abe ed6b 8bbe d622 563f ca22 163e
00000300: 7365 403d 6072 393d 6b11 403e f28c 193f
00000310: 8289 9d3e 4b89 a03e 3e53 26be ab3e e5be
00000320: 706e 02bf 8e19 63bf 1c06 83be 7d9f cf3e
00000330: 165f f0bd 82cc 163e 3563 fb3d 6d89 d8be
00000340: a053 9fbe 01a2 373d 88d3 2d3f 0fad 3cbe
00000350: 8245 b3be ae71 34bf b435 88bd 82b8 77be
00000360: d74c 4bbf 6fdd 7cbd 050f 88bd 1f43 5dbd
00000370: 414c 263f d030 85bd 8a88 1a3f e6ee 1e3e
00000380: 7125 f2be 0af1 8e3e 8917 7bbe dc5a 7abe
00000390: 5aa4 01bc f98a 96be 6192 d33c e17d d5bc
000003a0: 17bf f8be 2464 72bf 799c eb3d 3ba4 a33d
000003b0: e511 5c3e 1349 27bd 917e 44be da4a 1dbe
000003c0: 6589 b3bc e766 b4bd f3ff 973e a72c d1be
000003d0: b5d0 a83e 4245 273d eadf 893e ead8 c2be
000003e0: a663 05bf 2b9e 86bd 0bd9 17bd eca4 87bd
000003f0: c94e d9bc ec44 00bf b3b1 20be c4d8 5cbe

actor.2.bias f4 [256]
-0.7107716 -0.75322825 -0.20585269 -0.232174 -0.16321604 -0.5050663 -0.47102526 -0.26028606
-0.29317784 -0.20456995 -0.13798605 -0.6780393 -0.37577686 -0.1763076 -0.44378012 -0.38584518
-0.30157638 -0.29616827 -0.329564 -0.4977056 -0.29239276 -0.30661345 -0.12226032 -0.2514596
-0.22920206 -0.503271 -0.47832265 -0.5469612 -0.50640655 -0.6559249 -0.4860348 -0.52098835
-0.21090692 -0.46810433 -0.4846641 -0.47139788 -0.38148388 -0.09295153 -0.54792684 -0.54062736
-0.04095353 -0.15930413 -0.33921936 -0.24929962 -0.31409818 -0.18788321 -0.2957012 -0.396931
-0.3060124 -0.4219471 -0.25068852 -0.4159183 -0.37103587 -0.3958303 -0.30465522 -0.23736207
-0.30671877 -0.29618633 -0.4439467 -0.40674362 -0.3350393 -0.038603436 -0.21415247 -0.26709878
-0.27434707 -0.22150208 -0.22866851 -0.036984984 -0.32177308 -0.35216108 -0.41358373 -0.27595723
-0.43220246 -0.11061765 -0.56487894 -0.42028353 -0.5265299 -0.36628312 -0.6303087 -0.3045939
0.05949856 -0.35564744 -0.4078776 -0.24099964 -0.5011862 -0.09002598 -0.4124113 -0.39230016
-0.65375507 -0.2934667 -0.421577 -0.53093886 -0.3454135 -0.5859709 -0.29481164 -0.4738472
-0.5223165 -0.56310976 -0.28780538 -0.4102299 -0.56655216 -0.32234597 -0.348619 -0.6935409
-0.29353255 -0.0790882 -0.40087575 -0.12105245 -0.38401517 -0.07430393 -0.2508618 -0.3855214
-0.44445446 -0.30866364 -0.54642034 -0.349337 -0.17845534 -0.5471162 -0.5380051 -0.6029205
-0.3679069 -0.21932504 -0.3487981 -0.33824712 -0.037719622 -0.31129152 -0.39206675 -0.5023885
-0.322985 -0.6563731 -0.23837116 -0.47610465 -0.41197744 -0.17434818 -0.5572545 -0.35611838
-0.011969465 -0.25959337 -0.31273392 -0.26242182 -0.3495018 -0.276626 -0.45277882 -0.29366854
-0.14598447 -0.1903377 -0.25226513 -0.18320853 -0.36204392 -0.2706007 -0.3772047 -0.33059973
-0.42969882 -0.040289473 -0.44604275 -0.22378467 -0.5362044 -0.27798164 -0.48120877 -0.03200092
-0.3791721 -0.3127868 -0.38524318 -0.21280783 -0.4066334 -0.5101408 -0.19479404 -0.28404802
-0.41581383 -0.39470038 -0.7032788 -0.11838542 -0.43354958 -0.41918594 -0.14327826 -0.33616155
-0.1326624 -0.37117732 -0.19143245 -0.39934477 -0.46143332 -0.5571425 -0.7301615 -0.46744707
-0.19787611 -0.43043682 -0.53000176 -0.34014016 -0.3780478 -0.27323234 -0.5131179 -0.39031112
-0.30341104 -0.39805165 -0.3157969 -0.26595277 -0.30906364 -0.32854706 -0.3874546 -0.21877062
-0.33241865 -0.1546419 -0.063532926 0.13921571 -0.32602015 -0.44795227 -0.6152265 -0.5099733
-0.24702731 -0.5851262 -0.45253697 -0.63560325 -0.123993 -0.44383702 -0.22182193 0.033900023
-0.373982 -0.34924316 -0.22813638 -0.27692363 0.034874246 -0.41440347 -0.39400035 -0.09781312
-0.34625685 -0.40823552 -0.2583231 -0.33907703 -0.36264148 -0.18893582 -0.39636374 0.04296317
-0.09225939 -0.41989043 -0.47044566 -0.44892198 -0.40160975 -0.26895884 -0.3565521 -0.7242709
-0.14559934 -0.34650126 -0.34045166 -0.300677 0.109720476 -0.5138516 -0.27600062 -0.45963812
-0.21269938 -0.5055711 -0.39859232 0.019803787 -0.26061627 -0.21421953 -0.5469026 -0.3296941
00000000: 21f5 35bf 91d3 40bf 0ccb 52be 05bf 6dbe
00000010: 1b22 27be 064c 01bf 392a f1be 3744 85be
00000020: 681b 96be c97a 51be 374c 0dbe fc93 2dbf
00000030: d365 c0be fb89 34be 2637 e3be 808d c5be
00000040: 3868 9abe 5ea3 97be 9dbc a8be 45d3 febe
00000050: 81b4 95be 70fc 9cbe 9e63 fabd 50bf 80be
00000060: f2b3 6abe 5ed6 00bf b5e6 f4be a605 0cbf
00000070: dca3 01bf b2ea 27bf 8ed9 f8be 7e5f 05bf
00000080: fcf7 57be 5fab efbe e525 f8be 105b f1be
00000090: db51 c3be 5f5d bebd ef44 0cbf 8e66 0abf
000000a0: e4be 27bd 9f20 23be 29ae adbe 6648 7fbe
000000b0: 7ad1 a0be 7564 40be 2666 97be 8a3a cbbe
000000c0: a8ad 9cbe 7309 d8be 3f5a 80be 3ef3 d4be
000000d0: 6af8 bdbe 45aa cabe c5fb 9bbe 0b0f 73be
000000e0: 3e0a 9dbe bca5 97be fb4c e3be b340 d0be
000000f0: 458a abbe a31e 1ebd c94a 5bbe 2cc1 88be
00000100: 3877 8cbe 71d1 62be 1428 6abe 917d 17bd
00000110: 71bf a4be 754e b4be 3fc1 d3be 444a 8dbe
00000120: a449 ddbe 828b e2bd e89b 10bf 672f d7be
00000130: aaca 06bf 7689 bbbe e95b 21bf bbf3 9bbe
00000140: c3b4 733d 6c17 b6be 55d5 d0be 9cc8 76be
00000150: bd4d 00bf 8a5f b8bd 9327 d3be 91db c8be
00000160: 7e5c 27bf 4441 96be f1d8 d7be 9ceb 07bf
00000170: 0ada b0be 3002 16bf 8df1 96be 1a9c f2be
00000180: 89b6 05bf f627 10bf 3a5b 93be a709 d2be
00000190: 9009 11bf 880a a5be 317e b2be e58b 31bf
000001a0: e649 96be fff8 a1bd 963f cdbe 59ea f7bd
000001b0: a39d c4be a92c 98bd f570 80be 1063 c5be
000001c0: 898f e3be 2909 9ebe 34e2 0bbf 4ddc b2be
000001d0: ffbc 36be cf0f 0cbf b4ba 09bf ff58 1abf
000001e0: 4b5e bcbe be96 60be aa95 b2be ba2e adbe
000001f0: e47f 1abd 9a61 9fbe f9bc c8be 889c 00bf
00000200: 4a5e a5be 1108 28bf 9217 74be fdc3 f3be
00000210: b5ee d2be 5488 32be 3ba8 0ebf 2655 b6be
00000220: 931b 44bc 6ce9 84be a91e a0be 275c 86be
00000230: e6f1 b2be eca1 8dbe a0d2 e7be b95b 96be
00000240: f47c 15be e3e7 42be e528 81be 049b 3bbe
00000250: d25d b9be 2d8c 8abe f920 c1be 5e44 a9be
00000260: 7c01 dcbe 9306 25bd b75f e4be cf27 65be
00000270: b144 09bf 9c53 8ebe ff60 f6be 6613 03bd
00000280: d822 c2be 9725 a0be 983e c5be 4cea 59be
00000290: 4132 d0be 9698 02bf 1778 47be be6e 91be
000002a0: 8de5 d4be 2b16 cabe 140a 34bf 0e74 f2bd
000002b0: 36fa ddbe 8a9f d6be 89b7 12be 5e1d acbe
000002c0: a7d8 07be f40a bebe de06 44be eb76 ccbe
000002d0: fd40 ecbe e4a0 0ebf ddeb 3abf 3955 efbe
000002e0: 09a0 4abe 3762 dcbe 32ae 07bf da26 aebe
000002f0: 7b8f c1be 1ce5 8bbe b25b 03bf dcd6 c7be
00000300: b158 9bbe 6dcd cbbe 22b0 a1be f62a 88be
00000310: 973d 9ebe 5237 a8be 7360 c6be 6805 60be
00000320: c732 aabe 725a 1ebe 8d1d 82bd 908e 0e3e
00000330: 1dec a6be 005a e5be 7c7f 1dbf 9c8d 02bf
00000340: baf4 7cbe d5ca 15bf edb2 e7be e5b6 22bf
00000350: 0bf0 fdbd 9b3e e3be 4a25 63be c0da 0a3d
00000360: 927a bfbe 00d0 b2be 959c 69be efc8 8dbe
00000370: 4cd8 0e3d b12c d4be 6aba c9be 3f52 c8bd
00000380: 9448 b1be 3f04 d1be ed42 84be 819b adbe
00000390: 25ac b9be 6478 41be 30f0 cabe 26fa 2f3d
000003a0: 7ef2 bcbd e1fb d6be 41de f0be 1ad9 e5be
000003b0: cb9f cdbe f9b4 89be ff8d b6be d169 39bf
000003c0: fe17 15be 9d68 b1be ae4f aebe 56f2 99be
000003d0: 21b5 e03d c78b 03bf f44f 8dbe b055 ebbe
000003e0: decd 59be 1c6d 01bf 4b14 ccbe 8d3b a23c
000003f0: 7f6f 85be 5d5c 5bbe cf01 0cbf aacd a8be

actor.4.weight f4 [40, 256]
-0.29925537 -0.15680224 -0.9681746 -0.62070173 -0.394374 0.18188785 0.074383795 0.6375506
0.22905546 -0.8374304 0.16914295 -0.24609289 -0.27165174 0.15845832 -0.037976388 -0.48166928
-0.06316868 0.024870148 0.42345414 -0.07416436 0.17327431 0.2963428 0.3747948 -0.21870469
0.28603253 -0.26204064 0.17584108 0.29610783 0.7433236 -0.5073441 0.40016156 0.018337598
0.14620055 1.650651 0.32011023 -0.47596127 -0.3983373 -1.1002548 0.47741374 -0.45974627
0.4705463 -0.25187683 -0.9311623 0.06998143 0.66789615 0.2276325 -0.23460278 -0.24747089
-0.16109455 0.2801718 -0.18935384 0.341361 -0.59958804 -0.10196827 -0.4630143 0.7983465
0.10442064 0.02694751 0.347569 0.3899878 0.106652394 0.17165864 -0.38052508 0.1198967
0.66020083 -0.69627637 0.39351934 -0.23219937 -0.503484 -0.23918773 -0.070985615 0.22434404
-0.11407923 0.5200151 -0.2426602 0.7441015 -0.79705215 0.38143918 0.14007545 -0.26007432
-0.9422753 -0.078853615 -0.32571465 0.26958847 0.25757942 -0.5079618 -0.25310302 0.23359838
0.5069415 0.091487005 0.17245999 -0.059962384 0.18491516 0.14395532 -0.40164924 0.1653598
0.15117292 0.023617608 0.3736273 -0.017752998 0.3350114 0.53510445 0.5386727 -1.2290978
0.10120581 -0.21849866 -0.3106631 -0.6046542 -0.21825616 -0.1552634 -0.09855673 0.17096883
0.3364242 0.55767024 0.28993043 0.0003992184 0.5655611 0.50416 -0.3219242 0.9195774
0.85346216 -0.46657103 -0.02999827 -0.7988146 -0.71588075 -0.37812048 -0.25769678 -0.32547554
0.3286645 0.19837889 -0.78451824 0.24380088 -0.15839525 0.12127661 0.4010765 -0.37516636
-0.5981993 0.0780022 0.4773783 -0.6113061 0.3212787 0.7143294 -0.44981682 -0.13957427
0.030774467 -0.34529215 0.1802116 -0.49159977 0.35188845 -0.7928246 0.038384173 -0.95220304
-0.30800205 -1.0447454 0.56854814 0.08060906 0.23924823 -0.7326931 1.0193084 0.13028571
0.15066764 -0.10377595 -0.08719644 -0.09365866 1.7389935 0.0011939659 0.42894146 0.2503899
0.5710552 0.019310286 -0.36561084 0.4117161 -0.4346572 0.18581903 -0.56133574 0.5656706
0.93614423 0.24173644 -0.5352112 0.459427 -0.014223922 -0.13730566 -0.7064185 0.8478209
-0.56704044 -0.130084 -0.1874873 0.380433 0.549888 -0.46714538 -0.014750819 -0.022048557
0.2894239 0.28495196 -1.064485 0.13490993 0.2564456 0.2092302 -0.017849807 -0.20116352
0.07985634 0.3448695 -0.51590806 -1.0218955 0.98097 -0.15677848 -0.022264846 1.8047764
-0.32137373 -0.3897939 -0.07747433 -0.23984325 -1.0950987 -0.038897645 0.67295516 -0.72683233
0.25610432 0.60997504 -0.8458232 0.1551461 -0.57812965 0.6144229 0.41554162 -0.6606688
-0.25862166 -0.21240334 -0.41681382 0.22309907 -0.12375259 -0.32867074 -0.64068145 0.39610848
-0.36848342 -0.0014597874 -0.51863015 -0.4086968 -0.18856376 -0.2792775 0.4520682 -0.34374896
-0.22492784 -0.68533456 -0.46922076 0.11933449 0.166236 -0.40462753 -0.30231175 -0.22037609
-0.49187872 0.3257098 0.34727922 1.0308814 -0.3171397 -0.5745613 0.23724252 -0.6286638
00000000: 0038 99be c490 20be 4ada 77bf 4fe6 1ebf
00000010: 64eb c9be cf40 3a3e 8856 983d 8436 233f
00000020: 848d 6a3e d761 56bf cf33 2d3e c6ff 7bbe
00000030: f015 8bbe e642 223e 218d 1bbd 5b9d f6be
00000040: 955e 81bd 7bbc cb3c fbce d83e 7ce3 97bd
00000050: d26e 313e 3eba 973e 1be5 bf3e 1ff4 5fbe
00000060: db72 923e 312a 86be af0f 343e 729b 973e
00000070: 754a 3e3f 4ee1 01bf fae1 cc3e bb38 963c
00000080: 99b5 153e 8848 d33f 7de5 a33e 32b1 f3be
00000090: def2 cbbe 26d5 8cbf 936f f43e dd63 ebbe
000000a0: 72eb f03e 00f6 80be a760 6ebf 6d52 8f3d
000000b0: 3efb 2a3f 7e18 693e b63b 70be 0269 7dbe
000000c0: f8f5 24be ae72 8f3e f9e5 41be dec6 ae3e
000000d0: 9a7e 19bf bed4 d0bd 3610 edbe 7060 4c3f
000000e0: 7dda d53d 06c1 dc3c 90f4 b13e 7bac c73e
000000f0: 926c da3d 48c7 2f3e 2fd4 c2be 678c f53d
00000100: ec02 293f 2b3f 32bf 5e7b c93e acc5 6dbe
00000110: 54e4 00bf a1ed 74be e860 91bd 72ba 653e
00000120: 5fa2 e9bd b61f 053f ea7b 78be 707d 3e3f
00000130: 9c0b 4cbf ff4b c33e f06f 0f3e 7628 85be
00000140: f438 71bf 017e a1bd 12c4 a6be 8007 8a3e
00000150: 73e1 833e c909 02bf b896 81be 6a34 6f3e
00000160: ebc6 013f 8a5d bb3d 5a99 303e 1e9b 75bd
00000170: 665a 3d3e 0669 133e f8a4 cdbe 1454 293e
00000180: 13cd 1a3e b779 c13c 144c bf3e bc6e 91bc
00000190: 9d86 ab3e 9bfc 083f 74e6 093f 1453 9dbf
000001a0: fe44 cf3d 1dbe 5fbe 3c0f 9fbe 9eca 1abf
000001b0: 8b7e 5fbe 5efd 1ebe 1cd8 c9bd 7412 2f3e
000001c0: cb3f ac3e 7ac3 0e3f c371 943e 304e d139
000001d0: 9dc8 103f a110 013f 40d3 a4be 6d69 6b3f
000001e0: 7f7c 5a3f 66e2 eebe efbe f5bc 1d7f 4cbf
000001f0: f643 37bf 0299 c1be d5f0 83be bba4 a6be
00000200: b746 a83e d623 4b3e 30d6 48bf f0a6 793e
00000210: 5d32 22be df5f f83d e659 cd3e ce15 c0be
00000220: 9723 19bf 9ebf 9f3d ee6a f43e 8e7e 1cbf
00000230: a47e a43e 4bde 363f 644e e6be 8fec 0ebe
00000240: bc1a fc3c 22ca b0be 6489 383e f7b2 fbbe
00000250: b92a b43e 8ef6 4abf b938 1d3d 94c3 73bf
00000260: 72b2 9dbe 38ba 85bf 5f8c 113f 5d16 a53d
00000270: 7dfd 743e c691 3bbf b378 823f 9e69 053e
00000280: 9e48 1a3e 7c88 d4bd 0c94 b2bd 1dd0 bfbd
00000290: 5797 de3f d97e 9c3a 379e db3e 1b33 803e
000002a0: ac30 123f 9b30 9e3c 5831 bbbe 74cc d23e
000002b0: 638b debe 5847 3e3e b3b3 0fbf cacf 103f
000002c0: 26a7 6f3f c289 773e 9a03 09bf 043a eb3e
000002d0: 740b 69bc db99 0cbe d8d7 34bf ca0a 593f
000002e0: 9029 11bf bd34 05be acfc 3fbe 1dc8 c23e
000002f0: 76c5 0c3f ae2d efbe 6bad 71bc 2d9f b4bc
00000300: 5f2f 943e 39e5 913e 0b41 88bf d425 0a3e
00000310: d64c 833e 7140 563e c239 92bc cffd 4dbe
00000320: b98b a33d bc92 b03e 8d12 04bf 79cd 82bf
00000330: da20 7b3f 8a8a 20be c464 b6bc ea02 e73f
00000340: 198b a4be 1193 c7be ddaa 9ebd 7899 75be
00000350: 322c 8cbf 2353 1fbd ca46 2c3f af11 3abf
00000360: 1b20 833e 5327 1c3f df87 58bf 9fde 1e3e
00000370: 4e00 14bf d24a 1d3f dfc1 d43e 9721 29bf
00000380: 0f6a 84be 4380 59be 9f68 d5be 1574 643e
00000390: ff71 fdbd 8847 a8be b303 24bf bbce ca3e
000003a0: dca9 bcbe 5656 bfba f2c4 04bf b540 d1be
000003b0: dc16 41be 76fd 8ebe 7c75 e73e ddff afbe
000003c0: 7c53 66be 1672 2fbf b43d f0be a465 f43d
000003d0: c539 2a3e 572b cfbe 9bc8 9abe 45aa 61be
000003e0: 87d7 fbbe 6fc3 a63e 95ce b13e ecf3 833f
000003f0: 2260 a2be 7316 13bf b4ef 723e 1cf0 20bf

actor.4.bias f4 [40]
-0.46415845 0.24482708 -0.33203682 -0.04645656 0.060105707 -0.114873745 0.09378151 0.5581611
0.3842382 0.21272752 -0.7826819 0.065569825 -0.20433979 -0.09820059 -0.054399583 -0.108847514
0.2760871 0.47817653 0.51509243 0.44371814 -0.5064298 -0.11493464 -1.0624989 -0.23359089
0.066959776 -0.17922878 -0.051023874 -0.039537128 0.6109807 0.14753623 -0.8312661 -0.088336185
-0.5113818 0.24559544 0.044679593 0.28960648 0.23032862 0.35173753 0.33427015 0.23752248
00000000: 2da6 edbe f3b3 7a3e bb00 aabe 3c49 3ebd
00000010: 6731 763d ed42 ebbd 8510 c03d a5e3 0e3f
00000020: dfba c43e 3ed5 593e d75d 48bf 7949 863d
00000030: 733e 51be 641d c9bd 19d2 5ebd 72eb debd
00000040: 4a5b 8d3e 8ed3 f43e 19dd 033f 062f e33e
00000050: 62a5 01bf da62 ebbd f7ff 87bf 7332 6fbe
00000060: 3522 893d c087 37be 69fe 50bd aff1 21bd
00000070: 3b69 1c3f bd13 173e dbcd 54bf 9ae9 b4bd
00000080: ebe9 02bf 5f7d 7b3e f301 373d 4d47 943e
00000090: 44db 6b3e f116 b43e 7525 ab3e 1839 733e
