agent-v2.pt (torch, 906255 bytes, 11 tensors)

critic.0.weight f4 [256, 162]
0.027623001 0.024795571 0.14304891 -0.0597334 -0.028442204 -0.016850559 0.044807363 0.06598507
0.09748639 -0.006716269 0.12099451 -0.088151105 0.017290257 -0.05867145 -0.062253643 0.03002547
-0.053582102 -0.084281884 -0.046776857 -0.08886271 0.020924415 0.056402817 -0.082205765 0.014218063
-0.014695287 0.077375524 0.015034889 -0.0023626974 0.07026462 0.16268122 0.06227728 0.023720132
0.033075273 -0.0013346322 0.01930686 0.057130337 0.006224353 -0.0055474374 -0.10326752 0.08075873
0.12445835 0.1580079 0.24933699 0.12015858 0.14800812 0.07639942 0.2149226 0.0041327607
0.11775449 0.041753203 0.010509314 -0.06889453 -0.0020560268 -0.18076056 -0.0886687 0.026056478
0.07619187 0.0813023 -0.024972659 -0.11479298 -0.011347779 0.02409611 -0.17572956 -0.017701102
-0.18188824 -0.1649088 0.005971711 -0.071446374 -0.14805381 -0.10744032 -0.11395019 -0.14952964
0.073393315 0.07992183 -0.09440274 0.036562018 -0.054981098 -0.044054717 -0.16810058 0.019801157
0.045016795 0.0623821 -0.042812467 0.072914675 0.11173508 -0.12969625 -0.055842314 0.15343402
0.13538268 0.07365911 0.035706636 -0.016375134 -0.17093004 0.018430289 -0.13897628 0.034795713
0.15040267 -0.036229365 0.05329955 0.0022386028 -0.2593819 -0.0660319 -0.17447901 -0.007492917
0.026622051 0.05588945 -0.15235825 -0.15529546 0.005405442 -0.11533457 -0.06467541 0.020550238
-0.09613733 -0.042487577 -0.030959258 -0.0016486875 0.06272221 -0.08739618 -0.12653185 -0.09461531
-0.0015040755 0.026416603 0.021801548 -0.012871501 -0.032210883 0.02749872 0.029803457 -0.014500415
-0.0072964868 -0.13749966 -0.02553691 -0.0678831 -0.01122766 0.003944283 -0.00023846075 0.046128023
0.0233819 0.00018207102 0.021081707 0.00743324 -0.027699979 0.053336382 -0.02624517 0.044207152
-0.00044857585 0.038088653 -0.0018746259 0.030918127 0.09798708 0.06467201 0.01632034 0.024716642
0.0590782 -0.028279284 0.06552562 0.08322702 0.037245046 0.096996725 0.084049724 0.17702697
-0.12230659 0.124575816 -0.11397212 0.095041804 -0.022692673 -0.0070772567 -0.037581652 -0.0056147375
-0.020617738 -0.05584024 -0.026548114 -0.036104918 0.016954137 -0.13128792 -0.045022134 0.080057286
0.004522714 -0.04234805 -0.06242664 -0.016447216 -0.0034991987 -0.074287236 -0.16269591 -0.064118385
-0.20497878 -0.029769082 -0.027270261 0.099825226 -0.024518603 -0.059285812 -0.026233299 -0.03581734
-0.11253093 0.022522308 -0.097066514 -0.0521866 0.08224531 0.03845629 0.04802801 0.087261
0.13563208 0.09821628 -0.021639166 -0.16837008 0.0084090885 0.14127593 0.20493338 0.07025495
-0.025605982 -0.14103234 -0.008853321 0.055785187 -0.023316424 -0.15554368 0.048354622 -0.11168798
-0.043700844 -0.036384437 -0.07202484 0.020088261 0.00939715 0.06498838 0.17071411 -0.018414047
0.064891055 0.012912817 -0.01374028 0.19248357 0.11872776 -0.045222707 0.0474364 0.06264419
0.10210897 -0.06423331 0.17068963 -0.10051922 0.060328297 0.035605587 0.09981898 0.066441305
0.07023633 0.065567456 0.07798171 0.08226337 0.25371125 0.046406575 0.0055511487 0.019372327
0.0544013 0.044179767 -0.061749373 0.021410706 0.19679187 -0.051444918 -0.09933616 -0.030397447
00000000: a249 e23c 1520 cb3c 6a7b 123e 02ab 74bd
00000010: a0ff e8bc 2f0a 8abc ed87 373d 2e23 873d
00000020: f2a6 c73d 2614 dcbb f8cb f73d 9188 b4bd
00000030: 4ca4 8d3c 7951 70bd adfd 7ebd f9f7 f53c
00000040: e878 5bbd fb9b acbd 1799 3fbd a7fd b5bd
00000050: ae69 ab3c a406 673d 7f5b a8bd e1f2 683c
00000060: 80c4 70bc 0f77 9e3d e554 763c 7cd7 1abb
00000070: e6e6 8f3d e895 263e 7616 7f3d b950 c23c
00000080: f079 073d d3ee aeba 6c29 9e3c 8001 6a3d
00000090: a8f5 cb3b 47c7 b5bb ec7d d3bd d564 a53d
000000a0: 05e4 fe3d d3cc 213e 3252 7f3e b415 f63d
000000b0: 718f 173e 4d77 9c3d ac14 5c3e 1c6c 873b
000000c0: 4429 f13d 6805 2b3d 422f 2c3c 9318 8dbd
000000d0: 68be 06bb 4c19 39be ef97 b5bd 6574 d53c
000000e0: 7c0a 9c3d d281 a63d 7693 ccbc 9518 ebbd
000000f0: 09ec 39bc 3565 c53c 73f2 33be e701 91bc
00000100: e940 3abe dadd 28be 58ae c33b 7a52 92bd
00000110: 6b9b 17be ac09 dcbd b85e e9bd 4c1e 19be
00000120: 3c4f 963d 0eae a33d 3956 c1bd 0ec2 153d
00000130: dc33 61bd b872 34bd 8f22 2cbe 0936 a23c
00000140: 8863 383d 5f84 7f3d 205c 2fbd 4a54 953d
00000150: 5dd5 e43d 18cf 04be e9ba 64bd cf1d 1d3e
00000160: c2a1 0a3e 96da 963d 1f41 123d 2525 86bc
00000170: 4908 2fbe 1efb 963c cc4f 0ebe f385 0e3d
00000180: 2803 1a3e 3e65 14bd a150 5a3d 86b5 123b
00000190: b4cd 84be bc3b 87bd a0aa 32be 2587 f5bb
000001a0: 7d16 da3c 56ec 643d cd03 1cbe c605 1fbe
000001b0: 2220 b13b 8834 ecbd 8b74 84bd f958 a83c
000001c0: a6e3 c4bd 7407 2ebd 459e fdbc c618 d8ba
000001d0: 8174 803d c5fc b2bd 9191 01be acc5 c1bd
000001e0: 6624 c5ba a267 d83c 2999 b23c fde2 52bc
000001f0: 8fef 03bd ff44 e13c 6126 f43c 2693 6dbc
00000200: 5e17 efbb b6cc 0cbe c832 d1bc 4b06 8bbd
00000210: 38f4 37bc 0b3f 813b 520b 7ab9 bdf0 3c3d
00000220: 668b bf3c 51ea 3e39 8bb3 ac3c 8992 f33b
00000230: 11eb e2bc 4077 5a3d 1c00 d7bc 8f12 353d
00000240: d52e ebb9 d902 1c3d 02b6 f5ba 0348 fd3c
00000250: 73ad c83d c272 843d 3cb2 853c 8e7a ca3c
00000260: fcfb 713d f5a9 e7bc 4c32 863d ee72 aa3d
00000270: 438e 183d 38a6 c63d 4322 ac3d 8f46 353e
00000280: e17b fabd 9b21 ff3d 376a e9bd 47a5 c23d
00000290: fce5 b9bc 55e8 e7bb 38ef 19bd d5fb b7bb
000002a0: 88e6 a8bc bcb8 64bd 6e7b d9bc c0e2 13bd
000002b0: 67e3 8a3c 5770 06be 2169 38bd 13f5 a33d
000002c0: 4633 943b 2675 2dbd 14b3 7fbd 50bc 86bc
000002d0: d052 65bb e823 98bd c299 26be 8050 83bd
000002e0: f5e5 51be 4ade f3bc e265 dfbc 2b71 cc3d
000002f0: 3ddb c8bc aed5 72bd 37e7 d6bc 34b5 12bd
00000300: 9e76 e6bd b480 b83c cfca c6bd 9ec1 55bd
00000310: 3b70 a83d 5884 1d3d 05b9 443d e5b5 b23d
00000320: 23e3 0a3e 9e25 c93d 9f44 b1bc 3569 2cbe
00000330: 46c6 093c a3aa 103e 0eda 513e d4e1 8f3d
00000340: a3c3 d1bc c86a 10be 850d 11bc 027f 643d
00000350: 1602 bfbc d846 1fbe 7f0f 463d abbc e4bd
00000360: a8ff 32bd d907 15bd c281 93bd 2390 a43c
00000370: 81f6 193c a118 853d aecf 2e3e 0ed9 96bc
00000380: 9ae5 843d 4890 533c e91e 61bc 6a1a 453e
00000390: 8a27 f33d 723b 39bd ac4c 423d 994b 803d
000003a0: 821e d13d c18c 83bd 43c9 2e3e 05dd cdbd
000003b0: ce1a 773d 2ad7 113d e56d cc3d 6112 883d
000003c0: 11d8 8f3d 3b48 863d e0b4 9f3d b379 a83d
000003d0: 71e6 813e d214 3e3d 69e6 b53b b7b2 9e3c
000003e0: e6d3 5e3d d8f5 343d e9ec 7cbd 8165 af3c
000003f0: cf83 493e e8b7 52bd c270 cbbd 1104 f9bc

critic.0.bias f4 [256]
0.010710072 0.06121593 -0.07300509 -0.06908342 -0.1232446 -0.007843923 -0.09720881 -0.07998224
-0.015096311 0.018296175 0.16313313 0.07709817 0.032996815 -0.0611585 -0.06528336 -0.044009905
0.015121896 -0.13974382 0.036058716 -0.21319449 -0.044693153 0.12743959 -0.13306692 -0.123631574
0.008695654 -0.053918686 -0.056002837 -0.08807196 -0.0011246285 -0.049482107 0.008223448 -0.17898886
-0.17191412 -0.18340452 -0.056053773 0.11917793 0.03818162 -0.24200699 -0.1366636 -0.07384109
-0.08483131 0.04849847 0.0056311344 -0.18467045 0.006500692 0.005536895 -0.15656768 -0.049863283
-0.14700782 0.048769947 -0.011900303 -0.049069185 -0.064796425 -0.057015274 -0.20508938 -0.06081552
-0.035708036 0.03134079 -0.010693112 0.08050219 -0.20717897 0.11333834 -0.10677722 -0.10900634
-0.23692556 -0.05969256 -0.21168272 0.030375227 -0.0046071718 -0.12125603 -0.07567777 0.054433644
0.02033528 0.0580364 0.0115820635 -0.038394943 -0.19921346 -0.04569324 -0.086133175 0.00012457752
-0.124871135 0.0068932557 -0.04524311 0.070665106 -0.094689906 -0.070478275 0.034839287 -0.011196269
-0.059588972 0.0012574011 -0.10555582 -0.033059716 -0.10677901 -0.008323437 -0.0011816906 -0.2115727
-0.15734579 -0.074156255 -0.029330054 -0.090262234 -0.00992928 -0.09504694 -0.15751994 0.0016680467
-0.13473527 -0.07554013 0.058343455 -0.1299914 -0.038719542 -0.14596643 -0.12851246 -0.08099079
-0.13718438 -0.2468752 -0.22180638 -0.09786351 -0.199518 -0.0641687 -0.09353189 -0.10383102
-0.111039296 -0.024015283 -0.0439371 -0.21470748 0.11308441 -0.28331265 -0.17057265 -0.028385794
-0.09260516 -0.07320257 -0.11078329 0.0902831 0.015053524 -0.076258376 0.022434754 -0.07711088
-0.048625793 -0.103952974 -0.1289791 -0.053390715 -0.07175782 -0.029876707 -0.021475205 -0.08047572
-0.065337926 -0.060574014 -0.07723844 -0.1063798 -0.08168176 0.010743576 -0.08396109 -0.024697427
-0.08719281 0.011303156 0.15234947 -0.075428545 -0.09899104 -0.06424771 -0.10142912 -0.10209219
-0.17414081 0.015748346 -0.41030583 -0.090006314 -0.015145855 -0.04635051 0.009486012 -0.08699067
-0.29682827 -0.08500868 -0.10116481 -0.15631452 -0.19741449 -0.094455995 -0.08164761 0.017338976
0.0115104895 -0.08959148 -0.021935761 -0.03730415 0.011063207 -0.08990866 -0.015833348 -0.089654304
-0.056936897 -0.12916663 -0.094113216 -0.10605471 -0.10045348 -0.14585368 -0.0018507201 -0.020114316
-0.0632818 -0.17789967 -0.2737452 0.027372185 -0.21567029 -0.064867124 0.026431387 -0.1266152
-0.123350404 -0.024668926 -0.08247654 0.060261678 -0.038326718 -0.017107595 -0.34552094 -0.041136596
-0.018143026 -0.16752538 -0.11355269 -0.075714365 0.021647513 0.032935884 -0.2214734 -0.14124286
-0.14577784 -0.099392 -0.21020874 -0.08363633 -0.0058513936 -0.055292133 -0.12468237 -0.16897899
-0.017896028 -0.031609528 0.05331108 -0.10357237 0.029872125 -0.024143722 -0.16050547 -0.08802099
-0.06289391 -0.061581302 -0.027245834 0.030341553 -0.12605171 -0.047768343 0.0049853916 -0.022828419
-0.1686059 -0.14613852 -0.08438718 0.031346217 -0.023030609 -0.063376166 -0.13497655 -0.023225814
-0.15043618 -0.09880879 -0.16016263 -0.12186207 0.018458394 0.06709128 0.029719446 -0.03146011
00000000: 4c79 2f3c 8ebd 7a3d b183 95bd 9c7b 8dbd
00000010: aa67 fcbd cc83 00bc 6a15 c7bd bbcd a3bd
00000020: 8556 77bc dce1 953c 5f0c 273e a5e5 9d3d
00000030: ab27 073d 5681 7abd 48b3 85bd bb43 34bd
00000040: d4c1 773c 0119 0fbe 4eb2 133d a84f 5abe
00000050: 2b10 37bd 867f 023e b242 08be 8d32 fdbd
00000060: 3778 0e3c d7d9 5cbd 3b63 65bd 125f b4bd
00000070: 4568 93ba c0ad 4abd a4bb 063c db48 37be
00000080: 410a 30be 65ce 3bbe a498 65bd 8f13 f43d
00000090: 5564 1c3d aed0 77be 8bf1 0bbe ff39 97bd
000000a0: 0abc adbd 55a6 463d 6185 b83b 401a 3dbe
000000b0: c203 d53b d76e b53b 4753 20be 713d 4cbd
000000c0: 3889 16be ffc2 473d 7df9 42bc c5fc 48bd
000000d0: fdb3 84bd d988 69bd f302 52be b219 79bd
000000e0: 9742 12bd 335f 003d 2a32 2fbc 55de a43d
000000f0: b926 54be ee1d e83d 04ae dabd b73e dfbd
00000100: 9d9c 72be 3080 74bd 5bc3 58be 78d5 f83c
00000110: c2f7 96bb 1555 f8bd f2fc 9abd d0f5 5e3d
00000120: 2c96 a63c 93b7 6d3d b2c2 3d3c 0444 1dbd
00000130: 9dfe 4bbe d628 3bbd 9766 b0bd 06a1 0239
00000140: 70bc ffbd d2e0 e13b d750 39bd deb8 903d
00000150: c8ec c1bd ea56 90bd a4b3 0e3d 8e70 37bc
00000160: 9113 74bd 61cf a43a a62d d8bd a069 07bd
00000170: f4ae dabd 065f 08bc f5e2 9aba 84a6 58be
00000180: 411f 21be 3cdf 97bd 9545 f0bc 68db b8bd
00000190: 6bae 22bc f8a7 c2bd e84c 21be 5ca2 da3a
000001a0: 0bf8 09be c9b4 9abd 8cf9 6e3d 771c 05be
000001b0: 6298 1ebd 3978 15be c598 03be 80de a5bd
000001c0: 107a 0cbe dacc 7cbe 3621 63be aa6c c8bd
000001d0: 724e 4cbe e16a 83bd a68d bfbd 5ca5 d4bd
000001e0: 9268 e3bd b3bb c4bc 63f7 33bd 47dc 5bbe
000001f0: cd98 e73d 5b0e 91be 99aa 2ebe 5389 e8bc
00000200: c6a7 bdbd 3beb 95bd 59e2 e2bd 59e6 b83d
00000210: 0ea3 763c 5a2d 9cbd 17c9 b73c 4fec 9dbd
00000220: d72b 47bd 4ce5 d4bd 1913 04be 39b0 5abd
00000230: c4f5 92bd ffbf f4bc c5ec afbc 74d0 a4bd
00000240: e4cf 85bd 751c 78bd 302f 9ebd a7dd d9bd
00000250: c448 a7bd d305 303c cbf3 abbd 4252 cabc
00000260: 2592 b2bd df30 393c 8001 1c3e 487a 9abd
00000270: d0bb cabd 4e94 83bd 12ba cfbd b615 d1bd
00000280: f851 32be ad02 813c 9b13 d2be 3b55 b8bd
00000290: 5226 78bc 08da 3dbd 386b 1b3c 2a28 b2bd
000002a0: e0f9 97be 0819 aebd 7f2f cfbd ea10 20be
000002b0: 0627 4abe 2572 c1bd dd36 a7bd 780a 8e3c
000002c0: 7e96 3c3c bd7b b7bd a0b2 b3bc 3dcc 18bd
000002d0: 7442 353c 0822 b8bd f0b4 81bc ad9c b7bd
000002e0: aa36 69bd 4244 04be 6ebe c0bd 3633 d9bd
000002f0: 8eba cdbd ab5a 15be dd93 f2ba c7c6 a4bc
00000300: e399 81bd 552b 36be 5528 8cbe a23b e03c
00000310: acd8 5cbe 0ed9 84bd a386 d83c 6aa7 01be
00000320: 239f fcbd 7d16 cabc 76e9 a8bd f3d4 763d
00000330: 7afc 1cbd 3a25 8cbc 1fe8 b0be d97e 28bd
00000340: afa0 94bc c68b 2bbe 508e e8bd 2210 9bbd
00000350: 2056 b13c c7e7 063d ecc9 62be f8a1 10be
00000360: c946 15be 088e cbbd f640 57be 8649 abbd
00000370: 0cbd bfbb 017a 62bd 7859 ffbd d408 2dbe
00000380: b19a 92bc fe78 01bd b85c 5a3d c01d d4bd
00000390: 63b6 f43c 0ec9 c5bc 8c5b 24be 5944 b4bd
000003a0: 86ce 80bd ad3c 7cbd a832 dfbc d98e f83c
000003b0: b313 01be bda8 43bd 7f5c a33b aa02 bbbc
000003c0: 06a7 2cbe 56a5 15be 30d3 acbd e464 003d
000003d0: b0aa bcbc 5dcb 81bd 4b37 0abe 1044 bebc
000003e0: f10b 1abe 435c cabd ac01 24be d292 f9bd
000003f0: 0f36 973c 2767 893d 3276 f33c 51dc 00bd

critic.2.weight f4 [256, 256]
0.06329583 -0.0076808482 0.020615151 -0.051794205 -0.20055737 0.116481476 -0.09546342 -0.08914001
-0.014434901 -0.110986955 -0.1527897 0.063173376 0.038947962 0.105522946 -0.017877035 -0.06697596
-0.032474432 -0.009116851 -0.15992007 -0.06454751 0.025055261 0.10690347 -0.01350343 0.03638071
0.019186338 -0.0052387915 0.041527495 -0.10243248 0.123768 0.07095093 -0.04350651 0.06447478
0.044243287 -0.027412048 0.15009545 -0.1237988 -0.07367186 0.17214161 -0.061099693 0.16349453
0.08555062 -0.1509106 0.041759126 -0.048547897 0.071241304 0.12933101 -0.03887437 0.14666495
-0.078612186 0.05809522 0.04804957 -0.013939855 -0.012988787 -0.05724779 -0.013424701 0.037318535
0.08003162 -0.027745139 0.0007857437 -0.06440332 0.061605018 0.214658 -0.029986529 0.015611312
-0.076323785 0.04592759 -0.13487008 -0.10215755 0.02083676 -0.0460392 -0.02245728 0.062156633
0.097039536 -0.12168664 0.04913792 0.10735305 0.14049622 0.06827067 0.013821546 -0.009338844
-0.08352632 0.083425514 0.005858276 0.077554956 0.12422006 -0.07526513 -0.076697595 -0.03321604
-0.0064488533 -0.011225371 0.19588917 -0.0633156 0.009382845 0.10072001 -0.049126185 -0.017516889
-0.058831662 -0.19379722 0.011246476 -0.175803 0.10349079 -0.03981287 -0.03093634 0.11548377
-0.08810648 -0.019962138 -0.018737942 -0.029771596 -0.080086045 -0.12725861 0.019333143 -0.029781999
0.03133455 -0.03364307 -0.05693305 -0.12503494 -0.036520943 0.20329271 -0.00065488956 -0.0907936
0.09937481 0.19834785 0.0017332931 0.07640576 -0.040910594 0.06720125 -0.09901863 -0.019701136
0.04850765 0.12413775 0.061224584 -0.032269742 0.110180415 -0.0921911 0.04420379 0.073525734
-0.087436974 -0.05618677 -0.01356223 -0.013643054 -0.09507428 0.113345325 -0.13289061 0.055361375
-0.20344138 0.10563464 0.063150115 -0.014838456 -0.090280876 0.069602855 0.06583688 -0.0057714554
0.15900588 0.047779616 0.0012114173 -0.033173703 0.009302938 -0.2061004 0.20964274 0.02544623
-0.13998578 -0.11642814 0.031247169 0.04381182 0.06028126 0.118949115 -0.043318767 -0.019444335
0.015589 0.058615956 0.117011145 0.041605666 -0.07810151 -0.042864993 0.018508999 -0.01858413
0.07214151 0.030936958 0.029765347 0.021033695 -0.021796785 -0.0005940753 -0.04431023 0.057181027
0.055824526 -0.026417382 0.060264163 0.09823852 0.037643794 0.172621 -0.019905703 -0.070437215
0.007966111 -0.022834545 0.028794914 -0.023341777 0.0123377675 -0.06585776 0.08995971 0.07432183
-0.10750555 -0.03515092 -0.031060833 -0.09534043 -0.13879424 -0.10392227 -0.004208721 -0.114808984
-0.041901447 0.09018738 -0.06119887 0.047392648 -0.09273518 -0.06896785 -0.010900012 -0.0113735255
-0.11725638 0.10303479 -0.046528634 0.062174242 -0.06797794 -0.0008008785 0.20333314 0.0073489915
-0.04319301 0.10105928 -0.036703248 -0.07649114 0.006018096 0.058418542 -0.08692143 0.030604541
0.026814098 0.20569614 -0.07174532 -0.0054550534 -0.08422834 -0.039337695 0.06475032 -0.019276693
-0.025804022 0.10587335 0.021298114 -0.065245114 0.13822655 -0.00945475 -0.041468352 0.016828062
0.010152951 0.05302961 0.05725108 -0.029277073 -0.08076133 -0.0067554265 0.03204763 -0.052735742
00000000: 3ea1 813d a0af fbbb 1be1 a83c 2926 54bd
00000010: e95e 4dbe d78d ee3d 5382 c3bd 0a8f b6bd
00000020: 5d80 6cbc 214d e3bd e774 1cbe 0b61 813d
00000030: e687 1f3d 6a1c d83d dc72 92bc b12a 89bd
00000040: e903 05bd d85e 15bc 16c2 23be 7c31 84bd
00000050: b140 cd3c 35f0 da3d 7e3d 5dbc f003 153d
00000060: ab2c 9d3c 2baa abbb bc18 2a3d 1fc8 d1bd
00000070: 147a fd3d b94e 913d e233 32bd 5a0b 843d
00000080: 7338 353d 3b8f e0bc 9fb2 193e 3a8a fdbd
00000090: 46e1 96bd e445 303e ac43 7abd 1c6b 273e
000000a0: 2a35 af3d 4f88 1abe 9e0b 2b3d 29da 46bd
000000b0: f6e6 913d 596f 043e bb3a 1fbd 562f 163e
000000c0: 6dff a0bd 41f5 6d3d a0cf 443d fd63 64bc
000000d0: ecce 54bc a97c 6abd 47f3 5bbc 52db 183d
000000e0: 9ee7 a33d c649 e3bc 5efa 4d3a e3e5 83bd
000000f0: 8b55 7c3d 4fcf 5b3e 4fa6 f5bc 97c6 7f3c
00000100: a54f 9cbd 921e 3c3d 621b 0abe fa37 d1bd
00000110: dab1 aa3c 9a93 3cbd 54f8 b7bc f497 7e3d
00000120: aabc c63d d836 f9bd d844 493d eadb db3d
00000130: 3ede 0f3e 7ed1 8b3d c473 623c f301 19bc
00000140: d90f abbd ffda aa3d c8f6 bf3b 22d5 9e3d
00000150: 1667 fe3d 9b24 9abd a113 9dbd 8b0d 08bd
00000160: e750 d3bb 9eea 37bc 2c97 483e 9cab 81bd
00000170: 81ba 193c 4b46 ce3d 8a38 49bd 947f 8fbc
00000180: 78f9 70bd c772 46be 2443 383c b405 34be
00000190: fbf2 d33d d212 23bd 356e fdbc c182 ec3d
000001a0: 2c71 b4bd a387 a3bc 5080 99bc 90e3 f3bc
000001b0: 2704 a4bd 1550 02be 8a60 9e3c 61f9 f3bc
000001c0: a858 003d 51cd 09bd a132 69bd 2909 00be
000001d0: fc96 15bd f72b 503e e5ac 2bba fff1 b9bd
000001e0: 0585 cb3d b31b 4b3e aa2f e33a a07a 9c3d
000001f0: de91 27bd cfa0 893d 48ca cabd 4764 a1bc
00000200: f5af 463d ef3b fe3d a1c6 7a3d 472d 04bd
00000210: 45a6 e13d b0ce bcbd 090f 353d a994 963d
00000220: 2812 b3bd 1924 66bd 1e34 5ebc 1e87 5fbc
00000230: 4eb6 c2bd 9821 e83d 7a14 08be 9cc2 623d
00000240: f052 50be f956 d83d d954 813d ff1c 73bc
00000250: 2ee5 b8bd f18b 8e3d 7cd5 863d 7a1e bdbb
00000260: 70d2 223e 8fb4 433d 6bc8 9e3a 26e1 07bd
00000270: 5a6b 183c fc0b 53be 96ac 563e 9d74 d03c
00000280: 6f58 0fbe e071 eebd 10fa ff3c 0674 333d
00000290: 7ce9 763d 989b f33d 056f 31bd ba49 9fbc
000002a0: 0169 7f3c 4917 703d 8aa3 ef3d b46a 2a3d
000002b0: aff3 9fbd 3493 2fbd 2fa0 973c bf3d 98bc
000002c0: eebe 933d 816f fd3c 75d6 f33c db4e ac3c
000002d0: 2c8f b2bc b8bb 1bba a57e 35bd a736 6a3d
000002e0: 42a8 643d 4469 d8bc 8ed7 763d 4731 c93d
000002f0: 6130 1a3d 8fc3 303e 4911 a3bc 6341 90bd
00000300: 4b84 023c 830f bbbc 50e3 eb3c 4137 bfbc
00000310: 5924 4a3c 6fe0 86bd cc3c b83d 0b36 983d
00000320: df2b dcbd 69fa 0fbd 4a73 febc d841 c3bd
00000330: 1420 0ebe 33d5 d4bd 50e9 89bb f920 ebbd
00000340: daa0 2bbd 29b4 b83d abab 7abd cb1e 423d
00000350: f1eb bdbd 043f 8dbd f795 32bc 0658 3abc
00000360: 1d24 f0bd e703 d33d cf94 3ebd 6baa 7e3d
00000370: 0538 8bbd 0cf2 51ba 9036 503e cfcf f03b
00000380: 27eb 30bd 2bf8 ce3d 2556 16bd 63a7 9cbd
00000390: 7333 c53b 4848 6f3d dd03 b2bd 60b6 fa3c
000003a0: 3da9 db3c 02a2 523e 36ef 92bd 4ec0 b2bb
000003b0: e87f acbd 9020 21bd d19b 843d 28ea 9dbc
000003c0: f562 d3bc 20d4 d83d 6279 ae3c 3b9f 85bd
000003d0: 438b 0d3e 19e8 1abc b8da 29bd 01db 893c
000003e0: 9058 263c 9435 593d 1c80 6a3d 79d6 efbc
000003f0: 3266 a5bd a05c ddbb 6044 033d 6f01 58bd

critic.2.bias f4 [256]
0.003940303 -0.026438847 -0.024324046 -0.0024478904 0.023137653 -0.03502085 -0.029857188 -0.07707227
0.011165624 -0.05438508 -0.07945423 0.028875994 0.0005849355 -0.017782394 -0.02617777 -0.12125027
-0.010317275 0.031681925 -0.0063493634 0.027830858 -0.022503901 0.023235682 -0.014319492 -0.102026105
0.01637131 0.056962755 0.018478163 -0.0051506045 0.009853345 0.008905138 0.01942376 -0.0065078796
-0.023178663 -0.09149631 -0.026710082 -0.0013341419 -0.03920042 -0.021347765 -0.15587734 0.018436018
0.013450813 0.062060747 0.018197484 0.019761503 0.020961339 0.03476902 -0.0089489855 -0.01520971
0.009688117 -0.029983625 -0.02900031 -0.0260021 0.039304487 0.039627142 0.037519664 -0.006152021
0.011460844 -0.0011620661 0.012722862 -0.020737384 -0.037226357 -0.11170473 0.0023493632 0.0077465735
0.045378555 0.02086077 -0.07693418 0.001500016 -0.057022776 -0.102026716 0.10578454 -0.020346561
0.024366427 0.017437026 0.011486701 -0.015452731 -0.028255507 0.019654393 -0.059482552 0.013029491
-0.015258338 0.02527748 -0.0018695077 -0.019419877 -0.099013604 -0.12665308 0.04443052 0.010214266
-0.092543416 -0.13259739 0.011295928 0.0035856692 0.0036772336 0.021568011 -0.08295216 -0.04303363
0.055282224 -0.013498121 0.039168462 -0.002219755 0.022258565 -0.038827527 -0.014822806 0.0059554223
-0.097237915 -0.030860338 0.025291946 -0.07370971 -0.04550656 0.035703287 0.021935172 -0.113346055
-0.0008733217 -0.04532346 -0.048534885 -0.03436208 0.04396725 -0.019329362 0.04110781 -0.036649365
-0.006079472 0.04043172 -0.055555537 -0.017478576 0.011496379 -0.11127328 -0.02078495 -0.044926073
-0.019083686 0.003911106 0.006140088 0.0072267526 -0.038768705 -0.17657211 0.039432548 0.009350427
0.019898249 -0.18590556 -0.09413138 0.047954723 0.0018560116 0.026131045 0.008624284 -0.0016538734
-0.11169203 -0.03742492 -0.000977722 0.0027013705 0.06517715 -0.036421508 0.019225324 0.02690808
-0.0035085094 -0.025348451 -0.0017657013 -0.017632727 -0.004750668 -0.00095652475 -0.047368914 -0.007928772
-0.059288092 -0.0026712283 -0.09305699 0.031590354 -0.022951629 -0.013031433 -0.008980491 0.04027914
-0.17684756 -0.06623796 -0.16826424 0.02821143 -0.048104275 -0.013084785 -0.06978464 0.0012390027
0.01822237 -0.12193963 0.022327283 -0.022808978 -0.032560416 -0.011090038 0.0024545847 0.034422502
-0.13086852 -0.01861536 0.04645136 0.04542197 0.028846137 0.01389182 -0.040377796 0.03379318
-0.0033794355 -0.018065805 -0.033283174 -0.14309229 -0.038233228 -0.021725824 -0.01658367 -0.045098335
-0.08500817 0.016884256 -0.015391615 -0.0052551967 -0.089895405 -0.055976182 0.0052092755 -0.0049347174
-0.011740227 0.040004328 0.005371709 -0.016403813 -0.010319569 -0.00576935 0.025783757 0.01749237
-0.028579399 0.015148328 -0.044927523 -0.015801994 -0.1717358 0.06403572 0.03852308 0.0010401519
0.0269969 0.015921576 -0.02696741 0.0109117795 -0.006877498 0.020591212 -0.04109969 -0.049934298
0.02400922 -0.0031895065 -0.010622444 -0.010388142 -0.0059086494 -0.013487276 0.024299651 0.024082955
-0.015405068 0.0045444346 -0.010240514 0.010829796 -0.014518966 -0.017292263 -0.05980177 -0.06181216
0.08085497 -0.04875401 -0.080628976 0.0010229073 0.038286407 0.022766333 0.024461249 0.018383913
00000000: a81d 813b 4896 d8bc 3943 c7bc c96c 20bb
00000010: 2d8b bd3c 0672 0fbd 1097 f4bc 11d8 9dbd
00000020: 05f0 363c e4c2 5ebd e6b8 a2bd 598d ec3c
00000030: 5b56 193a 62ac 91bc c372 d6bc 1052 f8bd
00000040: ca09 29bc e8c4 013d 520e d0bb 8afd e33c
00000050: 1a5a b8bc c258 be3c 4d9c 6abc 10f3 d0bd
00000060: 201d 863c c751 693d 845f 973c 67c6 a8bb
00000070: ed6f 213c dbe6 113c 941e 9f3c 0d40 d5bb
00000080: 2ee1 bdbc 6b62 bbbd 1acf dabc 60de aeba
00000090: 9f90 20bd 82e1 aebc 4f9e 1fbe 2207 973c
000000a0: cc60 5c3c 6933 7e3d e412 953c e0e2 a13c
000000b0: 1db7 ab3c f669 0e3d c49e 12bc 2632 79bc
000000c0: e8ba 1e3c 38a0 f5bc 0f92 edbc 5b02 d5bc
000000d0: befd 203d 1250 223d 38ae 193d e496 c9bb
000000e0: 44c6 3b3c 7850 98ba 8d73 503c 72e1 a9bc
000000f0: aa7a 18bd 73c5 e4bd c6f7 193b f8d6 fd3b
00000100: ddde 393d 35e4 aa3c ab8f 9dbd 2f9c c43a
00000110: b790 69bd 62f3 d0bd 91a5 d83d d5ad a6bc
00000120: 1a9c c73c 18d8 8e3c b732 3c3c 742d 7dbc
00000130: 1878 e7bc 4002 a13c faa3 73bd a579 553c
00000140: 1cfe 79bc b812 cf3c 450a f5ba 6f16 9fbc
00000150: a5c7 cabd 58b1 01be c7fc 353d bd59 273c
00000160: 6787 bdbd 9cc7 07be 8e12 393c 8cfd 6a3b
00000170: befd 703b 66af b03c d2e2 a9bd 0844 30bd
00000180: 9d6f 623d 3927 5dbc 1c6f 203d 4f79 11bb
00000190: 9857 b63c 9d09 1fbd 5bdb 72bc b425 c33b
000001a0: ac24 c7bd d2ce fcbc 0e31 cf3c 1ef5 96bd
000001b0: 1665 3abd 9c3d 123d 64b1 b33c fa21 e8bd
000001c0: a1ef 64ba 18a5 39bd 84cc 46bd 41bf 0cbd
000001d0: 0117 343d 9c58 9ebc aa60 283d a51d 16bd
000001e0: 4f36 c7bb bb9b 253d 348e 63bd 3b2f 8fbc
000001f0: 4f5b 3c3c 3fe3 e3bd 3345 aabc 6704 38bd
00000200: 6455 9cbc bc28 803b cb32 c93b 65ce ec3b
00000210: efcb 1ebd 52cf 34be 0684 213d 8932 193c
00000220: a701 a33c 075e 3ebe f4c7 c0bd 2c6c 443d
00000230: 6a45 f33a c610 d63c de4c 0d3c c8c6 d8ba
00000240: cbbe e4bd df4a 19bd e826 80ba 7a09 313b
00000250: 997b 853d b82e 15bd 6d7e 9d3c 556e dc3c
00000260: 05ef 65bb 8ea7 cfbc 1b6f e7ba 8272 90bc
00000270: 7eab 9bbb 4abf 7aba e805 42bd aee7 01bc
00000280: 12d8 72bd c60f 2fbb aa94 bebd e364 013d
00000290: 0e05 bcbc cb81 55bc e922 13bc bdfb 243d
000002a0: 8717 35be c4a7 87bd 764d 2cbe a81b e73c
000002b0: fd08 45bd 9161 56bc 40eb 8ebd 0866 a23a
000002c0: 1447 953c 7cbb f9bd b5e7 b63c e5d9 babc
000002d0: 125e 05bd feb2 35bc 19dd 203b 9cfe 0c3d
000002e0: 6602 06be 3d7f 98bc c843 3e3d 630c 3a3d
000002f0: bc4e ec3c 849a 633c 3063 25bd b86a 0a3d
00000300: 8579 5dbb bdfe 93bc f053 08bd c986 12be
00000310: 729a 1cbd 5bfa b1bc 7ada 87bc 08b9 38bd
00000320: c318 aebd da50 8a3c 1d2d 7cbc c933 acbb
00000330: 151b b8bd 4847 65bd 92b2 aa3b 69b3 a1bb
00000340: 155a 40bc 94db 233d 2905 b03b 4a61 86bc
00000350: 6913 29bc d10c bdbb 7538 d33c 294c 8f3c
00000360: 581f eabc b130 783c ec05 38bd 2f73 81bc
00000370: 82db 2fbe 2925 833d 61ca 1d3d b555 883a
00000380: 9a28 dd3c f76d 823c c2ea dcbc 52c7 323c
00000390: a25c e1bb e7ae a83c 2658 28bd e887 4cbd
000003a0: fcae c43c 0a07 51bb c209 2ebc 0733 2abc
000003b0: 589d c1bb bcf9 5cbc 1010 c73c 9e49 c53c
000003c0: 8a65 7cbc 7be9 943b d4c7 27bc 756f 313c
000003d0: f5e0 6dbc 81a8 8dbc b3f2 74bd bf2e 7dbd
000003e0: 4a97 a53d 49b2 47bd ce20 a5bd 1313 863a
000003f0: 35d2 1c3d 7680 ba3c f562 c83c dc99 963c

critic.4.weight f4 [1, 256]
-0.0003296317 -0.015846595 0.011199123 0.0059580435 0.0018452585 -0.009928401 0.0019181 -0.022804886
0.0095889885 -0.026486522 -0.00034109154 0.013257214 0.00410655 0.050214026 0.0039617284 -0.066648826
0.007350205 0.007789644 0.007127012 -0.005044203 0.058538664 0.0038491534 0.0018542006 -0.03179259
0.000509104 0.007001376 0.0073872707 -0.007510519 0.029391097 -0.0102641275 0.017750045 0.008470967
-0.0009336192 -0.024946347 0.014378208 0.010083119 -0.010349704 0.0064861835 -0.097573124 0.012962131
0.0016289292 0.003456734 0.025124684 0.009440741 0.018200615 -0.0042205844 0.009187158 0.0020243
0.026810037 -0.0005154709 -0.0035035408 -0.005272783 0.00755911 0.0052866545 0.018338151 0.0012257188
-0.0005006985 -0.007256264 -0.0009347489 -0.0011195105 0.0050161583 -0.104042485 0.00036704118 0.0073300037
0.0039513195 0.0062320204 0.103859365 0.02651571 -0.00066309364 -0.064540304 0.0041957553 -0.001985013
0.00046509196 -0.0053403364 0.0037429251 0.0033684373 0.009858381 -0.0017511622 -0.0032088654 0.021516468
-0.0017255383 0.020290067 -0.0015722879 -0.00085220335 -0.038259536 -0.03096384 0.008278531 0.013738025
0.004064955 -0.08229742 0.04437934 0.003282028 0.0084620165 0.0034661093 -0.06748159 -0.002539255
0.0057565253 0.008680794 0.025885364 0.00052252336 -0.00024120003 0.00336313 0.010809814 -0.003143123
-0.012563328 0.00045176616 0.007729634 -0.008054687 0.0020015729 0.013474798 -0.0030331211 -0.071468174
-0.000557149 -0.000966743 0.0027314292 0.0018407904 0.013071591 0.0053740004 0.029822856 0.0016542027
0.0016157026 0.0008004096 -0.0071390946 -0.008734861 0.022094132 -0.032158617 0.007872634 0.005105062
0.0040249685 0.0069207675 0.008344846 0.0029068885 -0.0022574393 -0.08905841 -0.0015974172 -0.0021620158
0.0072450526 -0.1207139 -0.084602304 0.0074187294 0.008733478 -0.000735494 0.015385001 0.0058599813
-0.031468906 -0.0042879134 0.009786409 0.0012416913 -0.0002097846 -0.009535071 0.0062646475 0.012933729
-0.00574072 -0.006280974 0.003480288 0.0054086875 -0.007129604 0.00225963 0.0034641242 -0.004755445
-0.015102382 -0.007172552 -0.10251688 0.016016811 0.004614391 0.00017003396 -0.0024790517 0.0060855
-0.10131452 -0.012634077 -0.100546554 -0.003189142 0.008454059 3.3580745e-05 -0.0057951035 0.007037997
-0.0024604583 -0.07136024 0.020000774 -0.0068556555 0.005775646 0.0039975317 0.0100773 0.002743398
-0.032907996 0.051277153 0.0041113365 0.0052279425 -0.0012702199 0.0085676955 -4.4275956e-05 0.011448966
0.009253438 0.00033565197 0.053819276 -0.07602389 0.013576269 0.04668984 0.011376739 0.0010879745
-0.018848566 0.0035863917 -0.0030263788 -0.007737599 -0.20989966 -0.022782674 0.011561658 0.009995087
0.009994593 0.014121891 0.006456852 -0.0012345784 0.007424768 0.009994569 0.0039917463 -0.009183744
0.0021303531 0.04030717 -0.0057624085 -0.00011001523 -0.17498854 0.004728581 0.009888326 0.052560456
0.012858973 0.01611888 0.00772691 0.004340194 -0.00060707505 -0.0017846819 -0.0038982935 0.0073143165
0.013132294 0.005756786 0.022836909 -0.002819979 0.0012751693 -0.02020449 0.0347282 0.002311579
-0.013113649 0.0324437 -0.0039879377 0.025651027 -0.0073554544 0.0020696125 -0.015036876 0.07819217
0.009535186 0.011521672 -0.008727458 0.018300759 0.015588528 0.027572677 0.018366013 0.0043276795
00000000: 6bd2 acb9 b8d0 81bc 877c 373c b13b c33b
00000010: 9adc f13a bbaa 22bc c268 fb3a 50d1 babc
00000020: 221b 1d3c 43fa d8bc 88d4 b2b9 c934 593c
00000030: 3d90 863b 39ad 4d3d 63d1 813b 2e7f 88bd
00000040: fdd9 f03b 4540 ff3b b689 e93b d749 a5bb
00000050: 3dc6 6f3d 1442 7c3b a608 f33a f238 02bd
00000060: 6475 053a cc6b e53b eb10 f23b cd1a f6bb
00000070: 99c5 f03c df2a 28bc 8b68 913c d0c9 0a3c
00000080: 20be 74ba 485c ccbc 9392 6b3c ab33 253c
00000090: ce91 29bc 0d8a d43b 6bd4 c7bd 1e5f 543c
000000a0: cb81 d53a 5f8a 623b 48d2 cd3c 56ad 1a3c
000000b0: 7519 953c d44c 8abb bc85 163c 1eaa 043b
000000c0: b9a0 db3c ab20 07ba a99b 65bb 4fc7 acbb
000000d0: 69b2 f73b ac3b ad3b e439 963c 4ca8 a03a
000000e0: 4f41 03ba f4c5 edbb f009 75ba 8abc 92ba
000000f0: 965e a43b 3a14 d5bd 6f6f c039 8730 f03b
00000100: 127a 813b fa35 cc3b 38b4 d43d 7937 d93c
00000110: 76d3 2dba b52d 84bd 8c7c 893b fe16 02bb
00000120: 96d7 f339 fdfd aebb dd4b 753b 00c1 5c3b
00000130: 0c85 213c 4187 e5ba d44b 52bb 4e43 b03c
00000140: 752b e2ba 5b37 a63c 3a15 ceba 6666 5fba
00000150: 08b6 1cbd e1a7 fdbc ada2 073c 7415 613c
00000160: 5033 853b 8d8b a8bd 1cc7 353d 4b17 573b
00000170: 45a4 0a3c aa27 633b ca33 8abd a169 26bb
00000180: 3ca1 bc3b e439 0e3c 8b0d d43c f3f9 083a
00000190: a4ea 7cb9 f567 5c3b a51b 313c dafc 4dbb
000001a0: 6bd6 4dbc 07db ec39 df48 fd3b cef7 03bc
000001b0: d22c 033b 66c5 5c3c 54c7 46bb e85d 92bd
000001c0: a30d 12ba 066d 7dba c701 333b ad46 f13a
000001d0: 3a2a 563c 6218 b03b 104f f43c d5d1 d83a
000001e0: fcc5 d33a 94d2 513a 11ef e9bb aa1c 0fbc
000001f0: c1fe b43c c1b8 03bd 38fc 003c 5d48 a73b
00000200: e2e3 833b 9bc7 e23b d2b8 083c 7f81 3e3b
00000210: 8cf1 13bb 4164 b6bd 6d60 d1ba 9bb0 0dbb
00000220: e867 ed3b d938 f7bd f943 adbd d018 f33b
00000230: dd16 0f3c 2bce 40ba 5f11 7c3c 1605 c03b
00000240: 8ae5 00bd a081 8cbb 2d57 203c 3fc0 a23a
00000250: a0f9 5bb9 fd38 1cbc ac47 cd3b fee7 533c
00000260: a61c bcbb a1d0 cdbb 8b15 643b 5c3b b13b
00000270: 749f e9bb 4d16 143b 5c06 633b 90d3 9bbb
00000280: fb6f 77bc ba07 ebbb 5ff4 d1bd b035 833c
00000290: 5134 973b 254b 3239 9677 22bb e068 c73b
000002a0: fd7d cfbd 29ff 4ebc 5aeb cdbd ed00 51bb
000002b0: e582 0a3c 0dd9 0c38 dae4 bdbb ff9e e63b
000002c0: a43f 21bb 5125 92bd aad8 a33c 68a5 e0bb
000002d0: a141 bd3b bafd 823b 421b 253c 95ca 333b
000002e0: 89ca 06bd fe07 523d 64b8 863b 294f ab3b
000002f0: 827d a6ba 855f 0c3c f2b4 39b8 7294 3b3c
00000300: bb9b 173c 72fa af39 9a71 5c3d 6ab2 9bbd
00000310: 006f 5e3c d83d 3f3d 8065 3a3c 5e9a 8e3a
00000320: 4f68 9abc ab09 6b3b 3656 46bb af8b fdbb
00000330: f0ef 56be bba2 babc 1c6d 3d3c 6fc2 233c
00000340: 5dc0 233c 815f 673c 0094 d33b 94d1 a1ba
00000350: 784b f33b 43c0 233c 32cd 823b 6a77 16bc
00000360: 659d 0b3b 2219 253d 96d2 bcbb fab7 e6b8
00000370: 3230 33be 36f2 9a3b a502 223c a249 573d
00000380: 71ae 523c be0b 843c 0532 fd3b 3038 8e3b
00000390: 1e24 1fba fdeb e9ba 837a 7fbb efac ef3b
000003a0: d528 573c 6ca3 bc3b 7814 bb3c 66cf 38bb
000003b0: 9523 a73a e383 a5bc 283f 0e3d dc7d 173b
000003c0: a1da 56bc afe3 043d 3fad 82bb 1a22 d23c
000003d0: 0606 f1bb 56a2 073b 3b5d 76bc 3723 a03d
000003e0: 7839 1c3c 65c5 3c3c 9dfd 0ebc 79eb 953c
000003f0: 0667 7f3c 18e0 e13c 5274 963c 35cf 8d3b

actor.0.weight f4 [256, 162]
-0.22027808 0.06757464 -0.23926365 -0.16677277 0.023525346 0.55451334 0.047534414 -0.40663978
0.031156253 -0.15918276 0.14129812 -0.06539302 -0.21657795 -0.28030348 -0.058242425 0.042998374
0.18542562 0.21197324 0.234848 -0.11331539 -0.22603469 0.03537996 -0.021422379 0.08260312
-0.25625986 0.22330435 -0.21158096 -0.15402733 -0.30618578 -0.5107019 0.52071494 0.032344922
-0.16736662 -0.24939041 -0.17749941 -0.20128456 0.06772831 0.061969534 -0.19467692 0.052805513
-0.24834222 -0.67199093 -0.6092564 -0.2673396 -0.47060898 -0.3871387 -0.24697699 -0.5824516
-0.43660346 -0.5193224 0.34181198 -0.349747 -0.054202836 -0.049229767 0.2713816 0.2002517
-0.28526747 -0.13831425 -0.31276345 -0.48199788 0.27348685 0.9904635 0.12643467 0.36102045
1.1838344 0.29586747 0.47493893 0.70757437 0.08567205 0.6326973 -0.5806892 0.25302073
-0.24471042 -0.3820416 0.21201251 -0.016092557 -0.102041446 0.062725484 0.35643026 0.031949583
0.5863367 -0.20430942 0.0033448248 -0.23383346 -0.9107875 -0.48801205 -0.3822711 -0.09698032
0.610723 0.03785543 0.54773706 0.077908896 0.23067239 0.2690064 -0.32368237 -0.47559562
0.010378074 0.105905786 0.34599498 0.23236024 -0.24126454 -0.17716964 -0.4444619 -0.20497133
0.076008245 0.10578194 0.21150424 -0.09765928 -0.43131608 0.041912578 0.48328346 -0.28312072
0.8687451 -0.12736076 0.079731874 -0.39447317 0.47421154 -0.2204164 -0.046767827 0.14608301
0.054878578 0.042992577 -0.42601624 0.16212243 -0.27459404 0.40306297 0.22798973 -0.22675836
0.12178669 -0.10006026 -0.05266858 0.30389512 -0.6523323 -0.029256398 -0.098735526 0.068718255
0.35638624 -0.42328402 0.088534534 -0.18158957 0.3045526 0.3735084 -0.022078037 0.62080026
0.024611132 0.3710783 0.07359192 -0.30922073 -0.40344042 0.36100647 -0.36668202 -0.021553952
0.20327584 -0.21398164 0.25090042 -0.3673905 -0.06332837 0.25897264 -0.29833052 0.5029221
0.10967918 -0.17079103 0.23253083 -0.1365182 0.03499842 0.09362277 0.16798657 -0.16768362
0.0395176 0.003126524 0.07520189 0.28152886 -0.10222645 -0.14591922 0.04409248 -0.09768438
-0.052991692 0.027433958 -0.26378533 -0.03438154 -0.1444076 0.29299274 -0.08479184 0.1892828
-0.07665913 0.15632807 0.06407833 0.08402537 -0.06170576 0.028161451 0.02221808 0.13212748
-0.07126892 0.069897786 0.00020030949 0.004632454 0.0642948 0.16027173 0.09875491 -0.08629611
-0.11824831 -0.05500709 0.038584974 0.14015678 0.21887764 0.21647182 -0.13381854 0.27649802
0.24553296 0.099575974 0.10118007 -0.0059591415 0.28779483 0.25407717 0.34733313 0.30588362
0.028827066 0.40395615 0.4407377 0.11437675 0.07960111 0.44271562 -1.0484723 -0.5183671
-0.57650435 -0.70338404 -0.6412984 -0.56084293 -0.5740859 -0.35939565 -0.6083669 -0.8053935
0.12537435 -0.06189162 0.053988483 0.48226023 0.46892467 0.31562984 0.19626412 0.017788507
-0.11634028 0.03416384 0.27130082 0.6480995 0.33632496 0.52143013 0.6337459 0.63989943
0.97047466 0.43931103 0.43853882 0.322745 0.30480328 1.7617624 0.6361574 1.7083073
00000000: 9490 61be 9364 8a3d 8801 75be 7bc6 2abe
00000010: 3ab8 c03c 96f4 0d3f 72b3 423d 1733 d0be
00000020: 663b ff3c ce00 23be 74b0 103e c7ec 85bd
00000030: 9cc6 5dbe f083 8fbe 9c8f 6ebd 101f 303d
00000040: 37e0 3d3e 830f 593e fe7b 703e e611 e8bd
00000050: a375 67be 94ea 103d fc7d afbc d32b a93d
00000060: 7e34 83be e5a9 643e aea8 58be 57b9 1dbe
00000070: 62c4 9cbe 5cbd 02bf 934d 053f 1c7c 043d
00000080: 2862 2bbe 3360 7fbe 68c2 35be 8a1d 4ebe
00000090: 24b5 8a3d c4d3 7d3d 6359 47be 984a 583d
000000a0: 6c4d 7ebe 9907 2cbf 3af8 1bbf bce0 88be
000000b0: a9f3 f0be 0b37 c6be 89e7 7cbe 8c1b 15bf
000000c0: 7d8a dfbe 50f2 04bf fb01 af3e 0a12 b3be
000000d0: cb03 5ebd 27a5 49bd 87f2 8a3e c80e 4d3e
000000e0: 940e 92be 40a2 0dbe 8822 a0be 6dc8 f6be
000000f0: 7806 8c3e 048f 7d3f 1778 013e acd7 b83e
00000100: e387 973f f17b 973e 322b f33e 9823 353f
00000110: d474 af3d 73f8 213f 0ca8 14bf ef8b 813e
00000120: 5e95 7abe f59a c3be cf19 593e 8ad4 83bc
00000130: 1bfb d0bd 3876 803d 077e b63e 91dd 023d
00000140: 291a 163f 7d36 51be d934 5b3b 0a72 6fbe
00000150: 5f29 69bf b7dc f9be 0ab9 c3be 9e9d c6bd
00000160: 5858 1c3f 4c0e 1b3d 7f38 0c3f b38e 9f3d
00000170: 6235 6c3e 35bb 893e b2b9 a5be 4581 f3be
00000180: cc08 2a3c 22e5 d83d 4126 b13e d8ef 6d3e
00000190: 0d0e 77be f56b 35be 8390 e3be 01e4 51be
000001a0: 36aa 9b3d 34a4 d83d 9194 583e 9701 c8bd
000001b0: 76d5 dcbe 86ac 2b3d ee70 f73e 33f5 90be
000001c0: 1466 5e3f dc6a 02be 774a a33d 63f8 c9be
000001d0: dbcb f23e d6b4 61be 9f8f 3fbd c996 153e
000001e0: 5cc8 603d fc18 303d cd1e dabe 6c03 263e
000001f0: 9797 8cbe 455e ce3e 2476 693e 5833 68be
00000200: 4d6b f93d 65ec ccbd 02bb 57bd 2498 9b3e
00000210: 40ff 26bf 1dab efbc da35 cabd 28bc 8c3d
00000220: 4278 b63e afb8 d8be 9851 b53d 9ef2 39be
00000230: 52ee 9b3e 7e3c bf3e 00dd b4bc c4ec 1e3f
00000240: 499d c93c fafd bd3e 5cb7 963d 2e52 9ebe
00000250: be8f cebe d7d5 b83e bfbd bbbe ea91 b0bc
00000260: 8b27 503e 011e 5bbe 0576 803e 9c1a bcbe
00000270: 4eb2 81bd 1098 843e c7be 98be 81bf 003f
00000280: 7a9f e03d d8e3 2ebe 901c 6e3e 6dcb 0bbe
00000290: 815a 0f3d 4bbd bf3d ac04 2c3e 41b5 2bbe
000002a0: 35dd 213d 5ee6 4c3b 7303 9a3d 8d24 903e
000002b0: 1a5c d1bd d96b 15be 519a 343d c00e c8bd
000002c0: d10d 59bd 2ebd e03c df0e 87be a8d3 0cbd
000002d0: 96df 13be 2503 963e 58a7 adbd 5ad3 413e
000002e0: 76ff 9cbd 7714 203e 803b 833d 7e15 ac3d
000002f0: 2ebf 7cbd d8b2 e63c b102 b63c 6d4c 073e
00000300: 71f5 91bd 9226 8f3d 2b0a 5239 d7cb 973b
00000310: feac 833d 461e 243e 0440 ca3d 04bc b0bd
00000320: 2c2c f2bd 1d4f 61bd 470b 1e3d 4285 0f3e
00000330: 7621 603e caaa 5d3e ba07 09be 2691 8d3e
00000340: fe6c 7b3e 7dee cb3d 7f37 cf3d e744 c3bb
00000350: d859 933e 6716 823e a6d5 b13e c79c 9c3e
00000360: bd26 ec3c 57d3 ce3e 5fa8 e13e 5c3e ea3d
00000370: e805 a33d 9fab e23e 5734 86bf b5b3 04bf
00000380: ca95 13bf fa10 34bf 222c 24bf 6793 0fbf
00000390: 4bf7 12bf b502 b8be efbd 1bbf 452e 4ebf
000003a0: 2262 003e 1182 7dbd 0723 5d3d d0ea f63e
000003b0: e516 f03e 3c9a a13e 76f9 483e 34b9 913c
000003c0: d043 eebd 62ef 0b3d f1e7 8a3e d9e9 253f
000003d0: c932 ac3e 727c 053f 2c3d 223f 73d0 233f
000003e0: 0771 783f 60ed e03e 2988 e03e d53e a53e
000003f0: 2d0f 9c3e 6e81 e13f 36db 223f d0a9 da3f

actor.0.bias f4 [256]
0.015181398 -0.028946687 -0.27313474 0.05385417 -0.011168851 0.031133996 0.029726494 0.006235157
0.04903741 -0.061146356 0.025936952 -0.122718506 -0.1760429 0.17933154 -0.13315652 -0.0008695275
0.12897058 -0.04886634 -0.33455727 -0.07536258 -0.11059642 -0.17690518 -0.058907207 -0.16667557
0.019141527 -0.0753874 -0.15315436 -0.15677975 0.1544915 -0.1076916 0.0695306 0.016211342
-0.089049205 0.008765188 -0.26182026 -0.20727831 -0.14614621 -0.12013069 -0.016268885 0.025853291
-0.17783971 -0.08327508 -0.00063406787 -0.09025049 0.058534577 -0.2615736 -0.22769015 0.047319535
-0.27381203 -0.11238392 -0.08668875 0.08776766 0.05464856 -0.11177407 0.041144576 0.083115295
0.14619823 0.10735022 -0.0024759895 -0.09185137 -0.016598972 -0.060756598 0.0025698054 -0.19982299
0.014936878 0.20215626 -0.06782409 -0.18715158 0.04105179 -0.095135435 0.17205049 -0.17212704
0.066881634 -0.045720126 -0.004178136 -0.048434317 0.042521134 0.06758353 -0.026067838 -0.095127486
0.04882306 0.057758793 -0.14136621 -0.1521058 -0.0353845 -0.1486491 -0.041511677 -0.40305495
-0.61615473 -0.0116645945 -0.078890905 0.044381525 -0.07008814 -0.08483311 -0.085537486 -0.057707887
-0.22150663 0.054459304 0.02662672 0.053041022 -0.06387175 0.19742204 -0.20074548 -0.2077181
0.18976094 -0.017562453 -0.2207709 -0.024003047 0.00037834203 -0.11323414 -0.15704064 -0.077389985
-0.054167293 -0.017905748 -0.20428017 0.010230519 -0.31129572 -0.09669535 -0.028630832 -0.19672838
-0.16395271 -0.046015814 -0.17843036 -0.034767233 -0.033394035 -0.12215225 -0.32880256 0.039499104
-0.004052008 -0.05514008 0.08908694 -0.00900948 -0.29331318 0.12915811 0.057628457 0.065007545
-0.14207454 -0.1326194 0.010538425 0.17594923 -0.3838822 -0.10638583 -0.055150803 -0.093010366
-0.20111512 -0.024671648 -0.14277373 -0.12576869 0.0012381088 -0.110447876 -0.48043025 -0.010339579
-0.16937554 -0.27231094 0.029000694 0.030640665 0.013392038 0.18198566 -0.07759525 -0.2614026
0.12081429 -0.10387367 -0.048749667 0.07771862 -0.12457636 -0.12716168 0.059988853 -0.0049765497
-0.0446684 0.025103094 -0.0102173025 -0.21351181 0.039463434 0.14841133 0.05108901 0.034925837
-0.02862574 0.04839816 -0.30093238 0.0052292524 0.050349135 -0.03655708 -0.23486887 -0.00026381732
-0.13577338 -0.002480136 -0.36416247 -0.08532952 0.16561088 0.013893472 -0.2389162 -0.070185915
-0.21919847 -0.106994644 -0.22264402 -0.040560134 -0.16206706 -0.1764086 0.014009368 0.029038124
-0.0040499764 -0.03428667 0.12921727 -0.1734123 0.06657287 -0.109656796 -0.2183496 -0.0035876571
-0.10054394 -0.0056896545 -0.16089271 0.023236746 0.13172421 0.030340444 -0.1737415 -0.12068477
0.11014722 -0.21619514 -0.022633504 0.16183656 -0.061911054 0.12974045 -0.2457652 -0.30626607
-0.06857259 0.01783228 -0.104546726 -0.11023298 0.026063463 -0.050582923 -0.33784047 0.13614702
0.074092515 0.12109441 -0.40805838 -0.08335077 -0.3997636 -0.06651738 0.17331728 -0.22808425
0.14869885 -0.5549813 -0.19031845 0.097317 -0.17049982 -0.23079258 -0.13946551 0.14360695
-0.09043986 -0.19304654 0.001171093 -0.03460315 0.112101905 0.013877028 -0.25805834 0.09763623
00000000: 66bb 783c 9a21 edbc 51d8 8bbe 3196 5c3d
00000010: 8efd 36bc b90c ff3c fa84 f33c 4a50 cc3b
00000020: 74db 483d 9a74 7abd bb79 d43c d753 fbbd
00000030: 9744 34be b0a2 373e 2f5a 08be 01f1 63ba
00000040: dd10 043e 1228 48bd 174b abbe b257 9abd
00000050: 6080 e2bd a226 35be af48 71bd 00ad 2abe
00000060: b1ce 9c3c b664 9abd 7fd4 1cbe df8a 20be
00000070: 0533 1e3e 6a8d dcbd 0f66 8e3d a6cd 843c
00000080: 6e5f b6bd dd9b 0f3c 4e0d 86be c440 54be
00000090: 5aa7 15be 1407 f6bd 5346 85bc 48ca d33c
000000a0: 9d1b 36be 208c aabd 9337 26ba 40d5 b8bd
000000b0: f4c1 6f3d faec 85be 9b27 69be 21d2 413d
000000c0: 1731 8cbe 8a29 e6bd df89 b1bd 88bf b33d
000000d0: 2bd7 5f3d cee9 e4bd 3787 283d 5a38 aa3d
000000e0: fdb4 153e 6fda db3d 3644 22bb 921c bcbd
000000f0: 91fa 87bc e9db 78bd 2e6a 283b 669e 4cbe
00000100: cfb9 743c 0d02 4f3e 5be7 8abd aaa4 3fbe
00000110: ec25 283d 5ed6 c2bd 012e 303e 1242 30be
00000120: 3df9 883d 0745 3bbd bfe8 88bb 1063 46bd
00000130: a42a 2e3d 3c69 8a3d 388c d5bc 33d2 c2bd
00000140: b0fa 473d 7c94 6c3d 4ec2 10be 9fc1 1bbe
00000150: 56ef 10bd 7837 18be 2608 2abd 385d cebe
00000160: 51bc 1dbf db1c 3fbc 8e91 a1bd 67c9 353d
00000170: 5f8a 8fbd fbbc adbd 472e afbd 1b5f 6cbd
00000180: a2d2 62be b810 5f3d 4720 da3c 8b41 593d
00000190: 31cf 82bd 0129 4a3e 3990 4dbe 0eb4 54be
000001a0: b150 423e 22df 8fbc c411 62be 0aa2 c4bc
000001b0: 355c c639 4de7 e7bd 43cf 20be a47e 9ebd
000001c0: 86de 5dbd 13af 92bc d22e 51be e89d 273c
000001d0: 2762 9fbe 3608 c6bd 358b eabc 2a73 49be
000001e0: 38e3 27be 147b 3cbd 73b6 36be 1668 0ebd
000001f0: 2fc8 08bd f52a fabd cf58 a8be d0c9 213d
00000200: b5c6 84bb 91da 61bd 3773 b63d 7f9c 13bc
00000210: 252d 96be 0642 043e d10b 6c3d ad22 853d
00000220: fd7b 11be 61cd 07be 5ca9 2c3c 092c 343e
00000230: 358c c4be d0e0 d9bd cfe5 61bd 387c bebd
00000240: 1ff1 4dbe 321c cabc 4733 12be 82c9 00be
00000250: 0a48 a23a 7f32 e2bd f4fa f5be 5667 29bc
00000260: c870 2dbe 576c 8bbe dd92 ed3c 2202 fb3c
00000270: 476a 5b3c 735a 3a3e 42ea 9ebd 90d6 85be
00000280: 7c6d f73d b8bb d4bd bbad 47bd f12a 9f3d
00000290: e421 ffbd ac36 02be dfb6 753d 5312 a3bb
000002a0: 36f6 36bd 01a5 cd3c 7966 27bc d7a2 5abe
000002b0: 69a4 213d 24f9 173e b642 513d 650e 0f3d
000002c0: 8780 eabc 263d 463d cf13 9abe 265a ab3b
000002d0: e53a 4e3d e0bc 15bd 7781 70be f650 8ab9
000002e0: 2d08 0bbe c789 22bb 8173 babe 3ec1 aebd
000002f0: e695 293e 72a1 633c 73a6 74be a2bd 8fbd
00000300: 9075 60be 0220 dbbd cbfc 63be 6222 26bd
00000310: e8f4 25be 75a4 34be 8c87 653c 5ce1 ed3c
00000320: aab5 84bb 2e70 0cbd 8851 043e fe92 31be
00000330: 5b57 883d be93 e0bd 0a97 5fbe e61e 6bbb
00000340: fbe9 cdbd 4870 babb 0fc1 24be fd5a be3c
00000350: b6e2 063e 868c f83c 4be9 31be 9429 f7bd
00000360: de94 e13d 4262 5dbe e669 b9bc 7cb8 253e
00000370: 7296 7dbd aeda 043e dfa9 7bbe e8ce 9cbe
00000380: c96f 8cbd 0015 923c 981c d6bd d4c1 e1bd
00000390: 0b83 d53c 0a30 4fbd 6df9 acbe 206a 0b3e
000003a0: d1bd 973d 5900 f83d 07ed d0be cfb3 aabd
000003b0: d1ad ccbe 443a 88bd 167a 313e eb8e 69be
000003c0: 8344 183e 4113 0ebf d7e2 42be 234e c73d
000003d0: 8197 2ebe e454 6cbe 0cd0 0ebe b30d 133e
000003e0: 8938 b9bd fead 45be 5c7f 993a 08bc 0dbd
000003f0: af95 e53d 795c 633c 3920 84be 81f5 c73d
