agent.pt (torch, 905573 bytes, 11 tensors)

critic.0.weight f4 [256, 162]
00000000: 700f 153e d321 5cbd dc6a 143e 67aa 3ebd
00000010: 3bbe c8bd 99e1 0ebd 7cf3 89bd b4d5 ffbd
00000020: 32b6 7bbd b672 02bd 9962 873e b86f d8bd
00000030: 9f23 133e b967 f2bd 8303 bcbd e545 52bc
00000040: d1aa 7bbd 230a c0bd 3693 04be 68b4 dabc
00000050: ccb7 033c f832 643d 272f 0f3c 86a6 41bc
00000060: 0f5c c1bc 8be1 223d df29 393c 0bb6 593d
00000070: 8c19 003e ac33 f33d 5c24 41bc c74f 8abd
00000080: e9fb b13d 9c0e e9bd 9dd2 d2bd a5f0 adbd
00000090: 6b7f 10be 1c15 98bd 6f79 adbd 4669 5c3d
000000a0: 64f7 1a3e 84c9 803e 13ac ae3e 4779 803e
000000b0: 1c1b 9f3e 4a73 9a3e fc7c d23e 10be 833e
000000c0: df9b c73e 1f07 2a3e 1326 e4bc 7e41 473c
000000d0: 5eeb 3e3b 8ede 15bd 9a67 203d ee76 e23d
000000e0: 723b 623e bd79 fe3d c33f 10be dde2 9bbd
000000f0: b6fd 10be a530 bdbc 2a7e d0be 51f7 9fbd
00000100: 4b5f f8bd c055 77be 66b8 bebd ff2d 64be
00000110: 8ff5 62be 2527 41be f4ab 48be ab31 fdbd
00000120: 35e0 66be a341 4c3d 8ba2 363b 7d73 353e
00000130: e80c 79bd 8bfa 19be 36f5 4ebe b48c 28bd
00000140: d415 f2bc 9377 bc3d 6ea7 29be 8ea6 c33d
00000150: bd12 ab3d e17e 983d 294f 2fbd de29 303e
00000160: 5109 423e e96b 0f3e baad 29be 0a88 6cbd
00000170: 453c d9be ff5d a73b 8dd7 16bd 1f89 de3c
00000180: e15c 303d 6083 d9bb cdff d739 99f7 f4bc
00000190: 477e 8dbe 7f07 5cbd 33c5 ddbe 1a66 04be
000001a0: b193 bdbd 3b4a a7bd fb76 49be a6b3 48be
000001b0: d013 33be 85e5 71be ca17 cabe 886a a0bd
000001c0: d880 f8be 6d8b 10be 8e39 debd 3a91 e4bd
000001d0: 447a 23be f472 87be 3faa 9dbe ef31 82be
000001e0: e59d 20bc d421 c93c ad4a 7abe 25c7 273d
000001f0: 0095 13bd 0bd9 9e3d f3a5 a73b 3a94 f9bd
00000200: cf44 0abe 3884 2fbe 34a5 c3bc 8d43 b3bd
00000210: 838e 50be 2ebd cd3c 9b8a b4bd 21be cdbc
00000220: 36ba 44bd b857 0abe b65e 8cbd 16f0 0ebe
00000230: a70c 793d 6ece 0e3e b42e 743e cf11 a23d
00000240: 8c12 d73d fdd2 163e 9c99 d73d 6c91 f53d
00000250: c099 583e 68e8 8b3e d4f9 0f3d aeab 323d
00000260: e056 943e 2ee1 223d 97d7 8d3d b1bf 053e
00000270: f0ae 043e 4cbd d13d d14f d53d b915 8a3e
00000280: 78ac 9cbf 9e5a ab3f 68d9 ebbd 6800 b4bc
00000290: 6072 3abd be2a 5b3d 9d90 1cbb 1365 293d
000002a0: c14d 923b 784a 093d 72dd e2bb 408e 7abd
000002b0: 654b 15be 8e1b d9bd 4251 b8be 2761 123d
000002c0: 99af 013c 6787 fbbc 5402 0cbd 0756 653c
000002d0: 6db4 a8bd 56c1 55bd ca8a 5fbe 96ce 09bd
000002e0: ef86 59be 144a 80bd 6eb4 04bd dc0f e53c
000002f0: ef7f 24ba fad5 4bbd a444 8f3d d6ac d8bd
00000300: 2201 86be b4da 23bd e91e 63be 1a77 87bc
00000310: 2438 333e d99a ea3d 1bb0 6c3d ae4a ac3d
00000320: 1b2e 053e e39d 9e3d c0dd 083e 4bfc b63c
00000330: 893f 7e3e e53f 1a3e 09e7 ae3e 885c 033d
00000340: 7999 073d b2fc 94bd cd67 c43d 5bc5 993d
00000350: 229e f63d 5a16 e4bd 95b3 b83d 8a22 21be
00000360: 97c1 1fbe 6af2 20be 967e 2dbe 7420 d6bc
00000370: ee75 44be b769 203c 99c3 813e bedd f4bc
00000380: 8ce9 c23d 2835 aa3d e219 89bd eeeb 253e
00000390: a82c a5bd 21a3 083d f502 523c 0653 e43c
000003a0: 6e8d 1c3e 690b 9c3b c09d 2a3e 1c8b 2a3d
000003b0: 1ef5 19be f00e f23d 7c84 04bd db3b 7c3e
000003c0: d86a ad3d 973f 353e cdbf c73e b367 103d
000003d0: 2d7b aa3e 1e97 2e3d f983 3b3c 69e5 70bd
000003e0: b0b3 a03c 9db7 5e3d 02b4 32bc fba1 1cbd
000003f0: b3aa a03e 218f 06bd f274 40be 7f2e a0bc
0.1455667 -0.053743195 0.14493889 -0.046549227 -0.098019086 -0.034883115 -0.06735894 -0.124919325
-0.061453052 -0.031847678 0.26442412 -0.10568184 0.14369057 -0.1183619 -0.09180357 -0.012834047
-0.0614422 -0.093769334 -0.12946782 -0.026697353 0.008039426 0.05571267 0.008739269 -0.011819487
-0.023603467 0.039765876 0.011301487 0.053152125 0.12509745 0.1187509 -0.011788454 -0.067534976
0.08690626 -0.1137974 -0.102940775 -0.08493165 -0.14111106 -0.07425901 -0.08470427 0.053811334
0.15133435 0.25153744 0.34115657 0.25092527 0.3107537 0.30166084 0.4111098 0.25730944
0.38986108 0.16604279 -0.027850186 0.012161611 0.002913199 -0.036589198 0.039161302 0.1105784
0.22092989 0.124255635 -0.14086823 -0.0761163 -0.14159283 -0.023094485 -0.40721256 -0.07810844
-0.12127551 -0.24153805 -0.09312515 -0.22283171 -0.22163986 -0.18862589 -0.19596845 -0.12362989
-0.22546466 0.049867284 0.002786788 0.17719837 -0.060803324 -0.15036981 -0.20210728 -0.04114981
-0.029551424 0.092024945 -0.16567776 0.09553252 0.083531834 0.07446075 -0.042800102 0.17203471
0.18948866 0.14006008 -0.16570178 -0.057746924 -0.42428795 0.0051076408 -0.03682666 0.027164994
0.043057326 -0.0066379756 0.00041198582 -0.02990322 -0.27635404 -0.053718086 -0.43314514 -0.12929574
-0.092566855 -0.08168455 -0.19674294 -0.1959978 -0.17488027 -0.23622711 -0.39471275 -0.07832819
-0.485358 -0.14115687 -0.108508214 -0.11160512 -0.1596461 -0.2645489 -0.3079395 -0.2542872
-0.00980327 0.024552263 -0.24442549 0.040961403 -0.03603077 0.077562414 0.0051162182 -0.12186475
-0.13502811 -0.17140281 -0.023882486 -0.08753119 -0.20366864 0.025114622 -0.088154994 -0.025115075
-0.048029147 -0.13510025 -0.06854002 -0.13958773 0.06080308 0.13945934 0.23845941 0.07913553
0.105015844 0.14728923 0.105273455 0.11990628 0.21152401 0.2732575 0.035150364 0.043620758
0.2897253 0.03976553 0.06925886 0.13061406 0.12957358 0.10241184 0.104156144 0.26969698
-1.2240133 1.3387029 -0.11516076 -0.02197285 -0.045519233 0.05350756 -0.0023889907 0.041356158
0.0044648354 0.033518285 -0.006923371 -0.061170816 -0.14579542 -0.10600959 -0.35999495 0.035737183
0.007915401 -0.030704213 -0.034181908 0.013997561 -0.082375385 -0.052186333 -0.21830288 -0.03364428
-0.2124288 -0.06264129 -0.032398634 0.027961664 -0.0006275167 -0.04976461 0.06995514 -0.10579841
-0.2617274 -0.040003493 -0.2217976 -0.016536284 0.17501885 0.11455316 0.057785135 0.084126815
0.13005869 0.07744958 0.13365841 0.0223371 0.24828924 0.15063436 0.3416064 0.032070667
0.033105347 -0.0727476 0.09590111 0.07508346 0.1204188 -0.11137076 0.090186276 -0.15735832
-0.15601192 -0.15717474 -0.1694282 -0.026138522 -0.19185612 0.009790829 0.25344542 -0.029890891
0.09517202 0.0831092 -0.0669439 0.16203281 -0.08065158 0.033358697 0.012818088 0.02787162
0.15288326 0.0047621024 0.1666174 0.04163657 -0.15034911 0.11819255 -0.03235291 0.24632208
0.084676445 0.17700039 0.3901352 0.035255145 0.332971 0.042624585 0.011445039 -0.058812533
0.019616932 0.054374326 -0.010907175 -0.038240414 0.31380233 -0.032851342 -0.18794611 -0.019553421

critic.0.bias f4 [256]
00000000: fab0 7f3e a5df 923e 8eae 4cbe aef1 26be
00000010: c782 d4be 9506 90bd 2351 fdbd 939f cebe
00000020: 8307 38be 30bd 76bd f2c0 ce3d f730 8e3e
00000030: a292 03bc 4d3a 50be 1f00 f6bd 0a1b a5bd
00000040: 2a9c 9a3d 055b f7be f041 39bd 54e1 1bbf
00000050: 77d4 9cbe d479 b13e c4fa cabe 63a3 13be
00000060: 4d8e 543d 67eb 63be 13f6 ecbd 0515 80be
00000070: 434c f63c 2932 abbe 36e1 48be 0dd7 cdbe
00000080: ea52 2dbf e471 78be 821a 9abe 8951 ab3e
00000090: e15a 14be a476 49bf f76f f3be 3986 c1bd
000000a0: 42cd 14be 009e c73d 5af2 1b3c 16b9 a1be
000000b0: ce89 f7bd bd10 773e 9171 e3be 1b3c 883d
000000c0: a869 b6be 4a1f cc3c 3300 d5bc 5e4a 89be
000000d0: 1d04 83bd 38f3 7fbe b785 12bf 620f a9be
000000e0: aa22 39be ffd6 a13e a00b 1c3d e2ef b3bc
000000f0: d56d 8bbe ad4c 6abc 2e89 92bd 00cf d1bd
00000100: 4338 97bf 279c d5bd f354 f5bd 4bcf 343e
00000110: 7864 0dbe ec17 a7be d5b1 7fbe f968 da3d
00000120: f16d 9c3a 0c65 8d3e 7791 1e3e 686e 803d
00000130: 2747 14bf d409 ecbd 4e2a e3be f42a 893d
00000140: ed9b 61be cbf2 ccbb 646c a9bd 73e9 2c3f
00000150: fedd 92be ac37 20be e7c1 3e3d 6b2e 453e
00000160: ea24 a0be 8d10 2ebe 166d 66be 68b4 a7bd
00000170: 720d 79be 1aa6 44bd 6fd4 65be d3b9 4fbf
00000180: 50eb aebe 8c64 70be a357 253e c346 97be
00000190: 3d8c 423e 9e3b a7be 79c1 d9be 97d3 4f3d
000001a0: 1867 2fbf 3303 2e3e 96bd 8d3d 9da7 c0bd
000001b0: 3a43 eabd 6577 0fbf c8b0 47bf 84f1 50bd
000001c0: 8e06 debe 4abc 25bf e991 d6be a796 08be
000001d0: b4b5 a6be e421 93be 5fa1 d9bd d41f 4ebe
000001e0: 9294 c4bd 135d 8abe c8fd ad3d 3e83 31bf
000001f0: 91a5 b03e da6a 90bf e1ab 68bf 6a01 ebbd
00000200: 87ac 5fbe b1a8 8cbe 819b d9be a855 a73e
00000210: 027c 563e 355a 9dbe adff 543d ca2f febd
00000220: 66f7 93be b109 a6be 6e67 eebd e7a7 97be
00000230: 9b81 b2be 3921 b03d ddbc fbbc cd0d e3bd
00000240: 7f8a 27be 0ecc b3be 2711 6ebd eae3 3dbe
00000250: 781f 88be 98f4 c3bc 89d0 583d 799e b03b
00000260: 8e20 67be 4b16 173e 849c 2f3e 3212 55be
00000270: f640 c2be aa27 8bbe ffd4 45be 66f0 81be
00000280: 2845 22bf cd94 893d 3adc 9abf 89b9 a2be
00000290: 8220 ffbd 29fd 64be fe14 4c3d 8611 33be
000002a0: bde2 c9be 1f3e 553e 3175 93be 7e3b c4be
000002b0: 92ae a8be 97a7 03be 235e 75bd 0d48 a2bd
000002c0: 67dd 1e3e bdba d1bc e4bd 833d 5947 0b3d
000002d0: 2cd7 e73d 71ce 33be cf1a 37be 9e73 b8bd
000002e0: eedd afbe 845c 97be f20e 94be 7fa0 213b
000002f0: 1af5 16be 8b62 2ebf bfcb c4bd 692b 83be
00000300: 0441 99be 38d0 1dbf a8c3 1fbf 9e17 a23d
00000310: 3690 3bbf d386 52bd 05d3 353e 7c15 debe
00000320: f8cd 19bf 6133 a8bd ea79 59be b23e 623e
00000330: 1e9c 9dbb 22e1 fabd fab6 93bf bba5 bb3c
00000340: 9f8e 603d 6ac8 ecbd 419d 4ebe e6a0 85be
00000350: a9f9 b13d 2734 773e 5a2f 27bf 4175 c3bd
00000360: bf6f c1bd a6f1 1cbe c465 5dbf 6416 99be
00000370: c787 58bd 7069 343c 94da e1be 1f1f 20be
00000380: 9811 0fbe 4a36 68be f151 a53e f00d 1ebe
00000390: f4d5 07be 38ff f836 4b16 78be ee20 aebd
000003a0: c0bf 973d db1f 6fbe d0e8 afbd 896d cabd
000003b0: bc86 bdbe 22f8 51be 0b09 773d f8f8 c6bd
000003c0: e08c a8be 0afb 2ebf f545 873d f7fb d5bd
000003d0: 50e1 30be 2699 83be 92aa 6fbe 7cd2 22be
000003e0: 2994 04bf a7c5 e6be 836d 2cbf 9691 cbbd
000003f0: 3327 f3bd 17d3 283c 3650 923e b1b8 e1be
0.24969855 0.28686252 -0.19988462 -0.16303131 -0.41506025 -0.070325054 -0.12368991 -0.4035612
-0.17971615 -0.060239017 0.10095395 0.27771732 -0.008030565 -0.2033474 -0.12011742 -0.08061798
0.07549317 -0.4831163 -0.0452289 -0.608907 -0.30630848 0.3466326 -0.39644444 -0.14417796
0.05189352 -0.22257768 -0.115703724 -0.25016037 0.030065661 -0.33436707 -0.19617161 -0.40203133
-0.6770464 -0.24262196 -0.3009835 0.33460644 -0.14487793 -0.78696656 -0.4754636 -0.09449429
-0.14531425 0.09746933 0.00951823 -0.31586522 -0.12086831 0.24127479 -0.44422582 0.06652089
-0.35627484 0.024917264 -0.026001072 -0.2681455 -0.06397269 -0.24995124 -0.5723528 -0.3301955
-0.1807963 0.31609342 0.038097024 -0.021964971 -0.27232233 -0.0143005075 -0.07155071 -0.1024456
-1.1814045 -0.10430174 -0.119790934 0.17657201 -0.13807857 -0.32635438 -0.24970181 0.10664553
0.001193462 0.27616155 0.15485178 0.06271058 -0.5792107 -0.11525312 -0.44368213 0.06697646
-0.22032137 -0.006254529 -0.08272627 0.67543715 -0.28684992 -0.15646237 0.04657164 0.19255988
-0.31278163 -0.16998501 -0.2250255 -0.08188707 -0.24321535 -0.04800997 -0.22444318 -0.8114292
-0.34163904 -0.23475856 0.16146712 -0.29546174 0.18998809 -0.32662672 -0.4253042 0.050738897
-0.68516684 0.16993408 0.06920926 -0.0940697 -0.11438604 -0.56041557 -0.7800412 -0.051011577
-0.43364376 -0.6474043 -0.41908196 -0.1333872 -0.32560503 -0.28736794 -0.10626482 -0.20129329
-0.0959865 -0.27024135 0.084956706 -0.69340885 0.34501317 -1.1282609 -0.90887266 -0.11474879
-0.21843158 -0.2747245 -0.42501453 0.32682538 0.20945743 -0.30732885 0.052001644 -0.12411459
-0.28899688 -0.3242927 -0.116408214 -0.29620287 -0.34864506 0.08600087 -0.030729705 -0.11086617
-0.16361426 -0.3511662 -0.058121826 -0.18543974 -0.2658651 -0.023920342 0.05293325 0.005389985
-0.22571012 0.14754598 0.1714955 -0.20807722 -0.37940186 -0.271787 -0.19319533 -0.25378722
-0.63386774 0.067178346 -1.2098458 -0.31782177 -0.12457372 -0.22362198 0.049824707 -0.17487153
-0.394308 0.20824479 -0.28800347 -0.3832664 -0.32945687 -0.12856899 -0.05990423 -0.07923899
0.15514146 -0.025601739 0.06432703 0.03400359 0.11320338 -0.1755922 -0.1788132 -0.09006427
-0.34349006 -0.2956277 -0.28917652 0.0024662314 -0.14741936 -0.68119115 -0.09609174 -0.25619057
-0.29932415 -0.6164584 -0.6240792 0.07914661 -0.73266923 -0.05139811 0.17756279 -0.43375766
-0.6007991 -0.08212925 -0.21237913 0.22094229 -0.0048098704 -0.12249972 -1.1540215 0.022906175
0.054823514 -0.115616634 -0.20177175 -0.26099318 0.08690197 0.24140988 -0.6530663 -0.09543849
-0.09445142 -0.15326557 -0.8648341 -0.29899895 -0.052863862 0.011011466 -0.44112074 -0.15636872
-0.13971555 -0.2267696 0.3228908 -0.15435004 -0.1326521 7.4206873e-06 -0.24227254 -0.085023746
0.0740962 -0.23351996 -0.08589327 -0.098841734 -0.37016857 -0.20504811 0.06031136 -0.09715456
-0.3291998 -0.68351805 0.0660514 -0.10448449 -0.1727345 -0.2570278 -0.23404911 -0.15900606
-0.51788574 -0.45072672 -0.673546 -0.09939878 -0.11872711 0.010304234 0.2857682 -0.4408622

critic.2.weight f4 [256, 256]
00000000: 4eea 4b3d 6297 1b3d 2995 bc3c 6751 72bd
00000010: 9f01 5fbe f247 e93d 88de b2bd 8404 5fbd
00000020: e94c bebc ca79 7dbd f0f9 c1bd e948 163c
00000030: b4f0 fe3c 6488 ae3d 801f bbbd 7ab7 61bd
00000040: c108 9cbd 41ae cabc 613b 0fbe 5825 33bc
00000050: 4cbc d2bc 55fd 1c3d e32d 883c b0ee 0a3d
00000060: f2ec 4f3c 1ec4 2a3d 789e 813c db50 c8bd
00000070: ed08 cbba a2a4 5f3d 4c11 b0bc 9685 443d
00000080: 4742 683d d154 aa3c 86d1 0a3e 48fc f6bd
00000090: 93d4 94bd 0ee1 013e 290b 65bc 8e88 fb3d
000000a0: 423c a73d d826 03be 184a 733d 6eec 2abd
000000b0: 8ca1 d93c ee8f e93d 700c 24bd 8c08 c13d
000000c0: 7517 46bd c8e2 8b3d bbdc 1b3d c433 833c
000000d0: 5fb7 62bc 1f40 84bc 2b8b 13bd 9ba2 8b3d
000000e0: 51cc 4f3d 1ed8 3abd 464f c4bc 1c1a 24be
000000f0: 2cf0 4e3d e929 453e ad67 183c 4a3b 9f3c
00000100: a6bf e3bd 9762 5b3d e495 11be 19f6 e2bd
00000110: ca2d 13bc 1ca7 943b 0453 92bd 8297 f4ba
00000120: 683b a73d 4d03 93bd 5fce a43d 30d7 bd3d
00000130: f81e 103d e318 053d 33d3 67bc 541c 15bd
00000140: 92ce a0bd 318e 543d ab0c 97bb afcb aa3c
00000150: 831b 793d 6ca4 72bd 856f 2fbd b1cc 0fbd
00000160: a82a f13c 4e04 0ebc ab5f 4a3e 247e f1bc
00000170: 8bf7 a83a 9160 df3d 5204 a4bc 8568 cbbc
00000180: 7b8a 86bd 3c70 2abe ed03 8dbc a307 19be
00000190: 72f8 d33d 5a8f a6bc 61d7 6bbd 8c02 ef3d
000001a0: 36ac 20bd 005d 1cbd b2d9 eebc a999 82bd
000001b0: e761 f9bd d322 8fbd ecbc 12bc b0b5 97bd
000001c0: dcc0 173d f927 9fbc 7888 6ebd 7707 03be
000001d0: 7888 e6bc 6a0a 5b3e b78f e7bc f064 83bd
000001e0: bcc3 9e3d d16c 283e c00c 2b3c e0b8 533d
000001f0: 5c7e 0cbd 17c4 9a3d 34e0 65bd 4c24 2ebd
00000200: 5866 e03c c364 a13d 4d0d d8b9 43e3 42bd
00000210: db36 913d d60e 86bd b917 3d3d 91d8 9a3d
00000220: 7880 adbd ea2a 48bc 88ea 9dbc 1047 053d
00000230: 70e4 a1bd 74d8 763d c129 ebbd 7d71 3b3d
00000240: a664 5ebe b2d8 823d bd05 763c fcd1 3abd
00000250: e7e3 22bd 2118 6b3d 4e04 9a3d d58b 21bd
00000260: 23d4 583e 7770 933c 680d 8e3b 3024 6ebc
00000270: 883d da3a 2956 58be c19d 543e 05b1 023c
00000280: 5d29 0bbe 70ca 5dbd 67fe 1c3c c4a8 f53d
00000290: 6567 273d d7dd 213d 1621 bdbd c145 f6bb
000002a0: 4dd2 503c cf50 233d b2d3 b53d 1cf0 283d
000002b0: 042f b4bd 01d3 8dbd 3e9e 9e3c 48c1 b4bb
000002c0: 8453 293d df48 513c 975e 5d3d 84f5 9a3d
000002d0: d893 94bd 0a3a db3c 1668 c73b e9fb e43b
000002e0: 6185 ad3c 5775 a1bd c8ed 253c 0027 e83d
000002f0: c3bc 283d 414f 023e b5cf b4bc 8504 61bd
00000300: cae6 733c 964f 7fbc b5ab 733c 6ef8 39bd
00000310: bf44 95ba c47e 3bbd 5102 8d3d 06bf 253d
00000320: 1650 cdbd 5fa0 87bc 69b8 37bd f20a e1bd
00000330: 3315 aabd 8ed3 fdbd a61c 033d 4320 53bd
00000340: 517f 39bc 57a0 d53d 07b5 99bd 2bf2 133c
00000350: aba9 ecbd bf2d bcbd 3b5d 503d 1eb9 86bd
00000360: a31c 17be 7b07 703d 266d 3cbd 414f 5d3c
00000370: b63d 7cbd 9491 a23c 2289 3b3e ccea 2fbb
00000380: 6d64 c9bc 7045 fc3d 21e6 93bd a3c5 afbd
00000390: ca17 c2bc 7af0 cf3d 7099 28bd bf1e 603c
000003a0: e460 143c 3210 533e 3863 68bd 0a0e 133c
000003b0: e5d0 2dbb ee7d 9fbc e78a 3d3c 251a 88bc
000003c0: 26a5 79bd ce3d 9e3d b68d 453d 3b03 263c
000003d0: 4916 e33d 2b05 283c 7b8a 18bd 0da3 df3b
000003e0: 2d59 cc3c a60a 983d 341d 783d 7c9d cdbc
000003f0: e9cb 8ebd b547 c6bb bfdd b3bb 9963 2bbd
0.049783997 0.037986167 0.023020344 -0.059159663 -0.21777962 0.113906756 -0.08733851 -0.054447666
-0.023230033 -0.061883725 -0.094715 0.009172657 0.031120636 0.08522108 -0.091368675 -0.055106618
-0.07618857 -0.024741294 -0.13987495 -0.010934196 -0.025724553 0.038327534 0.016623443 0.033919036
0.0126907695 0.04169094 0.015822634 -0.09781047 -0.0015490331 0.054600365 -0.021492623 0.04797896
0.056703832 0.020792397 0.1355649 -0.120598376 -0.07267108 0.12683508 -0.013979712 0.12281905
0.0816579 -0.12807786 0.059396833 -0.041729383 0.02656629 0.114044055 -0.040050924 0.09425458
-0.048362214 0.068303645 0.0380523 0.016015895 -0.013837664 -0.016143857 -0.036021393 0.06818124
0.05073196 -0.04561626 -0.023963582 -0.16025585 0.050522014 0.19254269 0.009302062 0.01943745
-0.111205384 0.05356082 -0.14217335 -0.11082096 -0.008983085 0.0045365226 -0.0714474 -0.0018660876
0.08165628 -0.07178364 0.08047175 0.092695594 0.035185784 0.032494437 -0.014149475 -0.03640397
-0.078519 0.051893417 -0.0046096644 0.020849077 0.060817253 -0.059238836 -0.042830963 -0.03510732
0.029439285 -0.0086680185 0.19763057 -0.029479094 0.0012891156 0.109070905 -0.020021591 -0.024830112
-0.06569382 -0.16644377 -0.017213786 -0.1494432 0.103501216 -0.020332027 -0.05757845 0.11670408
-0.039226733 -0.03817463 -0.02915654 -0.063769646 -0.121768765 -0.06989064 -0.008956175 -0.07407701
0.03704916 -0.01942824 -0.058235615 -0.12795816 -0.028141245 0.21390691 -0.02826677 -0.06415737
0.07752177 0.1644776 0.010440052 0.051689982 -0.034300193 0.075569324 -0.05612202 -0.042515084
0.027392551 0.07880547 -0.0004120864 -0.047580015 0.07090541 -0.065457985 0.0461652 0.07560838
-0.08471769 -0.012217263 -0.019276872 0.032538474 -0.07904899 0.06026502 -0.11482573 0.045762528
-0.21718082 0.063889876 0.015016017 -0.045610413 -0.039768126 0.057396058 0.07520352 -0.039439995
0.21174674 0.017997963 0.0043350942 -0.014534995 0.0016650418 -0.21126617 0.20763303 0.007976775
-0.13589998 -0.054148138 0.009582139 0.1199508 0.04087009 0.039518204 -0.09234826 -0.0075156395
0.012745452 0.039871987 0.08878268 0.04124461 -0.0879803 -0.069250114 0.019362565 -0.005516205
0.041339412 0.0127737215 0.054045286 0.0756636 -0.072547615 0.026761074 0.006085406 0.006988038
0.021181764 -0.07883709 0.010127492 0.11335564 0.041195642 0.12725545 -0.022071699 -0.05493595
0.014886567 -0.01558294 0.014872481 -0.045402937 -0.0011388286 -0.04577519 0.068852074 0.040465377
-0.10025041 -0.016555963 -0.0448536 -0.10988416 -0.08304825 -0.123938665 0.032009743 -0.05154444
-0.0113218585 0.10430973 -0.07505231 0.009029905 -0.11555799 -0.09188413 0.05087016 -0.06578277
-0.14757018 0.058600884 -0.04600253 0.013507665 -0.06158229 0.019844808 0.18314031 -0.002684283
-0.02458402 0.12317932 -0.07221628 -0.08582618 -0.023692984 0.10153289 -0.041161954 0.013679205
0.009056304 0.20611647 -0.056735247 0.008975515 -0.0026522216 -0.019469228 0.011568761 -0.01661403
-0.060948513 0.07726632 0.04823085 0.010132606 0.11088235 0.010255138 -0.03724144 0.006824857
0.024944866 0.07423906 0.060574725 -0.025099508 -0.069724865 -0.0060510286 -0.0054890807 -0.04184303

critic.2.bias f4 [256]
00000000: 3970 69bb a9e7 ebbc 8cf5 47bd 649a 3bbb
00000010: 1978 d23a 0adc b7bc 3f70 72bd 40a3 01be
00000020: 1c9e 0b3c 99e7 dfbd da17 c5bd 39de 313d
00000030: 9c96 cabd 24f2 d5bc b9de 38bd 2f31 4fbe
00000040: 7fc6 e1bc 9d04 333c d283 e5bc 04c2 4f3d
00000050: d0f3 dabb 183c c5bb 892c abbc ae57 b4be
00000060: c921 823c 6264 7a3d 70dc 67bc 7037 28bc
00000070: 7f4a febc dca8 3a3a 7d8f f33c e9ba 14bd
00000080: ac7a 0dbd 178a 17be b7c2 8dbd dac3 1cbd
00000090: f0ad 77bd d0f1 19bd 1566 b8be 2516 553d
000000a0: 7918 783c a07e 6a3d 2e29 493b 5640 483b
000000b0: 8fd7 9d3c 8315 523d 6a1c 3f3b 8541 03bd
000000c0: 8b52 93bd 4990 63bd 9220 4ebd ff1f a6bc
000000d0: 4bb7 3f3d 3dca 8e3c 6fbf c6ba 132d 98bc
000000e0: 2155 773c b1fb f0bb fed9 1f3c 0ee6 86bc
000000f0: 36a1 18bd 6ea7 a2be 0d32 38bc a530 a3bc
00000100: dcc0 cc3b bc64 db3c 5abb 67be 8723 febc
00000110: 7f8b ccbd a1a3 abbd 49c2 233d 32c1 1ebd
00000120: 56b6 f9bb e642 433c b75a b3bc 33a0 33bd
00000130: 8c1b 31bd 5a5f 213c ca83 93bd bd4f 92bd
00000140: e72f 3abd cd5b ee3c 7b41 02bd afe5 33bd
00000150: 9017 40be e7f9 6bbe f588 bdb9 7704 383a
00000160: bf2d f3bd 5be0 c0be b25a f7bb 0491 63bc
00000170: a553 cdbb c0af c7bb 3266 93bd 1669 33bd
00000180: f45d 4a3c c6c5 a6bb 023a 55bd 726e cfbd
00000190: 6ed4 0c3d ddce 14bd 714b b5bc a880 56bc
000001a0: 496a 05be 83f7 e7bc f84e 633b 9ef1 bebd
000001b0: e4d5 67bd 280a 5f3d cc18 0dbc 500a 71be
000001c0: 8f75 e8bc b2b6 61bd 7a39 3ebd 8aaf 23bd
000001d0: 0702 be3c 68c3 b0bb 06e1 ec3b fe5a 0fbd
000001e0: b7f0 a1bb b5af f23c a1b6 97bd ea63 06bd
000001f0: 109e 7cbc 9af0 46be dd00 b3bc 04b0 66bd
00000200: 4002 17bd eb42 6bbc 5292 a839 f096 0a3b
00000210: 7194 fabc 9c43 7abe ead2 113d f26e 2a3b
00000220: 8638 b13c 6b43 c6be 80a2 5dbe afd0 2f3d
00000230: b5ac 953b 9732 b83c ffbf acbc 728e 57bb
00000240: beaa 34be a220 56bd f6bf e8bb e522 4cbc
00000250: f5f0 213d 5b20 61bd 2c5e c7bb fb50 14bc
00000260: 6725 1cba 0aed 65bd f164 9eb9 4e71 0dbc
00000270: 18bd d9bc 0a6d 5d3b a4cd 46bd 9141 5fbb
00000280: 8cde f5bd 2f48 b9bc e9db 47be ed11 873b
00000290: 25ec bfbc a609 aebc 6410 ffb9 2a0a 2e3c
000002a0: a34b 5abe 95bc 91bd 8f64 c2be 0e2b b23c
000002b0: 3a97 fabc e800 93bc 535b b7bd 2532 8736
000002c0: 0ae8 6d3c 7dec bbbe c74c 7dbd f2ad 0cbd
000002d0: a554 50bd f953 0abd 27eb bebb 6107 393d
000002e0: db58 4bbe 2024 a9bd b67c 343c f45f 2c3d
000002f0: bc49 033d 30eb d7bb e461 1dbd 9a25 8f3c
00000300: dc5a 75bb a58a 02bc cf13 d43b eb12 4ebe
00000310: 4c06 67bd 5f4d 02bd 7f9f efbc ec48 73bd
00000320: 7370 b1bd a8cf 07bd 93fd 64bd 28eb dbbc
00000330: 4587 80be cc16 06bd a9c3 9fbc 71b9 11bc
00000340: 9f40 27bd d918 163d 5e6f d43c c645 bdbb
00000350: 7a43 203a 2270 4fbc fd92 093d cf10 f8ba
00000360: 38d2 b5bc 99b4 e2bc 3c28 0bbd 6074 b1bc
00000370: c787 5abe 3029 5a3d 16e0 d53c 9186 0fbd
00000380: 4d1b 173d 2f5b 87bc fdb2 c9bc a44d 0ebb
00000390: a0c2 b8bc ce00 aaba 5691 37bd 7dc7 70bd
000003a0: b66c 843c 4927 58bc 956e 09be 78f6 8bbc
000003b0: 0cc3 e3b9 ae2f 2e3c cff8 05bd 6af0 ec3c
000003c0: 38cc 6cbc 812f bebc 946c f33b af00 d7bd
000003d0: 6529 9bbc f6ec 33bd a8bc 90bd 17b9 a6be
000003e0: 4d69 903d 0617 74bd 654d d2bd 3ac2 6cbc
000003f0: 7eae f63c 3113 12bd 0633 54bd 0df3 8cbc
-0.0035619868 -0.028796988 -0.048818156 -0.002862596 0.001605752 -0.02244379 -0.059189077 -0.12659931
0.008521583 -0.109328456 -0.0962369 0.04342482 -0.09892008 -0.026116438 -0.04513428 -0.20233606
-0.02756047 0.010926393 -0.028016958 0.050722137 -0.0066818967 -0.0060191266 -0.02089526 -0.35223144
0.01588525 0.06113089 -0.0141516775 -0.010267124 -0.031041382 0.0007120499 0.029731506 -0.036311064
-0.034540817 -0.14798771 -0.069219045 -0.038272716 -0.060468614 -0.037584126 -0.36015382 0.05202307
0.0151425535 0.057249665 0.003069471 0.0030555925 0.019267825 0.051290046 0.0029161223 -0.032044906
-0.07193478 -0.055557523 -0.05032403 -0.020278929 0.04680566 0.01743042 -0.0015163253 -0.01857618
0.01509598 -0.0073542227 0.009756563 -0.01646712 -0.037263118 -0.31768364 -0.011242402 -0.019920656
0.0062485766 0.026781432 -0.22630063 -0.0310228 -0.09987544 -0.08380819 0.039980207 -0.038758464
-0.007620613 0.011917805 -0.021893842 -0.04385395 -0.04323916 0.009849394 -0.07202871 -0.07144115
-0.04545584 0.029096508 -0.03180073 -0.043920215 -0.18758988 -0.23044549 -0.0003615093 0.0007019708
-0.1187396 -0.3767117 -0.0075486535 -0.013889555 -0.0062660747 -0.006093949 -0.071972266 -0.04380139
0.012351502 -0.0050894944 -0.052057274 -0.10128488 0.034382276 -0.036330093 -0.0221307 -0.0130921975
-0.13028826 -0.028316265 0.003468452 -0.093234286 -0.056600466 0.054453045 -0.008611869 -0.2353909
-0.028376369 -0.055105872 -0.046441533 -0.03996233 0.023194326 -0.005394388 0.0072289733 -0.034998886
-0.0049420255 0.0296248 -0.074078806 -0.03281013 -0.015418544 -0.1942772 -0.021850998 -0.056320205
-0.03686738 -0.014359216 0.00032152474 0.0021147095 -0.03058836 -0.24439853 0.035601534 0.002600607
0.021633398 -0.3872331 -0.2164402 0.042923626 0.0045677074 0.02248506 -0.021087645 -0.00328913
-0.17643258 -0.052277215 -0.0071029617 -0.012459491 0.039536435 -0.054962497 -0.006084224 -0.00905251
-0.0005956501 -0.05613426 -0.00030211316 -0.008632971 -0.026579425 0.0033786916 -0.048535958 -0.003406618
-0.12005338 -0.022617428 -0.19517483 0.00412201 -0.023428032 -0.021244835 -0.00048649602 0.0106225405
-0.21317916 -0.07116047 -0.37967345 0.021749046 -0.030589689 -0.017944768 -0.089529656 4.029151e-06
0.014520654 -0.36703864 -0.0618408 -0.034345575 -0.050861973 -0.03377149 -0.005826372 0.045173053
-0.19858114 -0.082588434 0.0110160615 0.042083696 0.03205274 -0.006589316 -0.038423434 0.017473985
-0.003743819 -0.007967626 0.006472088 -0.20124404 -0.05640249 -0.031812068 -0.029250858 -0.059395716
-0.08664026 -0.03315702 -0.05590589 -0.02684553 -0.25103202 -0.032736585 -0.019502478 -0.00889431
-0.04083311 0.03664479 0.02593201 -0.00577614 0.00061135704 -0.012661012 0.033587445 -0.0018925908
-0.022194967 -0.027674006 -0.033973917 -0.021661937 -0.21340857 0.053261936 0.026107829 -0.035040442
0.03689127 -0.016522972 -0.024621481 -0.0021713758 -0.022553742 -0.001297021 -0.044816338 -0.058783997
0.016165119 -0.01319296 -0.1342109 -0.017085299 -0.00043442135 0.010631485 -0.032707985 0.028923232
-0.014452986 -0.023216011 0.007428715 -0.10498177 -0.018940637 -0.043927155 -0.07067233 -0.32563087
0.070513345 -0.05959227 -0.10268668 -0.014450604 0.030112501 -0.035662834 -0.051806472 -0.01720574

critic.4.weight f4 [1, 256]
00000000: 9d49 7b3a e16e c13b add8 a43b 6ed4 093b
00000010: 5637 00bb 45b5 bbbb a28b 7b3b 5263 c8bc
00000020: e786 37bb 989a 54bd 9958 d8ba 2712 93bb
00000030: 57ef bb3c 66c3 a03c 41c3 6d3b b18c 51bd
00000040: 25c6 c9bb 993f d5bb e8ee 193c 3b73 f2ba
00000050: 2fbc ff3d 5da3 0f3b 362f 133b 7c2d ecbd
00000060: cadb 913b 2e83 123c 2401 0bba 53ae 89bb
00000070: 5d00 073d 1e81 46ba 9f15 3abb f222 853b
00000080: fe44 24bc 3403 f9bc f648 aebb e50d 03ba
00000090: 2c59 323b 8d55 88bb 0800 4dbd 39de 11bb
000000a0: 6346 00bc 94bb a13b 318c ec3c c278 0dbb
000000b0: deed 043d 0dea 923b 853c d4bb bf67 003b
000000c0: 7099 4f3c 130a 2f3c c847 9f3a dd51 c3bb
000000d0: dd1f 33bb 2d42 3e3b da10 4f3a 4fd0 133c
000000e0: 8d73 923a 7f73 5c3b fced 343b 0d40 b93b
000000f0: 8c9f 6cbb 39a1 11be a5da 6a3b db36 a53b
00000100: 8b47 f03b 6a5c ed3b 7633 b73d 5640 dc3c
00000110: 335b 68b9 c2b4 3ebe 69cc 713e ed01 d2ba
00000120: 90df f7ba e461 b4b7 9976 663b 511e 593b
00000130: f4f0 85bb 4782 44bc 3810 f33a 5de3 dd3c
00000140: 798d 053c 2237 47ba ea3e e23b cd11 7ebb
00000150: ab93 3bbd dcb5 82bd 8d03 12bc a057 163c
00000160: 88fb 453b b9a1 80be 3fc4 1a3e a848 5b3b
00000170: 946c 7dbc 6c2d cf3a 6512 d6bd 50de ca3b
00000180: c499 79bb a82f e1bb eca2 993c f180 0c3d
00000190: 110a 4fbc 49c0 41ba 0300 eb39 c4ea 8d3b
000001a0: e219 8ebd 71b6 e9ba bb1e c339 107d 06bc
000001b0: 521d b7bb baa5 613b 9a0c cabb 6bf5 6fbd
000001c0: cd87 5e3a 3f70 57bc 30b9 d2bb 9d16 c7ba
000001d0: 2c3a ab3b 1d7f 803a baed e63c 99f6 36bc
000001e0: be46 de3b 9c11 cbbb c8a0 0c3c 0c5f e63a
000001f0: dd05 173d 22f8 29bd d02d 853b c6d8 ccba
00000200: 8e14 723b d55d ffba 1cd1 d03b cac8 85bb
00000210: 5765 b3ba 4361 c5be 3da7 dc3b 8067 8dbb
00000220: b0f1 f63b c29c ebbd c55f a3bd 0585 113b
00000230: f7cd be3b d9a8 a9bb 4d7d cc3b 3c55 1f3b
00000240: 5afd 1ebe b0f4 fa3b c027 683b 3330 e3bb
00000250: 7639 bf3b a6f1 90ba 4b59 beba 036f 133c
00000260: cf16 e6bb 7fa9 12b9 e57c f1bb 0059 3bb9
00000270: d721 31bb bd37 3a3c 6589 c73a a6a6 3e3c
00000280: b7f5 cdbc febd 7cba ed41 b3bd 0dfe b1bb
00000290: d852 d5bb 14a1 973b fa51 a83b 50b6 6ebb
000002a0: 0bc3 32be ffe8 2c3b 226b fcbd c454 8139
000002b0: cc2b ea3b d7cf 8ebb a4f5 c23b 7603 68b9
000002c0: a6b0 ab3b afa4 ddbd 929c 2c3c f445 873b
000002d0: d4ed 493a c341 0abc 00aa a53a 6c19 80bb
000002e0: 24f5 35bd 7bb5 b43d 35e2 35bb 74d5 723b
000002f0: 7b80 dd3b 3e1d 123c 8724 97ba c247 043b
00000300: 62a9 0e3b 3cf4 c2ba 0127 903d 6d4d 54bd
00000310: 4d47 09bc e1bd c73d 96f4 9d3b f48d 7d3b
00000320: 4f38 06bc 9880 a13c 3a88 aabb 26ba 3abb
00000330: 3b76 05be 6050 84bc 7ad6 3c3b 4af2 c43a
00000340: dd34 2b3b 7500 763b cab7 8a3a c705 133b
00000350: dd88 0bbc 0e2a 82bb 9925 0ebb b30d dc3b
00000360: 8ad0 963b efa5 a73c 02a1 d3bb 3538 18bb
00000370: 69d4 25be 500c 973b a91f f83b 7a08 613d
00000380: 9abd 4439 6ae6 c73d 7c77 ccbb 57f0 acbb
00000390: 9680 40bb 6b62 5a39 c6e4 a73a 892a 173b
000003a0: 667d 403c 918b 54bb 4fe5 2b3d 99dd 00bc
000003b0: 4625 27bb 2aad 9f3b 2cc9 7b3d f1a4 f5ba
000003c0: 3395 583c 1212 fb3c 4ea4 e43a 4426 253d
000003d0: 0b25 293c 99c4 ecba 26a2 c5bb f67a 7b3e
000003e0: a815 16bb b315 ce3a 59fd 6abb 5cd2 f33a
000003f0: 5b60 5c3a c7ea f43c 338c b83c 077c 493b
0.00095858594 0.0059031104 0.0050307126 0.002103116 -0.0019564233 -0.005728396 0.0038382788 -0.024461422
-0.0028003992 -0.051905245 -0.0016505896 -0.004488248 0.022941275 0.019624423 0.003627971 -0.051159564
-0.006157654 -0.0065078256 0.009395339 -0.0018497476 0.12487065 0.002191744 0.002245856 -0.11532113
0.0044512497 0.0089424085 -0.0005302599 -0.0042016893 0.03295933 -0.00075723405 -0.0028394235 0.0040630037
-0.010026215 -0.030397035 -0.005318756 -0.0004999324 0.0027213795 -0.004160589 -0.050048858 -0.00222577
-0.0078292815 0.004935691 0.028875442 -0.002158687 0.03245341 0.0044834674 -0.006476941 0.0019593087
0.01267086 0.010683554 0.001215213 -0.0059606866 -0.0027332224 0.0029031143 0.00078989344 0.009021833
0.0011173353 0.0033638177 0.002760767 0.0056533874 -0.003610584 -0.14221658 0.0035835889 0.0050419397
0.0073327473 0.0072436826 0.08945362 0.026886147 -0.00022159218 -0.18623641 0.23613133 -0.0016022302
-0.0018911231 -2.1503256e-05 0.0035165905 0.0033129642 -0.0040875617 -0.011993951 0.0018544262 0.027085954
0.0081514055 -0.0007599463 0.0069044726 -0.0038767934 -0.045795124 -0.06382343 -0.008911979 0.009176165
0.0030209739 -0.25123385 0.15113924 0.0033460055 -0.015467782 0.0015806383 -0.10452727 0.0061910525
-0.0038086036 -0.006872136 0.018754445 0.034302656 -0.012636677 -0.00073910184 0.00044822702 0.0043309648
-0.069385305 -0.0017830861 0.00037216194 -0.008208528 -0.005588212 0.0034431056 -0.006166053 -0.05858366
0.0008488864 -0.01314932 -0.0064307675 -0.0015189234 0.0052254405 0.0009803508 0.028189529 -0.011167192
0.0067833355 -0.0061971676 0.008583255 0.0017575934 0.036870826 -0.041496404 0.004064299 -0.0015628568
0.003693852 -0.001948292 0.006372584 -0.004082774 -0.0013686818 -0.38550767 0.0067338035 -0.0043153167
0.0075361356 -0.115045086 -0.07977251 0.002220453 0.0058228928 -0.005177599 0.006240523 0.0024312278
-0.15526333 0.0076585636 0.0035424083 -0.006933236 0.0058357073 -0.0011058345 -0.0014522461 0.008998635
-0.007021762 -0.00013986787 -0.007369625 -0.00017866865 -0.0027028227 0.011365828 0.0015223442 0.011636412
-0.02514158 -0.0009641348 -0.08752809 -0.0054318965 -0.00651012 0.0046273563 0.0051367255 -0.0036424585
-0.17457215 0.0026383994 -0.123251215 0.00024667953 0.0071463343 -0.0043582725 0.005949693 -0.00022126533
0.005239564 -0.108224265 0.010535376 0.004128212 0.00077029807 -0.00843853 0.0012639165 -0.0039092805
-0.044423237 0.08823677 -0.0027753238 0.0037053498 0.006759701 0.008918105 -0.0011531272 0.0020184373
0.002176844 -0.0014873813 0.070386894 -0.05183165 -0.008378816 0.097530134 0.0048204167 0.0038689347
-0.008192136 0.019714639 -0.0052042278 -0.00284923 -0.13033383 -0.016151607 0.0028814361 0.0015025821
0.0026124038 0.0037536894 0.0010583338 0.0022433863 -0.0085165175 -0.0039722985 -0.002168989 0.0067155003
0.0046024965 0.020464865 -0.0064584026 -0.0023226861 -0.1619431 0.004609622 0.0075721336 0.054939725
0.00018762649 0.09760745 -0.0062398296 -0.005277674 -0.0029373518 0.00020826764 0.0012809269 0.0023066124
0.011748647 -0.003243182 0.041966733 -0.007865333 -0.0025504394 0.0048729377 0.06147115 -0.0018741173
0.013219166 0.030648265 0.0017443986 0.040319696 0.010323773 -0.0018063962 -0.0060312925 0.24558625
-0.0022901092 0.001572302 -0.0035856573 0.0018602121 0.0008406692 0.029897107 0.02252779 0.0030744092

actor.0.weight f4 [256, 162]
00000000: 8518 90bd 8260 7a3e 4892 acbe e0eb 28bd
00000010: 1cc1 58be 8414 1e3f 76ee 1dbe 7907 01bf
00000020: e32f 0cbe 3248 45bf 5a61 8fbd 4715 3abe
00000030: 5c60 fabd a618 f4be 51a0 94be fbfc a83a
00000040: 423d 913d ad7c c6be 6089 053e 1d8a 25be
00000050: 708d 2dbe 8e9a a2be fbac 0bbe 4b39 a63c
00000060: 8a09 aabe 5904 ebbd f26d 1cbf dd50 28be
00000070: 6ba2 8abe c57e 2ebf fc9e 343f 6e8e a23d
00000080: 5dd8 0cbf 48b3 02bf 7a0a 49be e9c9 28bf
00000090: 6c97 913d 4301 233d 446c 00be df77 60bc
000000a0: 79b1 35bf 09da 3bbf 6a97 1fbf 18da 26bf
000000b0: 1187 0dbf 43e5 d5bd cbe1 21bf 5d5c 0cbf
000000c0: 84c9 87be 8973 adbe 87f0 043f b141 d3be
000000d0: 1ca1 d6be 7d5e 68be c471 ac3d ea1d 433d
000000e0: 4acc 6fbd 3f8e b1bd cda8 01bf 19ef d4be
000000f0: 3688 023f 2984 583f 5d93 debd 3a53 af3e
00000100: 1cf2 aa3f f7f0 963e 2e68 3e3f fa18 3e3f
00000110: 4a48 30be 5199 053f fc7a c6be acc5 8c3e
00000120: 64ef 05be d283 00bf 7760 9d3d 477e adbd
00000130: 63b2 733e 27c3 19bc 9591 0d3e 640b a9be
00000140: 3534 563f 0293 0abf 5be1 53be 93c6 3abe
00000150: 63e0 8ebf b419 f5be 9b65 19be 7783 a7be
00000160: 1bd2 e13e 0502 bd3d 255d 653f 846c 8d3d
00000170: a805 3f3e b004 bd3e b20d ecbe 66fb 3bbe
00000180: 0837 d1be 33ca ae3e cf25 dd3e db46 8c3e
00000190: c3c4 17bf 7bfa 1ebe 5ed7 d7be 8130 2abf
000001a0: ddd8 c5be 475a 1dbe db5b 28be 2ee7 fbba
000001b0: d384 54be a91d c2bd ea09 003e b0f9 a5bc
000001c0: 8971 653f 6715 ffbe 183a a23d 748e f9be
000001d0: aaf2 d43e c482 d3be 8d26 173c a14e 153f
000001e0: b32f 3cbd 3c66 e8bb d1d5 4abf 8aa9 1a3e
000001f0: dd44 c2ba dbb4 7c3e 81a9 a93e 07fb 2bbf
00000200: d1d7 d13e 692c 593e 9bd9 c1be 0674 853e
00000210: 3966 eabe 866b 68be 907a d83d 6489 debd
00000220: 7811 913e c5c4 08bf ab10 d9bd c57a babe
00000230: 259f dcbd 51f7 813e db6c 82be 052e 043f
00000240: 86bf b73e 8b8b dd3e 227b 24be be19 81be
00000250: 598d afbe 3263 cabc 5c32 1fbf 92e5 413e
00000260: 5a60 bfbe f522 99be da0e fe3e 0349 bebe
00000270: a2aa 0bbd cabd c03e 324b 1abe 089f a33e
00000280: 5264 ab3c cb7e a1be 4f66 4b3e 8fa1 c9bd
00000290: 7ccf 043e 0945 383e efb0 2e3e a18a 1dbe
000002a0: 1910 0ebe 156d 2e3d 4944 a2bd 2e46 263e
000002b0: e3c9 b7bd 8d75 ad3c 733e efbb 7145 10be
000002c0: 3b33 cebd 4841 bdbc 3e54 85be 780d 16be
000002d0: 7656 70bc 1578 393e 7481 7a3d 0cc7 9c3d
000002e0: a81e c9bd 57d5 863e 73f9 f43d 35a7 803d
000002f0: 860b 2a3d 54f3 25bd f320 1bbc d8d9 13be
00000300: 26df 81be c5cf 5d3e 6ca8 9bbc e98c ee3d
00000310: 0dc9 8c3d 293b b33d 0c86 763d 80b0 25be
00000320: 4817 3cbe e7fc 8ebd 6a23 c33e 2b72 d93e
00000330: 87f7 073f 9eb7 c63e 2382 703d 742c 20bd
00000340: c721 d83e 37ac 00be 23a4 94bd bd78 3b3e
00000350: 67d1 953d 4de6 f73e a8fd 083f dedb 913e
00000360: e7b5 1e3d 27ee f83e 384f 333f d7e2 4f3e
00000370: e832 ac3d d1dd 383e 886a a8bf f97b 39bf
00000380: e886 2cbf 4a0a 8bbf c5e3 20bf 5697 81bf
00000390: 942f 69bf 9142 73bf 58e4 39bf e169 3ebf
000003a0: bc43 52bd 9ee7 4abc 10a1 7e3b 7022 0b3f
000003b0: 6de4 ef3e 143c ab3e 420b a73e af7e c43d
000003c0: de45 973d 38b0 fbbd 50e5 d13e b1b3 233f
000003d0: 9625 cc3e ea9f 5c3f 09a8 403f 222c 2e3f
000003e0: c2c1 6e3f 73c5 013f 38f0 5b3f 1b94 b43e
000003f0: 035d c43e e71b 1d40 5ed9 943f 4bf2 0840
-0.07035927 0.24450877 -0.33705354 -0.041240573 -0.21167415 0.61750054 -0.15422997 -0.5040203
-0.13690142 -0.77063286 -0.0700099 -0.18172179 -0.1222541 -0.47675055 -0.29028562 0.0012892777
0.07091762 -0.38766995 0.13040686 -0.16165967 -0.16948485 -0.3175854 -0.13640206 0.020290991
-0.33210403 -0.114754386 -0.61105263 -0.16437097 -0.2707704 -0.68162185 0.7055509 0.079373226
-0.55017644 -0.5105481 -0.19632903 -0.6593309 0.071089596 0.039796125 -0.125413 -0.0137004545
-0.70973927 -0.7337957 -0.62340415 -0.65176535 -0.5528422 -0.10444119 -0.6323516 -0.54828435
-0.26520932 -0.3387721 0.51929516 -0.41261056 -0.41919792 -0.22692294 0.084201366 0.04763595
-0.058544435 -0.086697094 -0.50648195 -0.41588667 0.5098909 0.8457666 -0.10867951 0.34243184
1.3355136 0.29480717 0.74377716 0.7425686 -0.17215076 0.5218707 -0.38765705 0.27494562
-0.13079602 -0.5020114 0.07684415 -0.08471351 0.23798518 -0.009384907 0.13825066 -0.33016503
0.8367341 -0.54130566 -0.20691435 -0.18239813 -1.1162227 -0.47871172 -0.14980166 -0.32717487
0.4410561 0.09228901 0.8959525 0.06905463 0.18654501 0.3691764 -0.461042 -0.1835762
-0.40862298 0.3413864 0.43192908 0.27397808 -0.5928461 -0.15525238 -0.421565 -0.6648026
-0.38642016 -0.1536647 -0.1644129 -0.0019218677 -0.20753793 -0.094783135 0.12503782 -0.020260662
0.89626366 -0.49821016 0.07921237 -0.48741496 0.41591388 -0.41310704 0.0092255 0.58323103
-0.045943927 -0.0070922654 -0.7923251 0.15103737 -0.0014821548 0.24678366 0.33137134 -0.6717991
0.40984967 0.21208347 -0.37861332 0.2606508 -0.45781115 -0.22697267 0.10570252 -0.10866049
0.2833364 -0.53425246 -0.10598882 -0.3642179 -0.10772542 0.25384 -0.25473675 0.5163272
0.35888308 0.43270525 -0.16062596 -0.25214952 -0.34287527 -0.024705503 -0.6218622 0.1893523
-0.37378198 -0.29909483 0.49620706 -0.3716508 -0.034098275 0.37644798 -0.15067747 0.3195727
0.02092186 -0.31542048 0.19863246 -0.09845268 0.12969774 0.17995085 0.17059682 -0.15384914
-0.13873328 0.042584497 -0.079231806 0.16237709 -0.08974054 0.021174217 -0.0073011457 -0.1408899
-0.10068365 -0.023102418 -0.26040834 -0.14653575 -0.014669051 0.18112214 0.061158612 0.07655153
-0.098203 0.2633464 0.11961641 0.06281892 0.041514896 -0.04051526 -0.009468305 -0.1443857
-0.2536556 0.21661289 -0.019001208 0.1164797 0.06874285 0.08751518 0.06018643 -0.1618061
-0.18368256 -0.06981831 0.38112956 0.42469916 0.5311207 0.38811964 0.058717858 -0.039104894
0.4221327 -0.12565695 -0.07257869 0.18307777 0.07315331 0.48417893 0.5351205 0.28488058
0.038747694 0.48619196 0.70042753 0.20301376 0.08408147 0.18053366 -1.3157511 -0.7245479
-0.6739335 -1.0862515 -0.6284755 -1.0124309 -0.91088223 -0.9502345 -0.7261405 -0.7438031
-0.051334128 -0.012384323 0.0038853325 0.5434942 0.46853963 0.33444273 0.32625777 0.095944755
0.07386373 -0.122894704 0.40995264 0.6394606 0.39872426 0.8618151 0.752564 0.6803609
0.932644 0.5069191 0.8591342 0.35269246 0.38352212 2.454828 1.1628835 2.1397884

actor.0.bias f4 [256]
00000000: bb6a a2be aa2b aabd 6bcc b3be 4484 15be
00000010: 7621 2e3c 668c 153e 2cba 203e 7565 973d
00000020: 992c bc3b 6641 a63c b4c3 d7bd 7763 70bd
00000030: 18b0 9dbd 7819 7c3e f01e b3be 0267 9e3b
00000040: b1a9 a73c 8a2b 4b3e c196 1abf 9021 9ebe
00000050: 062a 2ebe c2a2 dbbd 24b5 96be d7b5 18be
00000060: 2afd 603e 1833 a63d 5ce3 1b3e f05e d9bd
00000070: 1beb 4c3e 6a04 fabb bbb3 2c3c e839 e8bd
00000080: 87dd 66be 6066 c3bc 0500 05bf 69d7 23be
00000090: 38da bdbd ed49 a7be e156 cc3c 28cb d0be
000000a0: 484e 01bf 5c8d 60bd d959 5e3a 481c 19bd
000000b0: 7926 cd3d 7b53 e3be ca57 05bf a35c aa3d
000000c0: 9dc4 a2be 3855 a0bd 170a 99bd aa00 843d
000000d0: f2c9 23be 3078 dcbd 7cf0 983d 39b8 323e
000000e0: 4125 643e f796 033e 6b47 2dbe 2690 98be
000000f0: 5cf5 863d 9218 b4bd 47d0 0d3e a148 88be
00000100: 4301 ba3d 67c2 a13e 1ebf 79be ad62 22be
00000110: 378f 0a3c 3d2d 07bf a82d 533e dd99 4cbe
00000120: 3092 31be 455d 6fbe 3dac 0c3d 9769 b8bc
00000130: 6247 a03d b6e4 d03c 2bcb c53c 1552 58bd
00000140: 9041 91bc 3747 7a3d 7fc4 9fbe 3166 1ebf
00000150: 2822 81bd 78b6 2bbe 40cf 8abe 5baa f5be
00000160: 9a7c a6be 68ae 77bd 50a0 e7be b5b9 be3d
00000170: b43b 19bf a91a b9bd a0aa b4bd e794 78be
00000180: 86ab a4be 4159 3d3e 85ff adbe 4c81 223e
00000190: b6ca 1bbd e104 433c 25a0 8fbe 31ec d4be
000001a0: 35c7 a03d a389 7abd 5809 b9be 1206 c1be
000001b0: d57b ccbd c5d7 42be 5641 bebe a44f 2cbe
000001c0: a5d9 183d 66ad 0dbe e374 00bf 3675 16bd
000001d0: 2f49 31bf 14f9 7abe b652 8fbd 8a0f 30be
000001e0: 3d17 9fbe f9dd ddbe e4fa b9be b97f 043d
000001f0: 484f 8ebd a057 91be 4e4f e6be 46bc 383e
00000200: b267 46bd ae11 55be 1176 163e a0de 02be
00000210: 3f65 bdbe 9eff 5f3e 5501 8d3b d624 1e3d
00000220: 73b8 73be 16e3 a4be b91c 66bd d01e a13e
00000230: 8277 08bf eed0 1abe 4eb7 4dbe 148f 0d3d
00000240: 0bd4 41be 34a0 f0bd 3971 67be 162c 6fbe
00000250: 5a5b 02be 6138 ddbe 89b7 06bf 39be a3bd
00000260: cc4b b8be 18c2 aabe ec0b cb3d 97db ee3c
00000270: 575f 5f3d a92f a23e e33d 3dbe 2912 13be
00000280: 1b09 ca3d 97c2 9bbd 4ea7 00be 276c 953d
00000290: bdcf 29be 2465 9cbd 969d 88bd accf 81bd
000002a0: d383 6bbe e233 64bc 35a9 493d 9a1d f6bd
000002b0: 96a9 94be 5f40 d43d b68a 91be af16 473e
000002c0: aa66 1cbe 9190 c6bd 47a1 23bf 071e 30be
000002d0: 94e5 5e3e 0ed9 af3d 7f8f e7be d2f9 12be
000002e0: de5e 65be 3672 8dbd 5770 1bbf 3a59 a3bd
000002f0: 0734 513e 2622 0a3e d8f9 90be 6010 9abe
00000300: f76e edbe 63f0 e7be 2b58 d9be 19f1 9c39
00000310: ccbc 38be 4a88 2cbe c9e7 cc3d db85 bdbd
00000320: fadd 6ebd 74fb ebbc 95f4 543e c238 65be
00000330: 384d 283e 4e59 b7be 3b4e dbbe 1787 e3bc
00000340: eb6a 45be 0be5 a5bc 8a3a 90be 3aec b7bd
00000350: 5d61 063d ed63 ef3d bb1f eabe 3305 2ebe
00000360: 115e de3d e89a 05bf 71c4 99bd b23f 5c3e
00000370: 20f8 07be e2e2 ec3d f34c ddbe 5666 44bf
00000380: a357 4dbe c01b b5bd 07ba 24bd 9c9c 5fbe
00000390: 7f50 dcbd 7081 063b 4d19 98be a480 1c3e
000003a0: b987 503d 7eac 8a3e 4da0 e5be 799e 92bd
000003b0: 8303 e4be dd9b a4bd 59a3 0c3e f851 a7be
000003c0: 2497 9e3e 6b98 b7be d5e2 2cbe 7ba4 b23d
000003d0: 128b 6dbe 7ebf c7be 863c 36be 0227 853e
000003e0: 08b9 65be 94ac abbe 84c8 edbb b8a7 103d
000003f0: 9ee9 713e d9b5 683e c220 65be 7813 bb3c
-0.31722054 -0.083091095 -0.35116896 -0.14601237 0.010628095 0.14604339 0.15696019 0.07392398
0.005742621 0.020294856 -0.10535374 -0.058688607 -0.07699603 0.2461909 -0.3498454 0.004834057
0.020466657 0.19840828 -0.6038628 -0.3088498 -0.17008218 -0.10724403 -0.29435074 -0.14913116
0.21971574 0.08115214 0.1522345 -0.10613811 0.2001156 -0.0076299207 0.010540898 -0.1133917
-0.22545443 -0.023852527 -0.51953155 -0.16000141 -0.092701375 -0.32673588 0.02494377 -0.40779996
-0.5051007 -0.05482231 0.0008482016 -0.037380487 0.10017104 -0.44399628 -0.5208708 0.0831845
-0.3179063 -0.07828754 -0.074726276 0.06445439 -0.15995005 -0.107651114 0.07467744 0.17453088
0.22279836 0.12850557 -0.16921775 -0.29797477 0.06589767 -0.08793749 0.13848983 -0.2661791
0.09082272 0.3159363 -0.24389312 -0.15857954 0.008456997 -0.52803403 0.20622885 -0.19980569
-0.17340922 -0.23375423 0.034343947 -0.022511287 0.07826115 0.025499683 0.02414473 -0.052812655
-0.017731458 0.061103072 -0.31204602 -0.6187468 -0.06305343 -0.16768825 -0.27111244 -0.47981533
-0.32516938 -0.06046906 -0.45239496 0.093127646 -0.59856725 -0.09038288 -0.08821607 -0.24275552
-0.32162112 0.18491079 -0.33984008 0.15869635 -0.038035117 0.011903019 -0.28051868 -0.4158645
0.07850496 -0.061166417 -0.3613994 -0.37699944 -0.099845566 -0.19027622 -0.37159222 -0.16827255
0.037316937 -0.13835678 -0.50178355 -0.036732875 -0.69252294 -0.24509078 -0.06998198 -0.17193428
-0.31072417 -0.43333414 -0.36324227 0.03234837 -0.069487154 -0.28387165 -0.4498238 0.1804057
-0.048438735 -0.20807526 0.14693476 -0.12780237 -0.36991307 0.21874854 0.0043031373 0.03860935
-0.2380083 -0.32204503 -0.056179736 0.3146882 -0.53307354 -0.15118763 -0.20089456 0.034560278
-0.18928544 -0.11749306 -0.22601785 -0.23356661 -0.1273016 -0.43207076 -0.526238 -0.079952665
-0.35995328 -0.33351207 0.09914383 0.029157443 0.054534283 0.31676987 -0.18480639 -0.14362396
0.09865018 -0.076054744 -0.12563822 0.07296019 -0.16583152 -0.076364785 -0.06670682 -0.063384384
-0.22999506 -0.013928385 0.049233634 -0.12017365 -0.29035634 0.1036384 -0.2842614 0.19442247
-0.15273538 -0.096955426 -0.63917965 -0.17198955 0.21767265 0.08586322 -0.45226666 -0.14353111
-0.2239947 -0.0690655 -0.6071829 -0.07976003 0.20430003 0.13489589 -0.28315616 -0.30090618
-0.46373722 -0.45300588 -0.4245008 0.0002993427 -0.1804077 -0.16848865 0.10005147 -0.092540465
-0.058317162 -0.028806426 0.20796426 -0.22384933 0.16435707 -0.35810322 -0.42833123 -0.027774377
-0.19279067 -0.020250818 -0.28169662 -0.089806035 0.032807697 0.11688981 -0.45727333 -0.16994171
0.108577855 -0.52189493 -0.07508171 0.21508673 -0.13278246 0.11566712 -0.4322277 -0.7671865
-0.20052962 -0.088431835 -0.040216472 -0.21837085 -0.10757541 0.0020523928 -0.29706803 0.15283448
0.050910685 0.27084726 -0.44848862 -0.071591325 -0.4453393 -0.08037541 0.13734187 -0.32679725
0.30974686 -0.35858473 -0.16883405 0.087227784 -0.23197582 -0.39013284 -0.17796525 0.26006323
-0.22433865 -0.33530104 -0.0072565693 0.0353162 0.23624274 0.2272562 -0.22375777 0.022836432
