briscola_penalization.pt (torch, 906437 bytes, 11 tensors)

critic.0.weight f4 [256, 162]
000000 3c 31 92 3d 4b ff b4 bd da 7a c8 3d 9f 29 fb bd
       0.07138297 -0.08837756 0.09789057 -0.12263798
000010 db 9f fc bd 46 aa 65 bd 94 50 c6 bd 93 9c e9 bd
       -0.123351775 -0.05607059 -0.09683338 -0.11406817
000020 23 31 fc bd bc 91 77 bd c1 13 7b 3e a4 4d 64 bd
       -0.123140596 -0.060441718 0.24519254 -0.055738106
000030 a3 22 94 3d 5c 8f ad bd 08 74 e1 bd f5 09 92 bd
       0.07233169 -0.08474609 -0.11008459 -0.071308054
000040 4b 99 6d bd f0 95 d5 bd 6c 11 37 3a 28 29 e6 bd
       -0.05800752 -0.10428989 0.0006983492 -0.11238319
000050 ad d7 50 bd 7d 3e 04 3d 48 ca 8f bd c8 44 55 b9
       -0.050986934 0.032286156 -0.07021004 -0.00020338886
000060 24 33 4d bc 7f ab dc 3c 06 20 d8 3b ab e8 24 3d
       -0.0125244 0.026937244 0.0065956144 0.040260952
000070 0c 45 d1 3d b0 b7 35 3c 92 6b 3f 3e 87 f5 ce bd
       0.10218248 0.011091158 0.18693379 -0.101054244
000080 f3 e4 55 3e 26 c1 01 be 87 bc 17 be e8 6c 28 be
       0.20888118 -0.12671337 -0.14818011 -0.16447794
000090 6a 77 11 be 56 91 f7 bd d1 02 da bd 1b 44 92 3d
       -0.14205709 -0.120882675 -0.106450684 0.07141896
0000a0 23 7c 30 3e d4 a5 98 3e 0a 55 bc 3e ed 5c a9 3e
       0.17234854 0.29814017 0.3678363 0.3307871
0000b0 33 00 5b 3e ca d7 92 3e 56 5e d1 3e 21 77 81 3e
       0.21386795 0.2868026 0.40892285 0.252862
0000c0 88 5e c7 3e 32 b8 90 3e bf 41 17 be ed b7 1d be
       0.3893931 0.2826553 -0.14771174 -0.15402193
0000d0 22 8b 02 be 71 93 1d be 42 d9 32 bc f0 9d c3 ba
       -0.12748387 -0.15388276 -0.010916056 -0.0014924388
0000e0 54 55 cc 3d b1 e1 62 3c 48 c2 4a be 17 e4 8b bd
       0.099772125 0.013847754 -0.19800675 -0.06830614
0000f0 72 6f 15 be b6 19 9b bd 2f 22 a6 be 98 23 75 bd
       -0.14593294 -0.07573263 -0.32447955 -0.059848398
000100 6d 60 75 be 94 6e 51 be ff 86 42 be c2 a3 4a be
       -0.23962565 -0.20452338 -0.1899681 -0.19789031
000110 0d 48 69 be 3d 95 17 be fa d6 26 be 53 3e 24 be
       -0.22781391 -0.14803024 -0.16292945 -0.160394
000120 04 a9 ef bd 8e 9c 0f bd 8b c8 bd 3c 0c ce 7f 3c
       -0.11702159 -0.03506141 0.023166915 0.01561309
000130 68 a7 79 bc d7 a1 ef bd 32 06 c5 bd 10 f2 6b 3c
       -0.015237667 -0.117007904 -0.09620322 0.014400974
000140 2a 50 93 3d 03 21 11 3d 12 86 76 be e3 af d6 3c
       0.071930245 0.035431873 -0.24074581 0.026206916
000150 78 b1 8a bd ee 05 29 bd 10 94 14 be 5b 93 3a 3d
       -0.06772131 -0.04126542 -0.14509606 0.045550685
000160 92 77 29 bd 8e 61 e8 bd 0b a2 85 be 3c e5 06 be
       -0.041373797 -0.11346732 -0.2610019 -0.13173383
000170 57 34 04 bf aa 9b 8c bd ac 5a e8 bd 27 4c da 3c
       -0.51642364 -0.06865628 -0.11345419 0.02664764
000180 0f d6 bf 3c a3 72 03 bd cf 74 b8 bd 6b 48 36 be
       0.0234175 -0.032091748 -0.090066545 -0.17801063
000190 62 6a d4 be 5a 14 d1 bd be a5 f8 be 94 69 f3 bd
       -0.41487414 -0.1020896 -0.4856395 -0.11885372
0001a0 f1 51 eb bd 78 11 eb bd f4 14 4a be e0 15 88 be
       -0.114902385 -0.11477941 -0.19734555 -0.2657919
0001b0 da be c4 be 84 f7 b3 be 4f 69 0b bf 23 8d 6c be
       -0.38426858 -0.35149777 -0.54457563 -0.23100714
0001c0 48 d7 b5 be c0 43 71 be 68 e0 46 be b3 83 68 be
       -0.3551581 -0.23561001 -0.19421542 -0.2270649
0001d0 66 f3 84 be 4d fd c6 be 36 7a e9 be 76 4b ab be
       -0.25966948 -0.38865128 -0.45601052 -0.3345601
0001e0 70 a7 eb bd 66 a4 22 3c 10 e7 17 be 13 8d 85 3d
       -0.115065455 0.009926891 -0.14834237 0.065210484
0001f0 f6 3b be 3c ca 42 78 3d 04 03 07 bd 6a 0d 9b bd
       0.023221951 0.06061057 -0.03296186 -0.07570918
000200 7b 1f b8 bd 4d 25 28 be 03 1d c9 3c 14 ed 21 be
       -0.089903794 -0.16420479 0.024549967 -0.15813094
000210 7e 30 0f be 7e b0 75 be 61 0f 45 be 6a e1 22 be
       -0.13983342 -0.23993108 -0.19244148 -0.15906301
000220 30 60 2c be 7b 80 1f be 6f 33 bc bd cc 4c 93 3b
       -0.16833568 -0.15576355 -0.09189498 0.004495239
000230 0e e3 29 3d ee 96 10 bd 72 54 22 3e 47 7a 99 bd
       0.0414763 -0.035300188 0.15852526 -0.07494026
000240 72 51 5f bd bc fe 6a 3a 70 6d f8 3c f1 6e 0d 3d
       -0.05452103 0.000896435 0.030325621 0.03452963
000250 bb 24 01 3e 9a ae 76 3e fe 67 43 3d 13 57 4c 3c
       0.12611668 0.24090043 0.047706597 0.012471932
000260 11 58 12 3e 43 ca 99 3c d5 1a 70 3d 3e 9e 16 3d
       0.14291407 0.018773204 0.05861934 0.036772005
000270 3d e7 51 3d 7f 14 95 3d cd f2 c0 3d 93 7d 91 3e
       0.051245917 0.072793 0.094213106 0.28416118
000280 d2 98 c4 bf 72 23 cb 3f 2c 3c 0e bd e3 fa 3d 3d
       -1.5359137 1.5870192 -0.034725353 0.046381842
000290 11 98 33 be 7b 6e 8a 3c fe ca d0 bc dc 39 14 3c
       -0.17538477 0.016898384 -0.02548742 0.009046998
0002a0 83 ea 58 bc 43 02 98 3b 4f bf 1d 3c 2e 9d fc bc
       -0.013239506 0.0046389415 0.009628131 -0.030836668
0002b0 03 6b fc bd cd 7c 82 bd 15 70 96 be 4d 59 4e bd
       -0.12325098 -0.0637146 -0.29382387 -0.050378133
0002c0 17 f0 9a bd 80 16 cc bc 27 ce 7e bd 0b f8 4c bc
       -0.07565325 -0.024913073 -0.06220832 -0.01251031
0002d0 f4 c7 c3 bd cd d8 3d bd 57 1f 1e be ec 47 07 bd
       -0.095596224 -0.046349335 -0.15441643 -0.033027574
0002e0 cc bb 0b be 51 64 f7 bc 3e 83 be bd e5 cb 87 bd
       -0.13645858 -0.030199202 -0.09302376 -0.06630687
0002f0 ac 59 d9 bc d4 17 3c bd 8f 04 6a 3d 03 3d 68 bd
       -0.026532017 -0.04592116 0.057133254 -0.05669881
000300 99 b3 f0 bd d5 32 61 bc 97 c0 1e be 32 42 2a bd
       -0.117530055 -0.013745029 -0.15503155 -0.041567035
000310 07 14 6e bc 0c 14 ee bc 44 35 12 3b 60 96 b9 3d
       -0.014531142 -0.029062293 0.002230958 0.09061885
000320 89 fa e3 3d 47 8f 49 3d f7 86 45 3e 85 fd a7 bc
       0.1113177 0.049208906 0.19289766 -0.02050663
000330 9a 31 6d 3e f2 0d ba 3d f1 24 37 3e 25 e6 f6 bb
       0.23163453 0.09084691 0.17885186 -0.0075347596
000340 6e 8f c7 3d 47 9c 07 be 66 2a 17 ba 6e 04 4c 3d
       0.09744154 -0.13243209 -0.0005766511 0.049808912
000350 a6 f2 0d 3e 49 a7 80 be f2 95 a5 3d 8b 80 6c be
       0.13862094 -0.25127628 0.080852404 -0.2309591
000360 16 87 99 be a9 50 22 be 84 9e 6d be 29 45 f6 bd
       -0.29985875 -0.15851082 -0.23205 -0.1202491
000370 42 70 bb bd 73 1f ab 3d 69 ab 77 3e a3 d2 3d 3d
       -0.09152271 0.08355608 0.24186482 0.046343457
000380 cf 00 1f 3e d0 b1 c6 3d 6f da 31 3e a1 c1 17 3e
       0.15527652 0.09701884 0.17368482 0.14819957
000390 f9 9d 56 bd 23 c5 9c 3c 31 e1 18 3e d6 b6 26 3e
       -0.05239675 0.01913697 0.14929654 0.16280684
0003a0 36 f0 52 3e 0c d3 df 3b db 14 4e 3e 5a 6a 8d 3d
       0.20599446 0.0068305787 0.20125143 0.069050506
0003b0 40 f6 0e be 3d ab f7 3d 36 df 85 bd d9 27 ee 3d
       -0.13961124 0.12093208 -0.06536715 0.11628694
0003c0 e7 4c 7b 3e 15 ee 5a 3e c9 ea cf 3e 2c d9 2a 3c
       0.24541055 0.21379884 0.40608814 0.010427754
0003d0 7d 91 8c 3e 44 2b 76 3d 08 6f 78 bc cd 5e 20 bd
       0.2745475 0.060099855 -0.015163191 -0.03915291
0003e0 c8 b7 65 3d 84 f6 71 3d 98 1e 40 3c f0 1f 3e bb
       0.05608347 0.059072986 0.011726044 -0.0029010735
0003f0 70 56 46 3e 4e 7f 7b bd 7d be d1 be fc 55 0c bd
       0.19368911 -0.061400704 -0.40965644 -0.03426169

critic.0.bias f4 [256]
000000 c4 41 a3 3e 72 95 01 3f 2e 7f d4 be d7 44 5b be
       0.31886113 0.5061866 -0.4150328 -0.21412979
000010 47 00 e9 be 81 a7 09 be e5 c4 21 be 86 3e 36 bf
       -0.45508024 -0.13442804 -0.15797766 -0.71189153
000020 a6 56 56 be cf cb 04 be 3d a4 0a 3e 88 1f 0b 3f
       -0.20931491 -0.12968372 0.13539214 0.5434499
000030 b4 0b 22 3d a3 bb b3 be 5f 27 9d be 61 ac f3 bc
       0.039561942 -0.35104093 -0.306941 -0.029745283
000040 9a 3e 1f 3e dd 64 d7 be 03 71 9a bc 67 5d 68 bf
       0.15551224 -0.4206914 -0.018852716 -0.9076752
000050 2d 97 b8 be 90 5c e9 3e 82 ff 0f bf 00 3d 78 be
       -0.36052838 0.45578432 -0.5624925 -0.2424202
000060 08 c0 65 3d b7 28 bd be 09 65 61 be b8 0e 4e be
       0.05609134 -0.36945125 -0.22011198 -0.20122802
000070 03 98 c8 3d 17 55 62 be 67 02 dd be 74 4c e4 be
       0.09794619 -0.22102772 -0.43165895 -0.4458958
000080 5f 46 65 bf ac 0f b2 be c4 a8 b5 be df e7 2f 3f
       -0.895605 -0.34777582 -0.3548032 0.6871318
000090 fd bd 8e be 38 ca 80 bf 1e 08 35 bf 94 1c 7f be
       -0.27879325 -1.0061712 -0.7071551 -0.24913245
0000a0 83 4f 94 be 24 00 0f 3b fa ed bf bd 99 4e 7e be
       -0.28966913 0.0021820152 -0.09371562 -0.2483467
0000b0 8a 2c e7 bd dd 48 c8 3e f9 11 21 bf 10 cd e2 3c
       -0.11287792 0.3911809 -0.6291805 0.027685672
0000c0 df 89 bc be b3 86 e5 3d d3 fb c3 bc dd a3 c0 be
       -0.36823937 0.112073325 -0.02392379 -0.37625018
0000d0 38 3f 8d 3d 65 51 07 bf 6f 5e 3e bf ca 6a e5 be
       0.06896824 -0.52858573 -0.74362844 -0.44808036
0000e0 96 de 31 be 11 5d fa 3e 5a 83 a7 bc 1f e3 19 3c
       -0.17370066 0.4889913 -0.020448375 0.009392529
0000f0 79 9d ae be 9b b8 1e be 93 dc 79 bd e1 1f 05 be
       -0.34104517 -0.15500109 -0.06100137 -0.13000442
000100 69 e6 e4 bf d9 a5 0f be da 89 31 be 63 e1 90 3e
       -1.7882816 -0.1402811 -0.17337742 0.28296956
000110 5b 03 a0 be 0f 69 e1 be c0 80 a8 be fb d7 8f 3b
       -0.3125256 -0.44025466 -0.32910728 0.0043897606
000120 52 af 04 be a2 c5 d0 3e be b5 46 3e f5 9f 9f 3d
       -0.12957504 0.40775782 0.19405267 0.07794181
000130 53 9a 16 bf 2c 88 47 be 51 11 2b bf c2 69 88 3d
       -0.5882923 -0.19485539 -0.668233 0.06660797
000140 60 01 40 be 15 63 28 be f8 34 27 3d b7 f5 8f 3f
       -0.18750525 -0.16444047 0.040822 1.1246861
000150 d5 52 b0 be 87 11 a0 be 74 52 82 3d ec 58 90 3e
       -0.34438196 -0.31263372 0.06363383 0.28192842
000160 16 27 b9 be fe 17 74 be 87 7b 58 be d7 78 fe bd
       -0.36162633 -0.23837277 -0.21140872 -0.12425392
000170 25 c5 b5 be dd 0b b4 bd 92 17 9b be 69 b9 8b bf
       -0.35501972 -0.08791325 -0.3029142 -1.0915958
000180 43 8d f0 be e8 23 8f be c9 33 a9 3e 53 a5 96 be
       -0.46982774 -0.27957082 0.3304732 -0.29423007
000190 d0 52 fd 3d 29 42 8f be 6a 59 02 bf 76 c3 11 3e
       0.12369311 -0.27980164 -0.50917685 0.14234719
0001a0 64 1c 85 bf c0 f5 33 3e 94 5e 98 3d 84 7e 75 bd
       -1.0399289 0.17574215 0.07439914 -0.059935108
0001b0 a0 07 55 be 0e 3c 39 bf a9 dc 8a bf ea 3d ad bd
       -0.2080369 -0.7235726 -1.084859 -0.08459075
0001c0 80 61 fa be 1f a8 55 bf c1 dc 9f be 11 5b 43 be
       -0.48902512 -0.8345966 -0.3122311 -0.19077708
0001d0 42 fc 9c be d4 95 d0 be bb 6c 82 be e7 4f c0 be
       -0.30661207 -0.4073931 -0.2547358 -0.3756096
0001e0 25 5e e8 bd a6 7a 11 bf e4 1d cb 3d c6 10 54 bf
       -0.11346082 -0.5682777 0.099178106 -0.82838094
0001f0 ca bd 1e 3f 61 1d c5 bf 10 74 ab bf 24 9c a1 be
       0.62008345 -1.5399591 -1.3394794 -0.31564438
000200 5c 27 9a be ee e3 54 bf 33 fb 05 bf 13 8c 02 3f
       -0.30108154 -0.83160293 -0.52336425 0.50994986
000210 9f 2d 33 3e 81 5d 06 bf fc 67 0c 3e 91 a4 80 be
       0.17497872 -0.52486426 0.13711542 -0.25125554
000220 45 86 d3 be 2d 67 e5 be c2 71 9e bd 0c 24 e6 be
       -0.41313377 -0.4480528 -0.07736541 -0.44949377
000230 04 35 cc be d1 29 0c bd df 26 cd bd aa b9 2c be
       -0.39884198 -0.034219567 -0.1001718 -0.168677
000240 54 c6 6a be 1c 58 a5 be e9 f8 c1 3a c3 96 c0 bd
       -0.22927219 -0.32293785 0.0014798912 -0.094037555
000250 56 4a ec be e6 71 22 3d 92 b0 8e bd aa 04 22 3b
       -0.46150464 0.039659403 -0.06967272 0.0024722018
000260 85 12 b8 be 25 d3 23 3e 43 d4 0a 3e e2 94 8e be
       -0.3595163 0.15998514 0.13557534 -0.27847964
000270 87 04 b9 be 16 5c c3 be e3 09 39 be 43 16 a6 be
       -0.36136267 -0.38156193 -0.18070178 -0.3243886
000280 5b c2 3b bf 76 4e 02 3e 0c 27 bf bf 82 0f 9e be
       -0.7334344 0.12725243 -1.4933791 -0.30871207
000290 aa 37 18 be 83 d5 bb be 30 6a 6c 3b 7c 84 37 be
       -0.14864984 -0.36686334 0.0036074035 -0.17921633
0002a0 e8 95 74 be 12 a5 85 3e b9 2d 91 be 11 de d2 be
       -0.2388531 0.261025 -0.28355196 -0.41185048
0002b0 c8 80 c7 be bb d2 97 be 02 0a 4c be 17 7c 20 be
       -0.3896544 -0.29652962 -0.19925693 -0.15672337
0002c0 ca f1 4d 3e 05 43 91 3b d6 5d c6 3d 3a 40 47 bd
       0.20111766 0.004433038 0.096858665 -0.048645236
0002d0 0a 1b 5e bc ce fa 96 be e9 40 2c be 6f 2d f3 bd
       -0.013556251 -0.29488224 -0.16821636 -0.118739
0002e0 b4 b5 f2 be b8 bf ec be 78 4d 71 be e3 59 0b 3e
       -0.47404253 -0.4624002 -0.23564708 0.13608508
0002f0 cc a1 61 be a5 4b 79 bf b3 f4 70 bc d7 45 9d be
       -0.22034377 -0.9738105 -0.014706778 -0.30717346
000300 ba 88 c0 be d3 cc 4d bf 51 cf 58 bf 01 b3 22 bd
       -0.37604314 -0.8039066 -0.8469134 -0.039721493
000310 82 45 88 bf 77 f9 cf bd bd c9 67 3e 5d bd 07 bf
       -1.0646212 -0.101550035 0.22635551 -0.5302332
000320 d6 80 51 bf a9 65 2e be c3 06 2f be aa 60 8d 3e
       -0.81837213 -0.17030968 -0.17092423 0.2761281
000330 fe d0 5c 3b 5c 4a 06 be be 76 be bf cc 84 14 bc
       0.0033693905 -0.13114303 -1.4879987 -0.009064864
000340 9b e1 f0 3d 88 37 10 be ea 58 e9 bd ab e0 c4 be
       0.11761781 -0.14083683 -0.11393912 -0.38452658
000350 5e 1d 67 3e 13 28 b9 3e 3b f1 51 bf 57 b4 3b be
       0.22569796 0.36163387 -0.82008713 -0.18330513
000360 6a ed c1 bd 2b 0b 3a be 9c 9d 91 bf b7 1c e9 be
       -0.09469111 -0.18168323 -1.1376224 -0.4552972
000370 ce 38 83 be c3 76 f7 bb 67 3f 09 bf e7 d6 60 be
       -0.25629276 -0.0075519993 -0.5361237 -0.21956979
000380 a2 c3 a1 be 79 8f 8b be f1 87 f5 3e 8e 17 c2 bd
       -0.31594568 -0.27257898 0.47955278 -0.09477149
000390 e7 eb 7e be 4b 52 58 bc fb 10 88 be 4d 10 c2 3c
       -0.24894677 -0.013203214 -0.26575455 0.023689413
0003a0 8c a5 4f 3e 66 aa d3 be cf 52 42 3d 8a 23 22 be
       0.20277995 -0.4134094 0.047442254 -0.1583387
0003b0 90 b8 1a bf e4 ae d0 be 6f 20 15 3b ec 20 13 be
       -0.6043787 -0.4075843 0.0022754928 -0.14368027
0003c0 ca 64 fe be ed 10 41 bf d9 df 1c 3e ab 5c 39 bc
       -0.4968627 -0.7541645 0.15319766 -0.011313598
0003d0 98 7e a2 be 8d 77 d7 bd 87 31 d8 be 33 6a 7b be
       -0.31737208 -0.105208494 -0.42225286 -0.2455223
0003e0 dc d1 33 bf 7f 0d 35 bf 93 c6 48 bf 0e de 7d bd
       -0.70242095 -0.7072372 -0.78428 -0.061979346
0003f0 93 e5 53 be 42 0c 96 3d da ee 01 3f 5e b5 06 bf
       -0.20693044 0.07326557 0.50755084 -0.52620494

critic.2.weight f4 [256, 256]
000000 b4 1f 51 3c 9c c5 3b bc d1 e2 35 3e aa f3 ca bb
       0.012763906 -0.011460688 0.17762305 -0.006193598
000010 56 70 9c be d1 ad 5e bd 05 d6 0c 3d 5f bb db ba
       -0.30554456 -0.054364983 0.034383792 -0.0016764215
000020 1c db 1e 3d 76 9f 89 be 5f 72 6f be f6 42 d8 3b
       0.038783178 -0.26879472 -0.23383473 0.0065997792
000030 c9 e5 16 bd 68 7c 01 3e ef 24 d0 39 45 f6 2e 3d
       -0.036840234 0.12645113 0.0003970037 0.04271533
000040 77 c5 99 bd 96 74 49 be 09 91 e1 bd df 7b 94 bd
       -0.075083666 -0.1967338 -0.110139914 -0.07250189
000050 fc e8 22 be 3b 8a 76 3d a9 92 39 3e 99 6a 22 3e
       -0.15909189 0.06019042 0.18122353 0.15860976
000060 dd 48 20 3e 8f 74 60 3c 4a a7 a3 3c bc 2e 83 be
       0.15652795 0.013699665 0.01997723 -0.25621593
000070 7c 40 a7 3d 2d 46 f3 bc a4 2e 75 bd 4d 7d b3 3d
       0.08166596 -0.029696548 -0.059858933 0.087641336
000080 a7 e9 22 3e a4 f2 05 3e d6 14 08 3e 1b 94 35 be
       0.15909444 0.13080841 0.13289198 -0.17732279
000090 43 fa 2d bd fe 00 8c 3e 12 a0 81 3d 0c 25 09 3e
       -0.042474996 0.27344507 0.06329359 0.13393039
0000a0 61 97 0b 3e cf 51 81 bd d9 5f c8 3d ac 6a 79 3c
       0.13631965 -0.06314432 0.097839065 0.015223186
0000b0 67 04 01 3d 4b d3 39 3d 3c 7f 5c 3d ea ee 01 3e
       0.03149834 0.04536752 0.053832278 0.12688795
0000c0 6f 0a 6f be cd f7 29 bc d4 d6 60 bd bc 97 cc 3c
       -0.23343824 -0.010374022 -0.054892376 0.024974696
0000d0 9d 76 e1 bb 44 68 85 bd 82 ec 39 3e 89 37 a1 3d
       -0.006880595 -0.06514028 0.18156627 0.078719206
0000e0 07 09 2c 3e 1b d5 8a bc 0f 56 e8 bd 16 1b 99 be
       0.16800319 -0.01694732 -0.113445394 -0.29903477
0000f0 60 61 fc 3d 29 fa 2c 3e 76 5b 04 3d ea b6 ce 3d
       0.1232326 0.16892304 0.032313786 0.10093482
000100 33 0d 4d bd 20 25 04 bd ae b0 f3 bd 44 36 d8 bd
       -0.050061416 -0.032261968 -0.11898933 -0.10557225
000110 b7 67 a0 3b 12 49 75 3d dd 71 95 bd d6 e8 62 3d
       0.0048951763 0.05988414 -0.07297108 0.05539783
000120 a6 e2 48 3e 37 86 0d bc e1 7f 94 bc 50 90 8e 3e
       0.1961771 -0.008637956 -0.018127384 0.27844477
000130 18 bd 36 3e 3e 33 84 3d e4 f7 cc 39 35 de 4a 3d
       0.17845571 0.06455086 0.00039094605 0.04952832
000140 c2 a4 49 bc b5 53 ce 3d 6d b1 91 3d 9f ab 21 be
       -0.012307348 0.100745596 0.071139194 -0.15788125
000150 2f 53 89 3d b4 48 94 bd 22 34 33 3d 79 8f 2b 3e
       0.06705319 -0.072404295 0.04375089 0.16753949
000160 6e 5c b0 3d 61 99 08 3e 60 c0 82 3e 7e 34 a1 3c
       0.086113796 0.1333976 0.25537395 0.01967835
000170 16 d1 09 be 34 28 c3 3d eb da 56 3d 73 6e 8e 3e
       -0.13458666 0.095291525 0.05245487 0.2781864
000180 11 aa 84 bc 37 a8 05 be c8 9e b4 bc cb 93 91 bd
       -0.016194375 -0.1305245 -0.022048369 -0.071082674
000190 25 ac e5 3d 29 53 ae 3c 1d 60 ec bc e0 25 67 ba
       0.112144746 0.021279888 -0.028854424 -0.00088175945
0001a0 c1 64 40 be b2 04 95 3d af 58 c9 3d b2 d6 ef bd
       -0.18788435 0.07276286 0.09831368 -0.11710872
0001b0 b1 5a 24 be f1 61 4b be 4c 5e 65 be fa 62 6e bc
       -0.16050221 -0.1986158 -0.22399253 -0.014549965
0001c0 47 45 6d 3d 2e d8 6d 3c 9a 73 49 3c bc af 46 be
       0.057927396 0.014516873 0.012295628 -0.19402975
0001d0 2d 04 3b 3d 53 8e 1b 3e c3 ab df 3b 8b c1 39 3d
       0.04565828 0.15191011 0.0068258955 0.045350593
0001e0 53 f3 85 3d ac ea 37 3e 58 ed 94 3c 1c fe b8 3d
       0.06540551 0.17960614 0.01817958 0.090328425
0001f0 24 ce f4 bd e5 6a 2e 3e 66 b5 67 bd 17 5d 22 be
       -0.11953381 0.17032965 -0.05656948 -0.15855823
000200 0b 07 dc 3c db e3 d4 3d ea 3d 04 be b4 7e 82 bd
       0.026858827 0.103950225 -0.12914243 -0.06371823
000210 ce ae 51 bd f2 44 ab 3d a1 77 c6 3d 8e de 3c 3e
       -0.051192097 0.0836276 0.09690786 0.18444273
000220 ac 3d b6 bd 7a 6c 05 be 60 ed 99 3d 6a 5a a4 3d
       -0.08898482 -0.13029662 0.07515979 0.080250576
000230 03 52 fd bd d1 b1 3e 3d 44 71 3a bd 91 d1 f6 bd
       -0.12369158 0.046556298 -0.045518175 -0.1205169
000240 fe ab 4a be fc fc 27 3c d2 f3 91 3d 95 98 7c be
       -0.19792172 0.010253187 0.07126583 -0.2466758
000250 5b 09 4f bd 3a db 01 3e ab c0 14 3e b3 4d 01 be
       -0.05054603 0.12681285 0.14526622 -0.12627296
000260 b5 b8 5f 3e f3 24 a2 3b 4b 86 5d 3c 62 a5 35 3d
       0.21847804 0.0049482523 0.0135207875 0.044347174
000270 89 f9 3d 3d b4 86 a8 bc b8 4e 8a 3e d6 ed 21 be
       0.046380553 -0.020572044 0.27013183 -0.15813383
000280 8f 05 02 be ea 6a 49 3b 3a 80 44 3e d8 68 e8 3d
       -0.12697433 0.0030733892 0.1918954 0.11348122
000290 ec 82 9f 3c 21 ce c2 3c fd 0f 4e 3d d7 f4 4d 3e
       0.019471608 0.02377993 0.050308216 0.2011293
0002a0 53 f7 69 3d a5 e2 61 3d be 65 80 3d 00 e1 ef 3c
       0.057120632 0.055147786 0.06269406 0.029282093
0002b0 98 7a a2 bc 84 a2 0b bc 0f 5a ec 3d 27 5c 18 3d
       -0.019833848 -0.008522633 0.11540615 0.03719726
0002c0 0f 90 fb 3d 31 ab d7 3c 38 b7 6a 3c 97 55 5a 3d
       0.12283336 0.026326748 0.014325909 0.05330428
0002d0 a6 89 3d 3d cb 0b 5b 3d 04 75 7c be 46 86 a6 bd
       0.04627385 0.053478044 -0.24654013 -0.081310794
0002e0 30 84 e1 3d a5 95 05 be 29 ef a8 bd ce 65 08 3e
       0.11011541 -0.13045366 -0.08248741 0.13320085
0002f0 22 f7 4a bd 70 a3 19 3e 86 f0 ed bd b4 2f d3 bd
       -0.04955209 0.15003753 -0.11618142 -0.10311833
000300 c7 24 44 3d be 58 98 3b c7 45 d0 3d 61 c5 92 bd
       0.047886636 0.004649251 0.10169559 -0.07166553
000310 53 94 c9 3c 98 59 d3 bd ff 31 02 bd 92 ec 94 3b
       0.02460686 -0.10319823 -0.03178596 0.004544803
000320 3b 7d 30 3d 1b 39 65 3d ee 1e 3f bd 3d 04 0f be
       0.04308818 0.055962663 -0.046660356 -0.1396646
000330 fb ba 02 bd db 41 dc bd 0e 79 02 3e 5d 8a 1f 3d
       -0.0319166 -0.107547484 0.12741491 0.038950313
000340 22 85 e1 bc 87 3a 68 3e 35 63 8d bb f9 71 9b ba
       -0.027529303 0.22678576 -0.004314805 -0.0011859528
000350 1c cd 33 bd f3 8e 99 bd 1a 7c 51 3d 6c 8f 77 3d
       -0.04389678 -0.074979685 0.051143743 0.060439512
000360 ca 1b f3 bd 18 01 5d 3d 3a 7c b2 3c 4b cb 1b bd
       -0.11870535 0.05395612 0.021787751 -0.038035672
000370 26 6a 2a be f0 e7 79 bb d9 a9 97 3e ce 39 a8 3d
       -0.16642055 -0.003813263 0.2962177 0.0821415
000380 99 e4 bf 3c 3f f6 35 3e 66 fc 22 be 9b 3c 08 be
       0.023424434 0.17769717 -0.15916595 -0.13304369
000390 f9 00 9c bc 54 53 b3 3d 78 73 f9 bd 93 67 9a 3d
       -0.019043433 0.08756128 -0.12180227 0.075392865
0003a0 cb db b8 bd 4e 2f 65 3e 78 95 ad bd 33 94 50 bd
       -0.09026297 0.22381327 -0.084757745 -0.050922584
0003b0 74 5e f3 bd 80 c6 32 be 90 c0 85 3d 53 a2 59 3d
       -0.1188325 -0.17458534 0.06530869 0.05313332
0003c0 29 d5 ce 39 af 82 0b 3e ab b8 33 3e c2 78 8f bd
       0.00039450199 0.1362407 0.17550914 -0.070054546
0003d0 f9 cc 1a 3d 10 0c 5d be 20 d8 35 3d 44 d8 23 be
       0.037793133 -0.21586633 0.044395566 -0.16000468
0003e0 2d 33 a0 3d cd 1e c6 3d 9a c9 6b bd 1a d4 45 3d
       0.07822261 0.096738435 -0.05756531 0.04829798
0003f0 7b 37 06 bd 62 a7 7c 3d 8a 2f d0 bb d3 3f de bd
       -0.032767754 0.061683066 -0.0063533233 -0.10852017

critic.2.bias f4 [256]
000000 05 4c b7 bd ef 59 d4 bd fa 93 0f be c5 ce f1 bd
       -0.089500464 -0.10368716 -0.14021292 -0.11807016
000010 ab bd 91 bd 7d 9d 6e bd 2b 5f b9 bd f7 84 07 be
       -0.071162544 -0.05825566 -0.09051355 -0.13234316
000020 34 d4 d1 3b ce f0 09 be bc 4e f8 bd d5 7c e5 bc
       0.0064034704 -0.13470766 -0.121243924 -0.028013626
000030 b0 eb 02 be 9d 0c 01 be 4f 90 9b bd 24 16 9a be
       -0.1278522 -0.12602468 -0.07595884 -0.30095017
000040 e0 e0 93 bc 40 f8 bc bc 5c ee c9 bc 5e f8 2f 3d
       -0.018051565 -0.023067594 -0.024649791 0.04296147
000050 db 3d 05 bc 45 59 6e bd 46 64 b8 bd f8 5e d3 be
       -0.008132423 -0.058190603 -0.09003501 -0.41283393
000060 84 98 3a 3c 7f 64 60 3d 81 88 73 bd 20 f1 5e bc
       0.011388902 0.05478334 -0.059456352 -0.013607293
000070 ba 1f 55 bd f6 da 5f bd bf ea bb 3c 04 8a f4 bd
       -0.05203221 -0.054652177 0.022939084 -0.11940387
000080 dc 51 30 bd 16 7e 58 be ca 4e 04 be d0 7e e5 bd
       -0.043046817 -0.21141848 -0.1292068 -0.11205828
000090 3a 95 db bd 77 27 fa bc e6 bc ca be a1 c7 c7 bd
       -0.10721822 -0.030536396 -0.39597243 -0.09754873
0000a0 26 7e 90 bc 2f 3a 15 3d 24 cb c0 bc 42 8e 70 bc
       -0.017638277 0.03643244 -0.023534365 -0.014682354
0000b0 1d 18 05 3d dd fa e6 3b 9c de ad 3b 82 a8 46 bd
       0.0324937 0.007048948 0.005306078 -0.048500545
0000c0 b1 8b 16 be 4a d0 13 be 41 16 72 bd f9 36 c9 bc
       -0.14701726 -0.14434925 -0.059103254 -0.024562346
0000d0 70 6f 10 bb d3 53 a2 bd 0a ea 88 bd 08 0d 63 bc
       -0.0022039078 -0.079261445 -0.066852644 -0.013858087
0000e0 16 50 84 3c c7 bd 21 bd 58 cf c9 bd 48 67 b1 bc
       0.01615147 -0.039487626 -0.09854001 -0.021655694
0000f0 60 a2 de bd 3d b2 b5 be 88 13 2d bd c4 7f b6 bd
       -0.10870814 -0.35487548 -0.042254955 -0.08911088
000100 2c d6 1f bd c9 df 9c 3c db 1b 8f be 52 e2 a9 bd
       -0.03902261 0.019149678 -0.2795094 -0.0829512
000110 56 7f f3 bd 34 0f 12 be 6a 2e 37 3d 08 bd 02 bd
       -0.11889522 -0.14263612 0.044722 -0.031918555
000120 11 3d 2f bd 17 98 8a bb 83 06 0d be fb ab f4 bd
       -0.042782847 -0.0042295563 -0.13772015 -0.11946865
000130 b0 d7 84 bd 3e 77 83 bd 27 28 bd bd 8d b8 ca bd
       -0.064864516 -0.06419228 -0.09236174 -0.098984815
000140 ca ea 3e bd cf 2b 05 bc 9f 6d b8 bd ed 52 12 bd
       -0.04661063 -0.008128121 -0.090052836 -0.035723615
000150 f5 a8 62 be b9 be a4 be db 73 76 bd f4 c1 3e bd
       -0.22134764 -0.3217676 -0.060169082 -0.046571687
000160 c4 34 1f be cd ae e5 be 0b 97 97 3c 05 d2 a6 bc
       -0.15547472 -0.44859925 0.01850464 -0.020363817
000170 92 f4 e2 3b a0 ca 8e bd 3d df d9 bd df 5f 2c be
       0.0069261277 -0.069722414 -0.106382824 -0.16833447
000180 6d 02 8e bd 6e 42 51 bc 98 8e d9 bd 76 44 c8 bd
       -0.069340564 -0.012772186 -0.10622901 -0.09778683
000190 3d 30 3c bd 8e f0 02 be 5a e7 f3 bc 76 6d c1 bc
       -0.04594444 -0.12787077 -0.029773403 -0.023611765
0001a0 6f 18 93 bd 72 86 a2 bd 1f b2 a3 bd 41 c6 2f be
       -0.07182395 -0.079358 -0.07992958 -0.17165472
0001b0 6d 99 d5 bd 81 31 10 bd e3 63 b1 bc 6b 4b 59 be
       -0.10429654 -0.03520346 -0.021654075 -0.21220176
0001c0 40 9f 8f bd 36 db 76 bd a2 79 76 bd 76 6c e0 bd
       -0.070127964 -0.06026765 -0.06017459 -0.10958187
0001d0 12 8c cb bc aa db fc bb 09 a9 91 bb 64 1e ba bd
       -0.024847064 -0.0077166157 -0.0044451994 -0.09087828
0001e0 51 f3 b7 bd 33 3c 6e 3c 73 24 e8 bd c4 e5 d4 bd
       -0.08981956 0.01454072 -0.11335077 -0.10395387
0001f0 c6 11 6d bc 6f 62 62 be cb 13 7e bd 40 dc b1 bd
       -0.01446957 -0.22107862 -0.062030595 -0.086845875
000200 bc 07 66 bd 26 0e 00 be 55 d8 a7 bd 94 b4 d9 bc
       -0.05615972 -0.12505397 -0.08195559 -0.026575364
000210 92 56 99 bd 7d b7 74 be 68 1a 36 bd a4 55 8b bd
       -0.07487215 -0.2389812 -0.044458777 -0.06803444
000220 79 2d 1f bc c5 c6 0d bf 82 82 8b be 93 09 37 bd
       -0.009715431 -0.55381423 -0.27248007 -0.044686865
000230 8d ad 9d 3c 74 0c d6 3a 19 07 53 bd 6e 71 f9 bd
       0.019247795 0.0016330616 -0.05152044 -0.12179838
000240 6d 69 3e be ec 77 86 bd 97 b8 ad bc cf 7d 93 bd
       -0.18594904 -0.06565842 -0.021206183 -0.072017305
000250 1e f4 07 3b 95 97 53 bd d7 20 69 bc 84 5c b8 bd
       0.002074487 -0.05165823 -0.014229021 -0.09002021
000260 9f 55 b7 bd 66 fc 80 bd 47 e6 d9 bd 62 11 2f 3b
       -0.08951878 -0.06298141 -0.10639625 0.0026713242
000270 b3 b8 2e bd aa 22 c7 bd bd e4 97 bd 14 55 c0 bd
       -0.04265661 -0.097234085 -0.07416675 -0.09391227
000280 e2 aa 4f be dc 8a b5 bd 63 c9 89 be 75 d7 3f bd
       -0.2028003 -0.08864376 -0.26911458 -0.046836335
000290 0d 2a 39 bc 9f 64 13 bc c9 b9 65 bd a0 fc bd 3b
       -0.01130153 -0.008996158 -0.05608538 0.0057979375
0002a0 4d 1e 4c be b0 e3 a4 bd d3 80 e2 be e8 20 e3 b9
       -0.19933434 -0.080512404 -0.4423891 -0.0004332133
0002b0 22 b5 24 bd d6 29 b8 bc 7c 64 f9 bd 9e 80 00 bc
       -0.040211804 -0.022480886 -0.12177369 -0.007843165
0002c0 ce d0 39 bd 6d 2c 0f bf 5c 3d 1d be e4 9f 15 bd
       -0.045365147 -0.55927163 -0.15355438 -0.036529437
0002d0 57 40 93 bd b1 81 04 be 46 69 51 bd c6 d3 b1 bc
       -0.07190006 -0.12940098 -0.051125787 -0.021707427
0002e0 12 68 2f be 4c 31 ba bd 5a f0 89 3c f2 d4 4a 3c
       -0.17129543 -0.09091434 0.016838241 0.012379872
0002f0 0a c6 ed 3b 97 b4 4e bc d0 d8 54 bd 73 7c 17 bc
       0.007256274 -0.012616298 -0.05196458 -0.00924598
000300 25 5e 72 bd 28 39 5b bd ba 26 eb 3b 6e 5f 5a be
       -0.059171814 -0.053521305 0.0071762474 -0.21325466
000310 4b a4 97 bd 61 fc b5 3c 4a d6 c2 bd d2 c5 f3 bd
       -0.07404383 0.02221507 -0.09513529 -0.119029656
000320 81 19 2c be 25 ed 47 be b2 c1 b1 bd 43 50 0b bd
       -0.16806604 -0.19524057 -0.086795226 -0.03401209
000330 57 ee c4 be 31 84 31 bd dd 28 8e bd cc bc 93 bd
       -0.3846309 -0.04333896 -0.06941388 -0.072137445
000340 53 85 34 bd 14 0d 78 bd c1 58 58 bd d4 06 b6 bc
       -0.04407246 -0.060559347 -0.052819017 -0.022220053
000350 92 71 61 bc f4 da d4 bc 53 c9 c7 bc 5d 06 22 bc
       -0.013759987 -0.025983311 -0.024387991 -0.009889212
000360 71 97 4e bd 25 a6 a9 bc f5 82 b3 bc 9b 27 96 bd
       -0.050437395 -0.020709107 -0.021913031 -0.07331773
000370 df 69 80 be c4 4a 96 3b 6e c5 2a bc eb c6 45 bd
       -0.25080773 0.0045865495 -0.0104230475 -0.048285406
000380 1f d9 77 3d 82 0d e1 bc dc 42 c0 bc 1b f2 56 bd
       0.060509797 -0.027472261 -0.023469381 -0.052476984
000390 f4 9b 9a bc ad e8 3c bd e1 56 4b bd 5e 74 e3 bd
       -0.018873192 -0.046120334 -0.0496434 -0.1110618
0003a0 53 91 09 bd 36 05 c9 bd 6c f1 6f be cd 83 3d bd
       -0.033585858 -0.09815447 -0.23431939 -0.046268273
0003b0 ad a2 77 bb c1 f6 8d bc 69 84 53 bd aa 02 11 3d
       -0.0037786171 -0.017329575 -0.051639948 0.03540293
0003c0 5a 33 90 bd ba d9 35 bc d5 15 55 bd ad 36 39 be
       -0.070410445 -0.011099273 -0.052022774 -0.18087263
0003d0 0f 07 9c bc 98 1f 54 bd 58 27 17 be 83 26 d3 be
       -0.019046335 -0.051787943 -0.14761102 -0.4124032
0003e0 8a 7e ff 3c fa 06 78 bd 16 e2 4d be 7f 55 7e bd
       0.031188268 -0.06055353 -0.20105776 -0.062093254
0003f0 d3 3b 84 bc 46 b6 5c bd c0 61 da bd bd 18 86 bc
       -0.016141808 -0.053884767 -0.106631756 -0.016369218

critic.4.weight f4 [1, 256]
000000 d7 1a 95 bd 4e 8d 2e 3d a2 b5 f2 3c 45 f5 48 bc
       -0.0728051 0.042615227 0.029627625 -0.012265508
000010 aa 79 56 3c 05 c2 37 3c 58 ad 78 3c e8 97 e1 bc
       0.01309053 0.011215691 0.015178047 -0.027538255
000020 1d 62 f3 ba ac 6e 8c bd ce ae 28 bd a1 dd 6d bd
       -0.0018568669 -0.068570465 -0.04118233 -0.05807269
000030 a5 c6 85 3c 7b 7b 3c 3d a6 91 b3 bb e8 f3 15 be
       0.016330073 0.046016198 -0.005480009 -0.14643824
000040 0a 28 2f 3a 1f f0 bb b9 6a 2e 34 3c 54 f2 cc bb
       0.00066816865 -0.00035846324 0.010997394 -0.0062544737
000050 bf ff 07 3e d1 8f d3 3c 69 30 12 3b ef a0 0c be
       0.13281153 0.025825413 0.0022306687 -0.13733266
000060 ef b7 ad bb 3c 31 c3 bb 15 db db bb d1 9f c2 ba
       -0.0053014676 -0.005956797 -0.006709466 -0.0014848654
000070 bf 8d 9c 3c 6b 1d 9c 3b 7e 9a 37 bb 3a fa 87 3c
       0.019110559 0.004764249 -0.0028015669 0.01659881
000080 d2 99 7c 3b bd 3d 97 bd 98 bb 49 bd b2 a5 13 3d
       0.0038543832 -0.073848225 -0.04925117 0.03604669
000090 1f 05 f4 bc 05 6e c8 3b 0b 0b 09 bd df 9c ab 3d
       -0.029787598 0.006116631 -0.033457797 0.0837953
0000a0 96 b7 53 3c 13 08 c9 bb 24 6c fe 3c 4f d5 03 bc
       0.012922188 -0.0061349957 0.031057425 -0.008046462
0000b0 a4 97 f9 3c 4d 75 dd b8 18 52 4a 3a 42 3e bb bb
       0.030467816 -0.0001055995 0.00077179214 -0.005714209
0000c0 19 53 46 3c 42 0c 2f 3d 78 85 28 bc 8d 29 03 bc
       0.012104773 0.0427363 -0.010285728 -0.008005512
0000d0 07 22 13 3b 80 6d 24 3d 36 dc 1d bd 64 8f 42 bc
       0.0022450702 0.04014349 -0.038540088 -0.011875007
0000e0 99 df 33 ba 28 84 45 39 b0 8c 54 bd ed 8d bc 3b
       -0.0006861627 0.00018836616 -0.051891983 0.0057542236
0000f0 a6 20 98 bd bc 6f 23 be d3 3b 60 bc 2e 58 a9 bc
       -0.07428102 -0.15960592 -0.013686138 -0.02067193
000100 3a 65 19 3b 76 7d fb ba 7d 6a 19 3e 78 6d f2 3c
       0.0023406283 -0.001918717 0.14982028 0.029593214
000110 b6 84 cf 3b b7 28 1f be 4d 42 9c 3e d0 3b 0e bc
       0.006332959 -0.15542875 0.30519333 -0.008681253
000120 fa 09 90 3c 58 0c 5d bc 3d 6a 77 bd 67 a1 24 3c
       0.017582882 -0.0134917125 -0.06040405 0.010048247
000130 65 f9 82 bc ad 5a 22 bd c8 23 e1 3a 4e f5 a7 3c
       -0.015988061 -0.039637256 0.0017176801 0.020502713
000140 a9 21 4b ba 8a 97 d1 bc 41 4f 05 bd 47 21 b7 bb
       -0.0007748851 -0.025584955 -0.032546286 -0.0055886838
000150 33 1d 06 bd e8 3c 30 bd 84 54 6d 3b 4c 7b 82 3c
       -0.03274269 -0.043026835 0.0036213705 0.015927933
000160 b6 54 81 bb a5 f2 d6 be 86 76 f2 3d e8 02 74 b9
       -0.003946866 -0.41981998 0.11839013 -0.00023270736
000170 2f 0b 7a ba e7 ac bc bc 38 cc 11 be 4f bc 51 bd
       -0.00095384096 -0.023031665 -0.1423806 -0.051204976
000180 36 13 d0 bc 3d 9a 54 3b 0b 47 89 3c 95 b0 32 3d
       -0.025399785 0.0032440566 0.016757509 0.043625433
000190 ad 69 1c bb 12 b0 29 bd 43 dd 17 bc 1f 45 04 bc
       -0.0023866699 -0.04142768 -0.0092690615 -0.00807312
0001a0 9c 46 17 bd ae 1e b0 3b 94 db 4b 3b 54 ed 51 bd
       -0.036932573 0.005374751 0.003110622 -0.051251724
0001b0 42 1a f0 3c 5c 20 0c bd c2 72 ea 3a d3 d7 4f bd
       0.029309396 -0.034210548 0.0017886984 -0.050742935
0001c0 94 eb cb 3b 1f db 0a bb d6 7b 42 3b 4e 04 56 3c
       0.0062231515 -0.0021187735 0.0029675863 0.01306255
0001d0 b6 6c a1 ba b9 22 83 ba 74 e1 e2 3c 20 fb 9c bd
       -0.0012315724 -0.0010004855 0.027695395 -0.07665086
0001e0 39 f3 92 3d ce a9 2b bc b6 c0 0b bd de be dd 3c
       0.07175297 -0.010477496 -0.03411933 0.027068552
0001f0 c7 18 26 3d 06 7b 04 bd 58 41 41 3a 78 72 17 3b
       0.040550973 -0.032343887 0.00073721027 0.0023109
000200 01 d8 10 3b ab 67 81 bd 2c 38 b2 3b 94 49 9f bb
       0.0022101405 -0.06318601 0.005438825 -0.004861066
000210 d9 6f b0 bb 15 25 e1 be 79 fa 21 bc d7 78 ae bd
       -0.005384427 -0.43973604 -0.0098863775 -0.08519142
000220 d5 47 56 3b 55 ee b6 bd 12 2b 26 bd 48 f3 2c 3d
       0.0032696624 -0.08932177 -0.04056842 0.0422242
000230 1a b5 a8 3b 6a a9 58 3c f8 c9 f1 3b d9 5d 2c bd
       0.005148542 0.013223985 0.007378813 -0.042081688
000240 26 26 14 be 22 e3 3e 39 18 69 9b 3a c8 2a e6 3b
       -0.14467677 0.00018204426 0.0011856882 0.007024143
000250 98 dc df 3b dd 63 8b 3b 97 25 31 bc d5 32 41 3d
       0.0068317167 0.004253848 -0.010812185 0.047167618
000260 9e 21 aa bd e1 c2 da ba 66 dd 6d bc ef 70 88 bb
       -0.08307193 -0.0016690159 -0.0145181175 -0.0041638534
000270 b8 8e 9b bb df 06 99 3d e7 cd 5f bb 49 5a 36 3d
       -0.004747238 0.07472014 -0.0034149827 0.044519696
000280 eb 4a 07 bd 6d e4 f1 bc c6 3d be bd 7e 2c ab 3c
       -0.03303043 -0.029527867 -0.09289126 0.020895239
000290 f0 16 cb ba 1e 75 9e bb 04 2a 40 3c 43 ac 72 3b
       -0.0015494507 -0.004835739 0.011728767 0.0037028946
0002a0 dc 79 3c be 47 04 1d bb 56 bc 1f be 5f 01 3a 3b
       -0.1840586 -0.0023958848 -0.15599188 0.0028382165
0002b0 b4 2d 98 bb 34 f3 97 3b 45 aa 82 bb b0 7e 8c 3b
       -0.00464412 0.0046371464 -0.003987583 0.0042875633
0002c0 57 bc c5 3c 26 34 58 be 9e 48 99 3c e1 64 9d 3b
       0.024137659 -0.21113643 0.018711384 0.0048032855
0002d0 48 e3 28 bb 09 55 93 bd 64 d7 d0 3b 96 0f 45 bd
       -0.0025770236 -0.071939535 0.006373333 -0.048110567
0002e0 69 15 91 bd 1f 9c c1 3d 8e c0 62 bb 3d a1 f9 bb
       -0.07084162 0.09453606 -0.0034599635 -0.007618098
0002f0 eb 48 1b ba 47 0f b9 3a 71 ad 0e 3b 16 ea 1d 3b
       -0.00059236464 0.0014118933 0.002177086 0.0024095825
000300 59 3e 7b b9 89 55 0b 3c ec 13 d2 3d e3 2c 5e bd
       -0.00023960452 0.00850428 0.10257706 -0.054242026
000310 dc dc 64 3a f4 9b bb 3d 19 3a 05 bc 7e 3d 6c 3c
       0.00087304204 0.09160605 -0.008131527 0.014418958
000320 6c 38 22 bd 52 eb 14 3e 25 f7 60 ba e3 4f 9c bb
       -0.03960459 0.14542893 -0.0008581749 -0.0047702654
000330 84 0d e8 bd 93 2d 5d bc 8e 7e 13 3c b2 e4 17 bd
       -0.11330703 -0.013499635 0.009002341 -0.037083335
000340 9e 7a 1b bb 90 17 05 3d b0 1c f4 3c 52 23 0a 3b
       -0.0023724209 0.032493174 0.029798836 0.0021078181
000350 e2 63 fc bb c1 a3 94 bb 24 ba c3 3a 1b fb a0 3b
       -0.0077023366 -0.0045361225 0.0014932794 0.0049127466
000360 e0 3a b9 3b eb e0 fc 3c 42 11 db 3a 9d 91 9f bc
       0.0056527704 0.030868968 0.0016713517 -0.019478614
000370 ce e5 10 be ce 46 08 3d 69 e7 03 3c b2 d6 ac 3d
       -0.14150164 0.03327065 0.008050778 0.084393874
000380 aa 6d ce bb 8a 60 d2 3d 57 fd 71 b9 00 73 8c bb
       -0.006299694 0.102723196 -0.00023077927 -0.00428617
000390 0d ad 7e 3b a3 7b 94 3b 0f 66 92 3a 49 14 33 3c
       0.003886047 0.00453134 0.0011169332 0.010930129
0003a0 fb 27 97 bc 85 8a d0 3c 68 8c 58 3b 54 b8 54 bc
       -0.018451681 0.025456676 0.0033042673 -0.0129834
0003b0 08 08 10 3a 76 aa b6 bb 59 25 83 3d c1 b2 9c bb
       0.0005494361 -0.0055745197 0.06403608 -0.0047820513
0003c0 ba 61 2b 3d af 17 01 3d 98 7f fc bb e6 cd 7f 3c
       0.041841246 0.031516727 -0.00770564 0.015613055
0003d0 a3 fa ac 3b 31 4c d5 bb 91 4f b0 bc fd 09 8a 3e
       0.0052789017 -0.006509327 -0.021522315 0.26960745
0003e0 5e 38 c1 bc 3e 0d 93 ba d1 99 7b bd 56 f3 fb bc
       -0.023586448 -0.0011219156 -0.061425988 -0.03075568
0003f0 9a 79 1e 3c 84 1e 75 3d aa 40 27 3c 77 73 22 3c
       0.009672547 0.059843555 0.010208288 0.009915224

actor.0.weight f4 [256, 162]
000000 bd df 75 bd 5c 91 a1 3e 65 da c5 be 22 9d 8c 3c
       -0.060027827 0.31556213 -0.38643184 0.01716477
000010 bb 7c e8 be 34 a0 13 3f 39 7c 56 be 27 76 44 be
       -0.45407662 0.57666326 -0.20945825 -0.19185697
000020 88 0e a5 be bd 00 44 bf 63 69 9b bc 09 97 9d be
       -0.3223765 -0.76563627 -0.01897115 -0.30779293
000030 8c c8 fd bd bc ea 8f be 1c 60 4a be 70 b4 e5 3d
       -0.12391767 -0.28108776 -0.19763225 0.11216056
000040 ea 24 11 3e 50 5d 1b bf 33 54 58 3d ce 2a a3 be
       0.14174238 -0.6068926 0.052814674 -0.31868595
000050 01 8e 14 be 7d 35 a0 be d3 36 38 be 56 5d 18 3e
       -0.14507295 -0.31290808 -0.17989664 0.14879355
000060 e2 62 cd be 56 d3 31 be 97 4f 38 bf 84 67 7a be
       -0.40114504 -0.17365775 -0.71996444 -0.2445355
000070 67 f3 ac be 33 00 36 bf 42 1e 0d 3f 72 f2 43 3e
       -0.3377945 -0.71094054 0.55124295 0.19135454
000080 8d 86 82 be 2b ce 8a be 8f 1c ad be a4 ba 50 bf
       -0.2549328 -0.2711042 -0.3381085 -0.8153479
000090 a1 a0 6b 3e a4 9e 58 bd 86 26 0a be 6f 17 c5 3d
       0.23010494 -0.052885666 -0.13491258 0.0962361
0000a0 1b 01 22 bf 61 0c 25 bf df ef 2f bf cf 42 4d bf
       -0.63282937 -0.64472014 -0.6872539 -0.80180067
0000b0 01 34 18 bf 08 62 29 be 9b a8 2b bf 34 e3 1d bf
       -0.5945435 -0.16541302 -0.67054147 -0.6167481
0000c0 23 dc 78 bd 10 f3 d8 be 6e da b6 3e a7 12 27 be
       -0.060756814 -0.42372942 0.35713524 -0.16315709
0000d0 28 2f bf be 9a c3 d1 bd 1e eb 52 3e 3d d5 64 bc
       -0.37340665 -0.10242386 0.20597503 -0.013966856
0000e0 f2 79 ba be 66 ea 24 be e6 85 cc be 2c d1 25 bf
       -0.36421162 -0.16105041 -0.39945906 -0.64772296
0000f0 8c 46 ff 3e 6e b8 32 3f ee 0a 3f bc 95 20 14 3f
       0.4985851 0.6981267 -0.011660321 0.57862216
000100 81 9c bb 3f 83 2f 26 3e 59 29 75 3f b4 fe 62 3f
       1.4657136 0.16229062 0.95766217 0.88669896
000110 d5 9d 51 be e3 1a 14 3f f0 80 b6 be 28 6d 91 3e
       -0.20470364 0.57853526 -0.35645247 0.28403592
000120 83 cd 7d 3d 29 c9 30 bf 28 68 fd 3d c8 9d a3 be
       0.06196357 -0.69056946 0.12373382 -0.31956315
000130 0d 32 2a 3d 8a 02 4b be 96 76 de bc 75 52 94 be
       0.04155164 -0.19825187 -0.027156156 -0.2896916
000140 d8 f5 25 3f 4d 63 2b bf 08 10 18 be c0 5c 64 be
       0.6482825 -0.66948396 -0.14849865 -0.22301006
000150 fc bd 88 bf 9c 98 e3 be e3 e2 3e be bd 8a 95 be
       -1.0682979 -0.4445237 -0.18641238 -0.2920741
000160 6e 24 05 3f 51 71 37 3e 5e ea 38 3f d2 69 f2 3d
       0.5200871 0.1791432 0.72232616 0.1183659
000170 70 9c 7b 3d 06 5b b1 3e 51 53 32 bf 3a 6b b7 be
       0.061428487 0.34639758 -0.6965838 -0.35823995
000180 d2 9f fa be 6f 22 88 3e 15 de 00 3f a1 f2 8d 3e
       -0.48950058 0.2658877 0.5033887 0.27724174
000190 75 07 05 bf 00 d7 5b bd 6a 92 32 be b6 dc 28 bf
       -0.51964504 -0.053671837 -0.17438665 -0.6596178
0001a0 a0 29 d9 be 13 b3 99 be e9 19 41 be 33 3e 55 be
       -0.4241457 -0.30019435 -0.1885754 -0.20824508
0001b0 ad b7 a2 be 72 a5 53 be a4 64 ee bc a5 c8 73 be
       -0.31780759 -0.20668581 -0.029100724 -0.23807009
0001c0 03 09 70 3f 44 b1 17 bf 3c 25 0f 3e e1 6a c8 be
       0.9376375 -0.5925486 0.13979048 -0.39144042
0001d0 d1 57 e2 3e 25 29 b5 be 05 d4 77 3c fe e2 e1 3e
       0.44207624 -0.35382953 0.015126233 0.44118494
0001e0 9b d8 18 be 94 bb b6 bd 29 e2 65 bf 75 55 e3 3e
       -0.14926378 -0.089224964 -0.8979822 0.44401136
0001f0 58 63 47 bd 3e 14 70 3e f9 26 dd 3e 23 8c 5b bf
       -0.048678726 0.23445222 0.43193796 -0.85760707
000200 d6 e8 c9 3e 9b d1 f7 bd 79 5c a0 be 51 a3 c1 3e
       0.39435452 -0.12100526 -0.3132055 0.37819913
000210 59 86 e8 be 89 b2 ad be 92 bc 9c bc e6 3e dc bd
       -0.45415 -0.33925274 -0.019132886 -0.107541844
000220 05 1a f7 3e 0e b7 0a bf 75 05 b3 be 2f 95 19 bf
       0.4826204 -0.5418557 -0.349651 -0.5999326
000230 d3 d5 44 be d3 fa 60 3e ca c1 6a be de b8 fe 3e
       -0.19222192 0.21970682 -0.22925487 0.49750417
000240 f9 6f 13 3f 10 59 48 3f fd 37 82 be 40 2e 1f be
       0.5759273 0.782609 -0.2543334 -0.15544987
000250 c8 a6 fc be 76 68 6f be a7 71 12 bf 6c fa b6 3e
       -0.49345994 -0.23379692 -0.5720467 0.35737932
000260 5a 16 aa be 00 2d fb be 5d bf 8f 3e 28 55 e6 be
       -0.33220178 -0.4905777 0.28075686 -0.44986844
000270 fd 7c 7f 3e 0b aa 34 3e 82 86 38 be 33 2e cc 3e
       0.24950023 0.17642991 -0.1802006 0.39878997
000280 23 47 48 3d 1d 4b cd be 49 51 0c 3e 94 86 34 bd
       0.048895966 -0.4009637 0.13702883 -0.044073656
000290 df e3 09 3e 59 f2 15 3e 6c 1f cf 3d 1b b3 40 be
       0.13465832 0.1464323 0.10113415 -0.18818323
0002a0 a8 dd 0c be 56 34 cb 3c 6b a7 2f bd 25 0d 85 3d
       -0.1375643 0.02480523 -0.04288427 0.06496648
0002b0 66 f9 e6 bd b4 d8 ad bb ea 2e ae 3d 07 07 13 be
       -0.11278038 -0.005305374 0.08505042 -0.1435815
0002c0 66 74 7f bd 52 4d 8a bd a9 14 84 be e8 e6 a3 bd
       -0.062366866 -0.06753029 -0.25797012 -0.08003026
0002d0 c5 58 eb bc dd d7 7f 3e c0 3f c8 3d 98 ef ab 3d
       -0.028728852 0.24984689 0.09777784 0.08395308
0002e0 69 79 b5 bd 4a 4f 44 3e 45 89 f5 3d 64 01 75 3d
       -0.08861048 0.19170871 0.11989073 0.05981578
0002f0 fe 90 28 3d ab ee fa bd d7 8b 11 be 2c 1c 03 3c
       0.0411539 -0.122525536 -0.14213501 0.008002322
000300 29 d2 a1 be be 3e 30 3e 18 5b 64 bd 0a 9d 06 3e
       -0.31605652 0.17211434 -0.055750936 0.13145843
000310 25 61 d1 3c 7c 23 f5 3d bd ec f2 3d ee 6f 0e be
       0.025559017 0.11969659 0.118615605 -0.13909885
000320 ad cd 0c be 29 f6 e1 bc 09 63 e9 3e 78 82 fe 3e
       -0.13750334 -0.027583199 0.4558337 0.49708915
000330 49 10 e8 3e f9 b0 f1 3e f6 77 51 3e 71 08 9c 3c
       0.45324925 0.47205332 0.20455918 0.019046994
000340 c8 36 e3 3e a8 45 b4 bd aa 44 b6 3d 87 1c 5c 3e
       0.44377732 -0.088023484 0.088998154 0.21495257
000350 5b 03 1a 3d fe d9 d2 3e e4 0e 06 3f b8 49 b7 3e
       0.037600856 0.4118194 0.5236647 0.3579843
000360 71 27 a7 bd 75 92 e4 3e d9 4f 37 3f bd 25 7e 3e
       -0.0816182 0.44642988 0.7160621 0.24819084
000370 35 54 3d 3e 0a a6 42 3e ad c6 9c bf 4e bf 5e bf
       0.18489154 0.19008651 -1.2248131 -0.8701066
000380 e9 c7 33 bf 21 86 89 bf fd df 38 bf c6 82 6d bf
       -0.70226914 -1.0744058 -0.7221678 -0.9277767
000390 d0 86 3d bf ba 3e 6b bf e3 a7 4d bf 8b a6 74 bf
       -0.7403383 -0.9189259 -0.803343 -0.95566624
0003a0 3f 22 6d be 32 90 ac 3d 0b 9f 5d 3b f9 a0 0b 3f
       -0.23157595 0.084259406 0.003381672 0.545425
0003b0 92 ec ea 3e 5f d8 dd 3e f3 81 a6 3e 35 5a 9e bd
       0.45883614 0.4332914 0.32521018 -0.077320494
0003c0 f6 ce 0b be 6a 86 7e bd ae 78 21 3f 2c 0e 56 3f
       -0.13653168 -0.062139906 0.6307477 0.83615375
0003d0 80 5e 1c 3f bc 31 7f 3f 00 ef 2e 3f 22 ba 5a 3f
       0.61081696 0.99685264 0.68333435 0.85440266
0003e0 8b af 89 3f 11 e8 12 3f 59 70 54 3f 5d dd 25 3f
       1.0756696 0.57385355 0.8298393 0.647909
0003f0 9f a8 0e 3f ea 71 1f 40 ae f0 90 3f 62 fa 1d 40
       0.55726045 2.4913278 1.132345 2.4684072

actor.0.bias f4 [256]
000000 ec 4f b3 be 04 30 58 bd d0 b5 bf be 57 d8 31 be
       -0.35021913 -0.052780166 -0.374434 -0.17367683
000010 da 8c 1b 3c 26 de 30 3e 3f d2 30 3e 28 cd aa 3d
       0.009494031 0.17272243 0.17267703 0.08339912
000020 c0 97 b2 ba 34 69 cd 3d ab f7 b4 bd 42 4f f0 bb
       -0.0013625547 0.100298315 -0.088363014 -0.007333667
000030 4f 58 19 be 3e 1c 81 3e a0 1d 17 bf 5c c5 e4 bc
       -0.14975093 0.2521686 -0.5902958 -0.02792614
000040 67 dc 22 bd 90 9c 0c 3e f8 ae 2b bf 3e 52 af be
       -0.039760973 0.13731599 -0.67063856 -0.34242433
000050 0f 22 82 be 0b 3d 86 bd d6 df 8b be 56 86 4e be
       -0.2541661 -0.06554612 -0.2731921 -0.20168433
000060 3a 50 4b 3e 05 83 07 3e ad a5 8f 3d 5b 75 9c 3c
       0.19854823 0.13233574 0.07014022 0.019098928
000070 68 43 9d 3e 96 be 43 be e4 97 83 3d 62 3c 79 bd
       0.3071549 -0.19115672 0.06425455 -0.0608486
000080 d5 a7 9a be c1 2d 37 bd 4e 3d 38 bf 09 8c 17 be
       -0.3020617 -0.04472137 -0.71968544 -0.14799513
000090 4e a8 4e be f5 16 f9 be 1e a5 ad 3d c0 56 f5 be
       -0.2018139 -0.48650327 0.08478759 -0.47917747
0000a0 c2 7a 2c bf 63 6a e6 bd 0a 11 16 bb 2a d8 34 be
       -0.67374814 -0.112507604 -0.002289834 -0.17660585
0000b0 6b a5 15 3e 65 42 ec be 45 19 c9 be 87 df c7 3d
       0.14613883 -0.46144405 -0.39277092 0.09759431
0000c0 8a 02 7e be c1 e1 fd bd 1f 6d c8 bd 15 01 06 be
       -0.24805656 -0.12396575 -0.09786438 -0.1308635
0000d0 eb 61 fb bd 3a 5a 65 bd 24 38 39 3d 7e 67 67 3e
       -0.12274536 -0.05599425 0.045219555 0.22598073
0000e0 f8 44 7f 3e f8 55 4e 3e 3d 8a 1e be 76 d1 b2 be
       0.24928653 0.20149982 -0.15482421 -0.3492543
0000f0 93 da 86 3e fe ac 77 bd f1 75 08 3e ad db 80 be
       0.26338634 -0.060467713 0.13326241 -0.251676
000100 a3 6b f3 3d 50 da c5 3e d0 25 8d be 07 a3 56 be
       0.118857644 0.38643122 -0.2756791 -0.20960627
000110 d0 00 87 3d 56 bd 0f bf 05 9a 92 3e ab 61 7d be
       0.06591952 -0.5614828 0.28633133 -0.24744289
000120 00 72 37 be 0d b9 36 be 6a c8 82 bc a5 4d 35 bd
       -0.17914581 -0.17844029 -0.015964705 -0.0442635
000130 e4 30 42 3d 69 b5 78 3c ec b2 27 3b 76 a4 82 3d
       0.047409907 0.01517997 0.0025588823 0.06379025
000140 f0 87 01 bd c9 bc 09 3d 6a e5 d7 be 6e 06 04 bf
       -0.03162378 0.033627305 -0.42167217 -0.5157231
000150 ce 1c 89 3c 3a af 68 be 7b e7 7f be 9d c5 41 bf
       0.016737368 -0.22723094 -0.24990647 -0.7569216
000160 18 d0 a3 be d2 e1 14 be 3c c2 36 bf d2 87 c2 3d
       -0.319947 -0.14539269 -0.7139013 0.09498562
000170 e4 5a 4e bf 58 fe e2 bd 32 40 69 be 6d 24 50 be
       -0.8060744 -0.110836685 -0.22778395 -0.20326395
000180 a9 9f ca be 16 e7 9d 3e b2 9e 93 be 01 63 36 3e
       -0.39574936 0.30840367 -0.28832012 0.17811204
000190 07 ed ec ba d3 b3 96 3d 7b 5d a3 be ab 79 f5 be
       -0.0018076011 0.073585175 -0.31907257 -0.47944388
0001a0 08 af 2f 3e 5c 5b 53 bd 27 1b b8 be 00 bb 17 bf
       0.17156613 -0.0516008 -0.35958216 -0.59269714
0001b0 87 93 0f be d7 9c 0c be 67 b3 09 bf 55 c2 34 be
       -0.14021121 -0.13731705 -0.5378937 -0.17652257
0001c0 53 cc 09 bd 48 3a c9 be 97 e2 30 bf 39 d3 ca bd
       -0.033642124 -0.39302278 -0.6909575 -0.09903569
0001d0 09 2e 4e bf d6 f1 97 be 1e b8 80 bc 36 b3 0a be
       -0.80538994 -0.29676694 -0.015712794 -0.13544926
0001e0 43 5f f5 be 26 a1 19 bf ba 1f d2 be 6d 58 ec bd
       -0.4792424 -0.6001152 -0.4103983 -0.115403034
0001f0 84 ad 0d bd 30 e0 af be 16 14 2c bf 86 af b7 3e
       -0.034589306 -0.3435073 -0.6721815 0.358761
000200 82 6c 22 be 56 63 85 be aa 78 71 3e ac 82 f2 bd
       -0.15861705 -0.2605235 0.23581186 -0.1184133
000210 50 b9 c8 be 9f 16 6d 3e 42 05 7a 3d 22 70 d6 3d
       -0.39203882 0.2315316 0.06104017 0.104706064
000220 b3 11 31 be ff 05 59 be 91 3f d6 bd b8 48 ef 3e
       -0.17291908 -0.21193694 -0.10461343 0.46735168
000230 4f 06 14 bf a3 34 40 be c1 3e 98 be 32 46 df 3d
       -0.57822126 -0.1877008 -0.29735377 0.109020606
000240 74 ca 13 be 3a 3d 8f bd 50 1f 3b be 91 7f ba bd
       -0.14432698 -0.069941 -0.18273664 -0.091063626
000250 8a 50 73 bc cd c6 b3 be 02 2c 49 bf 9e 7e 04 3d
       -0.014850745 -0.3511261 -0.78582776 0.032347314
000260 d3 0e c0 be 3d 45 b9 be e6 a5 1f 3e 15 a9 4a 3d
       -0.3751131 -0.36185637 0.15590629 0.049477655
000270 9d 5e b3 3d b6 3e 97 3e e3 09 56 be 23 56 45 be
       0.087582804 0.29540032 -0.20902209 -0.1927114
000280 7a 55 88 3d dc db 85 bd 42 19 5f be 6b 07 19 bd
       0.06656928 -0.065360755 -0.21786979 -0.03736059
000290 97 b4 fa bd cb eb 7c bc 71 2a 8e bd bd 4e ac bd
       -0.12241476 -0.015437077 -0.06941689 -0.08413456
0002a0 9d 27 92 be dd 45 91 3d e5 7f 8f 3d b0 f2 51 bd
       -0.28545848 0.070934035 0.07006816 -0.051256835
0002b0 af 34 56 be 97 97 4f bd b6 77 e2 be b5 ab 82 3e
       -0.20918535 -0.050681677 -0.44231957 0.25521627
0002c0 b2 fa 6b be f3 f9 a3 be d6 13 29 bf 64 64 05 be
       -0.23044851 -0.32026634 -0.6604589 -0.13026577
0002d0 7b ed 83 3e f9 42 2a 3d 05 2a 00 bf 5e da 45 be
       0.2576712 0.041567776 -0.50064117 -0.19321582
0002e0 91 62 2b be fb 67 cb bd 16 25 00 bf 6c b3 14 bc
       -0.16736819 -0.09931942 -0.5005659 -0.009075981
0002f0 dd 03 52 3e 99 f9 48 3e a5 d6 87 be 10 8d 92 be
       0.20509286 0.19626464 -0.26530948 -0.28623247
000300 c1 5b 00 bf 26 c9 70 be 28 9b 17 bf 23 9b 64 bd
       -0.50140005 -0.23514232 -0.59221125 -0.055812012
000310 12 3e 12 bf 7b 75 8e be 4f 5e 2e be 92 fa 1a be
       -0.5712596 -0.27824005 -0.17028163 -0.15134647
000320 0e 55 65 bd d6 23 3b bd fe 4b 72 3e 37 7d 88 be
       -0.055989318 -0.045688473 0.23661801 -0.2665803
000330 18 ca 7f 3e cc b2 03 bf 68 42 24 bf 12 db 90 bb
       0.24979436 -0.514447 -0.6416383 -0.0044206465
000340 6c 42 7f be 5d 10 b0 bc 38 b4 80 be 39 3a 19 bd
       -0.24927682 -0.021492178 -0.25137496 -0.03740904
000350 e7 46 32 3c 54 fd 15 3e 5a e6 c1 be 4d 0e 02 be
       0.010881162 0.14647418 -0.37871057 -0.12700768
000360 73 b1 e0 3d 18 fe 13 bf 37 18 2f bc 0d 34 a7 3e
       0.10971346 -0.5780959 -0.010686926 0.326569
000370 6a 0c 51 be 0b 13 02 3e 4b 32 bd be 41 a7 fe be
       -0.20414892 0.12702577 -0.36952433 -0.4973698
000380 33 ad 46 be be 4b c7 bd 30 52 e6 3c a3 7a f2 bd
       -0.19402008 -0.097312436 0.028115362 -0.11839797
000390 07 82 2a be e5 3a bd bc b1 0e ac be 87 eb e7 3c
       -0.16651164 -0.023099372 -0.3360496 0.02831055
0003a0 c0 d5 79 3d 48 38 88 3e c8 27 b4 be f3 f2 b7 bc
       0.060994864 0.2660544 -0.351866 -0.022454714
0003b0 df 8a d8 be e1 d8 f9 bd ad 48 ca 3d 56 1b ec be
       -0.4229345 -0.121995695 0.09877143 -0.46114606
0003c0 b2 93 c7 3e e8 8e 07 bf 8b 49 2a be df 4b 86 3c
       0.3897987 -0.5295243 -0.16629617 0.0163936
0003d0 3c 4f 88 be 29 a2 c6 be 56 10 61 be dd 4f c2 3e
       -0.2662295 -0.38795593 -0.21978888 0.37951556
0003e0 9d 3f 82 be 2b 00 71 be 16 b9 00 3e 0f e8 44 3d
       -0.25439158 -0.2353522 0.12570605 0.04807287
0003f0 09 a9 97 3e 97 d7 a8 3d 9b ed ea be 9b d2 16 bc
       0.2962115 0.082442455 -0.45884404 -0.009205486
