only_win_reward.pt (torch, 906353 bytes, 11 tensors)

critic.0.weight f4 [256, 162]
00000000: f5f3 c2bd 4e49 dabd aa85 8bbe 7f3f 603e
00000010: d547 febd 3ba6 b43d ce2a 063e 81e3 9ebd
00000020: 9b0f aebc 46c6 08be b823 f4ba bedb f5bd
00000030: 0a5e fdbc 559b c1bd 4a81 73be 597b 5dbe
00000040: a605 54bc f8d6 01be 605b 49bd d5d7 a7be
00000050: e3bb 8dbe 1612 6abe 2e73 cc3c 264f 823d
00000060: 646a c0bd efbe 8bbe 4eb9 cb3d a980 71be
00000070: a5f0 7cbe e75a 163d bce4 c0bc ba4a f53d
00000080: eac6 ce3c 0e83 a6bd 4675 efbd 4150 0dbe
00000090: 532e c2bd 5b3d c6be d04e 723d 940a 883e
000000a0: 19e5 94be a13b bdbe 04c1 cb3e bb18 503d
000000b0: eb24 9cbe db79 98be 2cfd 25bc 19e9 993d
000000c0: c701 63be c581 75bc 1213 bebe 5a38 dbbc
000000d0: 21ee 5d3e 3e03 443e 2594 9cbe 8158 213d
000000e0: 23f0 81be 9056 e1bd 31d7 53be 2fea fcbd
000000f0: 9a79 31be ed8f 48be 10e8 71be 5a22 97be
00000100: 477a 083e 2d2b e5bd 951d df3d 6022 b63d
00000110: 7d9f 70be 84a9 4ebe 894d 1a3e 5c6b 0e3d
00000120: d5ab 773e 2aa0 193c df97 eb3c 3369 b33e
00000130: 4d25 6d3d 8158 8a3e 4f1d 21be b946 703e
00000140: 0e3c a1bd 3ed4 ecbd 935b 953d b0d0 003d
00000150: fd64 5abe eb28 e6bd b388 cc3c 6f9b f2bb
00000160: 8254 6e3d cdb1 953d e841 9f3d 341d 56bc
00000170: 03e0 0e3e 1476 c9bd 1160 0b3d 2875 a8bd
00000180: 2bad 63bc b7b7 25bd 063e e4bd 7519 b5bd
00000190: c9d3 19be 568e c6bd 49e4 0b3d a3d1 093e
000001a0: 1ba2 1fbe a40f 3cbe 6904 e0bd 3621 38bd
000001b0: f8c8 14bd f41a 61bd ff26 633e df63 243a
000001c0: 7b32 803e dbce fcbd 29db a2bd 7ffa 99bd
000001d0: fe1f 783d 662a f5bc f3a9 acbd d6c2 c7ba
000001e0: 92fd adbe 2c3a 1abe ec61 93bd b15c 843b
000001f0: bf5b 55bd 6c34 133e 45c8 72bd 0d0c 853d
00000200: 37e4 353e 40c2 2ebe 6d56 d9be 613a 61be
00000210: 3acf 2abe dc03 653d c125 c3be 542e 06bd
00000220: 2e00 1d3c c352 42be fb07 9cbc c70b 0cbe
00000230: 21f3 15be 124c d0bc a677 223e 090d c0bd
00000240: 9cfd b6bb 154c 23bc 41fe 56bd 3ef2 98be
00000250: d9d3 9bbd 8262 74be 80d3 98be a92d dc3c
00000260: 194b b2be 0366 6abe 4814 263e 452f b4bd
00000270: f3f1 ac3d 063d b2be 15b9 93bd 79d4 bbbc
00000280: ede5 3dbf ef56 dd3e bbc0 a93d 44e6 ccbd
00000290: 9d1e 443e 326f ad3d 861f 26bd 943f cfbd
000002a0: b3ae 60bd 76d0 75bd 31ac fd3c 9a36 c03b
000002b0: 5c72 febc 4319 623c 5a1f bc3d 7f89 0f3d
000002c0: 66bc a9bc 7949 803d 0457 d7bd d27d 9e3c
000002d0: 2c5f cdbc 76ec b13c d4fe 873e 8d9b e5bc
000002e0: 6f4f 3d3e b955 b23c 207a d3bd 1ac8 e03c
000002f0: 0cfd 04bd face 98bd 5ddd 6b3c 1b23 5f3d
00000300: 30bd d93c 6b58 1ebe ca9d 10be 3003 20be
00000310: 784e 0cbd 3815 3fbe e677 ddbd 80fc f4bd
00000320: cd0d 71be b62d 58be 8e40 a43d 6c98 8a3e
00000330: daa5 543e d6cd c13e 5e38 7d3e 0ea4 863e
00000340: 5922 803e a050 7c3e 1829 923d ee46 b73e
00000350: d8a4 c83e 2fac cc3e 6831 3c3e d045 483e
00000360: caed ae3e f242 6c3e ef11 2b3e 957d 7d3e
00000370: 0f11 b43e 93b3 823e 799a 1a3d 8fc4 e1bd
00000380: cf26 ed3d 8e02 c5bd d54f 85be f5b0 f6bd
00000390: 93e5 17be 9b69 1cbe d835 90bd 42bf 72bb
000003a0: 46fe 29be b742 67be 5f04 95be 3a72 b0bd
000003b0: e0d4 38be ac1f 12be ce9b 90be 9cc0 1cbd
000003c0: bcb0 33be 7d45 c0be d66d 3f3d aec2 97bd
000003d0: 714d 8a3e 8f33 163c 1d45 293d 9384 bbbd
000003e0: 7ed9 053d 1693 623e 624f ab3e 7cee 873e
000003f0: 2d55 123e 87e9 e33d 0276 153f 79dd 4abd
-0.09519187 -0.10658513 -0.27250415 0.21899222 -0.124160446 0.088207684 0.13102266 -0.07758237
-0.021247676 -0.13356885 -0.0018626368 -0.12004803 -0.03092863 -0.09453455 -0.23779789 -0.21629085
-0.0129408 -0.1267966 -0.049159408 -0.32781854 -0.2768241 -0.22858462 0.024957266 0.063627526
-0.093952924 -0.27294108 0.099474534 -0.23584236 -0.24701174 0.036707785 -0.023546569 0.119771436
0.025241334 -0.081304654 -0.1169229 -0.13800146 -0.09481492 -0.38718686 0.059157193 0.2657057
-0.29081038 -0.36959556 0.39795697 0.050804835 -0.30496916 -0.29780468 -0.010131162 0.07515163
-0.22168647 -0.014984553 -0.37123924 -0.026760269 0.2167287 0.19141862 -0.30581775 0.039391045
-0.25378522 -0.110028386 -0.20687558 -0.123493545 -0.17331544 -0.19586153 -0.23623681 -0.29518396
0.13327895 -0.11189876 0.10894314 0.08893275 -0.2349834 -0.20181853 0.1506864 0.034770355
0.24186642 0.009376565 0.028758941 0.35041198 0.0578969 0.27020648 -0.15733837 0.23464479
-0.07872783 -0.115639195 0.07292857 0.03144902 -0.21327586 -0.11238273 0.024967527 -0.007403783
0.05818606 0.073093034 0.077762425 -0.013068486 0.13952641 -0.09836975 0.034027163 -0.08225471
-0.013896267 -0.040458407 -0.111446425 -0.08842746 -0.15022196 -0.09695117 0.034153257 0.13458876
-0.15589182 -0.18365341 -0.10938341 -0.044953547 -0.03632447 -0.054957345 0.22182845 0.00062709855
0.25038514 -0.12344142 -0.07951958 -0.075184815 0.060577385 -0.029927444 -0.08430853 -0.0015240561
-0.3398252 -0.15061253 -0.071964115 0.00403937 -0.05208945 0.14375466 -0.059273023 0.06496439
0.17762838 -0.17066288 -0.4244875 -0.21994926 -0.16680613 0.055911884 -0.3811474 -0.032759026
0.009582562 -0.18976884 -0.019046774 -0.13676368 -0.14643528 -0.025426898 0.15865955 -0.09377486
-0.005584432 -0.00996687 -0.05248857 -0.29872316 -0.07608766 -0.23865703 -0.29848862 0.026877241
-0.3482292 -0.22890477 0.16218674 -0.087980784 0.08444586 -0.34812182 -0.07213036 -0.022928463
-0.74178964 0.43230388 0.082887135 -0.10004857 0.19152303 0.084684744 -0.040557407 -0.101195484
-0.054854106 -0.060013257 0.030965896 0.005865884 -0.03106039 0.013799968 0.09185667 0.035043236
-0.020719718 0.06264014 -0.10514644 0.019347105 -0.025069796 0.021719199 0.26561606 -0.028028274
0.18487333 0.021769391 -0.10326028 0.027439166 -0.032467887 -0.07461353 0.014396039 0.05447684
0.02657947 -0.15463416 -0.14122692 -0.15626216 -0.03425452 -0.18660438 -0.108138844 -0.11962223
-0.23540421 -0.21111187 0.08020125 0.27069414 0.20766392 0.37852353 0.24728534 0.2629704
0.25026205 0.24640131 0.07136744 0.35796303 0.39188266 0.39975116 0.18378222 0.19557881
0.34165794 0.23072413 0.1670606 0.24754937 0.35169265 0.2552763 0.037744973 -0.11023819
0.11579668 -0.09619628 -0.2603747 -0.120454706 -0.1483367 -0.1527466 -0.0704152 -0.0037040268
-0.16600904 -0.22584043 -0.29104897 -0.08615537 -0.18049955 -0.14269894 -0.2824387 -0.038269624
-0.17547888 -0.37553015 0.046735607 -0.07410179 0.27012208 0.009167566 0.041325677 -0.09156146
0.03267812 0.22126421 0.33459002 0.26549137 0.14290304 0.11128526 0.5838319 -0.04952762

critic.0.bias f4 [256]
00000000: adbd c3be e126 953e f7fa c4be 2bba ca3d
00000010: c68b c6be 9579 adbe 77d8 a7be 4179 b8be
00000020: ab59 a2be e0ac 81be 93d0 e5be 7200 30bf
00000030: 23e1 a0be 1338 a03e 97ba efbe e8b2 1fbf
00000040: cd65 d7be e7c5 99be 2133 c5be 33a1 08bf
00000050: fb0d 953d c9d5 763e c3de 4cbf 9911 e8be
00000060: 50ae 9dbe 9db3 ab3d 3b09 ddbe 8858 07bf
00000070: 09f9 c9be c496 a7be 7931 88be ad92 53be
00000080: 8ec1 cebe 1ae4 babd b31a 6bbd 76ed 5f3e
00000090: 5f31 fa3d 2390 14bf 613d ebbe ee4e dc3e
000000a0: 013d 9b3c 11a1 a0be e390 9cbe 0ebd c1be
000000b0: 3129 6c3f c5a5 9ebe 0399 48bd c427 f2be
000000c0: 917f 1cbf db5b 43bf cb45 cbbe a5d5 e9be
000000d0: ecc3 08bf 0e9c 0abf d932 edbe e680 f9be
000000e0: 3ccc 94bd b0d9 09bc 14a5 b2be 8d9b 10bf
000000f0: 8e72 a7be 8406 1ebd 0a92 20bf 34df 7bbe
00000100: 31ee f9be 3b34 a63f 86f6 57bf dca6 173e
00000110: b214 23bf 5fba 07bf 984c 05bf a544 cdbd
00000120: f8ba b8be 23d1 3e3e 0560 38be 7906 a1be
00000130: 4f31 e7be 4d06 89be b3bd cd3d 06fa 98bd
00000140: ff3c b43d 70be b1be 0c66 dbbe 9af4 8e3e
00000150: 4aad 5dbe d2b9 9ebe 4bcf cdbe 9d1c 5b3e
00000160: 721e c7be 65fc 02bf 3244 17be 181d 933e
00000170: 3bb4 28bf 25a7 c8bd b929 d43e da23 ffbd
00000180: 57f1 0d3e 8a8e 0bbe 95b6 483e a10d 00be
00000190: ffb0 a1be 9126 993e 0443 99be 4315 23be
000001a0: 3393 f1be 91ab 0fbe 2e90 e0be 935a 25bf
000001b0: 7d7c 00bf 2488 c2be 0c4f 12bf 9e1f d8be
000001c0: 3429 35be dc6f acbe 6da2 d33d d12f 6f3e
000001d0: f926 7abe 3bad f6be 97eb bdbe 4610 aebe
000001e0: a312 4abe 4cda 47bf dbc4 62be ec86 8cbe
000001f0: 3ce3 2abf 0718 03bf 6707 19bf b50b d2bd
00000200: 4d30 f7be 6719 213d 07c8 013f 54a0 9cbe
00000210: e1eb 8bbe 9045 8c3e 6fde c93d 24f6 073d
00000220: e95b d9be d9a8 87be ee95 ee3d 255d 08bf
00000230: 6ab5 37bf 815c 10bf d6df 1abe 13a7 8abe
00000240: cd43 7dbe 1de7 02bf 52d9 23bf 507f 8cbe
00000250: daec b8bd fca6 27bf 983e edbd 2191 f9be
00000260: 333f a93e 8f48 a23d 29c6 f73d 7873 09bf
00000270: ba63 1dbf 3efb 5b3d d04d 8a3d 17af ffbe
00000280: 5a9e 84be e1fb 1b3e bb9e 97bd 0dd1 bbbe
00000290: 50e7 683d 733e 4fbf 619b a0be 7d95 cebe
000002a0: 86be 70bd 2e47 0abf 7c24 d7be 5b0a b8be
000002b0: 087f 98bd 1617 a6be 9140 8b3d 495c 323e
000002c0: 4e0f bd3d 74c4 28be 911d 02bf 30dd 06bf
000002d0: 65b4 2ebf 34e8 b4be 90a3 ab3d 9912 353e
000002e0: 5cd2 36be d6b0 a1be b81f 40be f11b b73e
000002f0: 99ab eebe 4e62 9dbe 3703 a5be 3f6f 2cbd
00000300: 6545 08bf 64b8 cfbe de29 6bbe a1ba c9be
00000310: e9c6 e2be e44c c4be ad02 a13e 6b4f aebe
00000320: cfe8 e8be 3ff1 bfbe 2526 fd3d d0c5 05bf
00000330: 5ecd 8b3e 1519 fcbe 328b 21bf 3b45 2cbf
00000340: 1dd9 3cbe 2981 acbe 2129 24be 56c1 05bf
00000350: 091a 843e 0ea8 c9be 6927 f7be dbc8 e1be
00000360: 33e6 02bf 0524 d33e c50c a6be 6161 643e
00000370: 0308 72be 41e6 be3e e326 3bbe 0e9f 54be
00000380: 0432 0e3d ac22 4e3e 067f 31bf d2af 91be
00000390: 7296 bfbe 9f96 27bf b59a 03bd fe6b 95be
000003a0: 04a2 11be 0bc5 d5be 243b 02bf 5240 5c3d
000003b0: 0cde 1c3f 71cc 60be 5916 acbe 5caa acbe
000003c0: 72fb 433e 4987 1f3f e035 2ebe 17bb 90be
000003d0: 1128 89be d902 c0bd 6532 c8be 2bf2 59bd
000003e0: d14d 92be 9833 fabd 87df f93e 2fad 343f
000003f0: 4e7d d7be 5258 163e f3ea d5be 7d09 21bf
-0.3823065 0.29131225 -0.3847272 0.0989879 -0.38778514 -0.33881822 -0.32782337 -0.3603001
-0.31709036 -0.25327206 -0.44885692 -0.6875068 -0.31421766 0.3129278 -0.46822044 -0.62382364
-0.42069855 -0.300338 -0.3851557 -0.5337097 0.07278057 0.2410499 -0.8002741 -0.45325926
-0.30797052 0.08383868 -0.43171105 -0.5286946 -0.3944781 -0.32732213 -0.26600245 -0.20661421
-0.40382046 -0.09125538 -0.05739851 0.21867928 0.12216448 -0.58032435 -0.45945266 0.4302897
0.018949987 -0.31372884 -0.3057929 -0.3783955 0.92250353 -0.30985847 -0.04897405 -0.47295964
-0.6113215 -0.76312035 -0.39701685 -0.4567081 -0.53423953 -0.5414437 -0.46327856 -0.48731154
-0.07265517 -0.008413717 -0.3489157 -0.5648735 -0.32704586 -0.038580433 -0.6272284 -0.24596864
-0.48814538 1.298469 -0.8436054 0.14809746 -0.63703454 -0.53018755 -0.5207 -0.100228585
-0.36080146 0.18634467 -0.18005379 -0.3145025 -0.45154807 -0.2676262 0.10045948 -0.07469563
0.088006966 -0.34715605 -0.42851293 0.2792099 -0.21648136 -0.31001145 -0.40197214 0.21397634
-0.38890415 -0.51166373 -0.14772108 0.28733134 -0.6590001 -0.09797505 0.41438082 -0.1245801
0.13861595 -0.13628593 0.196009 -0.12505199 -0.3158035 0.29912236 -0.2993394 -0.1592608
-0.47182617 -0.14030291 -0.4386 -0.6459133 -0.50189954 -0.37994492 -0.57151866 -0.42211622
-0.17691499 -0.33679092 0.10333715 0.23358084 -0.2442893 -0.4817904 -0.37093803 -0.3399679
-0.19733672 -0.7806747 -0.22145407 -0.27446687 -0.6675298 -0.5120854 -0.5977692 -0.10256139
-0.48279038 0.039330866 0.5069584 -0.3059107 -0.273284 0.27396822 0.09856879 0.033193722
-0.42452934 -0.26496008 0.116496906 -0.5326713 -0.7176119 -0.5639115 -0.15124449 -0.27080593
-0.24732895 -0.511339 -0.6400348 -0.27440882 -0.09029551 -0.6548917 -0.115842044 -0.48743537
0.3305603 0.07923996 0.12098343 -0.53691816 -0.61480296 0.0537064 0.06753123 -0.4993827
-0.25902063 0.15232803 -0.07403322 -0.3668293 0.05686122 -0.80954665 -0.31368545 -0.40348426
-0.058775447 -0.5401486 -0.42020023 -0.359454 -0.07446104 -0.32439488 0.067994244 0.17418016
0.09231435 -0.16481191 -0.50826365 -0.52681255 -0.6824401 -0.35333407 0.083808064 0.17682876
-0.17853683 -0.31580228 -0.187621 0.35763505 -0.46615294 -0.30739063 -0.32229015 -0.04209828
-0.5323089 -0.40570366 -0.2296519 -0.394002 -0.4429238 -0.38339913 0.31447354 -0.34044966
-0.4549012 -0.37488744 0.12360791 -0.5225496 0.2730512 -0.49237886 -0.6310302 -0.6729314
-0.18442197 -0.3369229 -0.16031314 -0.5224813 0.25801113 -0.39386028 -0.48272255 -0.44098553
-0.51132506 0.41238418 -0.32431617 0.22302772 -0.23635869 0.37285045 -0.18276553 -0.207638
0.034715667 0.20130414 -0.6933445 -0.28454453 -0.37419468 -0.65464205 -0.032129962 -0.29183954
-0.1422196 -0.41751894 -0.5087149 0.053772278 0.61276317 -0.21952988 -0.336108 -0.33723724
0.19138888 0.62315804 -0.17012739 -0.28267738 -0.2678838 -0.09375543 -0.39100948 -0.053209465
-0.28574994 -0.12216872 0.4880335 0.7057676 -0.42087787 0.14682129 -0.41780815 -0.629051

critic.2.weight f4 [256, 256]
00000000: 21a7 f53d 74e1 273e 59d2 b53d b01e f33d
00000010: b27f 4abc 256d 0cbd 13f3 173e a3eb 653d
00000020: 1cae 303e a63e 413d 1655 0ebd 4974 cf3d
00000030: c661 053d 8ba5 9bbc f35d 4abd c11c 5d3e
00000040: ba74 aebd 9f75 133e dd76 353e d679 7c3e
00000050: 06e5 a73d f9dc 07be ec26 a4bc 0876 493d
00000060: 0c79 973d 4978 21bd 9f62 553e a0f9 5c3d
00000070: ecd0 813c b950 fdbc 9f3c 4dbe fe77 a43d
00000080: e4bf 7a3e 21f3 1a3c 026b 1cbe a9d8 23be
00000090: 61d9 9bbc 9601 393d 225f 813e 6054 f9be
000000a0: 7449 c4bd 5d30 8f3d b434 31bd 7ea9 ca3d
000000b0: d4d4 55be 32bd 4f3e 1929 ce3d 3811 123e
000000c0: d1ed 5f3e 1eae c33d b84d 993d 118f 973c
000000d0: 4808 4fbd 19fc 12be e456 c9bc fbe1 bf3d
000000e0: 191b b6bc 0915 583e 27e2 463e 62b6 d9bd
000000f0: 2154 f93c a0db 623d 3ad9 4dbd 9fa2 9e3d
00000100: 741b 8d3d ccbd e2be 39d9 403e e021 41bc
00000110: 2b03 7c3e c491 993e cfb2 e93d 38ee 713c
00000120: 7490 f23d b637 62be 0ed0 053d 4368 203e
00000130: d010 7b3e 7436 88bc e97a 89bd 575e e83d
00000140: 9c84 fdbc e9cc bf3e 91e2 b7bb e014 55bd
00000150: cd01 1a3e 6853 31bd 7eae 903e cad0 e8bb
00000160: eaa7 de3d bde2 943e afda afbd 3740 a0be
00000170: ca5b 963e 0d25 b6bd 3ba7 58bd 0036 59be
00000180: 0db0 de3c 903c c83d eac6 7bbe ec6a e23d
00000190: c251 e13c 1e7a 3b3d 2a4e 98bd b9c8 b3bd
000001a0: 328e ad3d adf5 113d f710 ea3d adcf a73d
000001b0: 57e8 30bd 7255 593e c232 313e 9762 d83c
000001c0: 74ca 973e eabe c23e f165 e13c 38f4 9cbd
000001d0: ed20 a3be 8694 8b3e d57a 603e 7e2a 613c
000001e0: b7d8 1dbd 0f49 d63c ba8f 993d bb43 cc3d
000001f0: 4a0b c83d 687a febc 0824 113e 0af6 a4bd
00000200: 3779 e03d 1a70 dfba ab9e 6ebe fa02 1ebc
00000210: d780 303e afdb 3cbe 7ad9 8cbd 3d6c 56be
00000220: 3563 093e 5392 df3d 03e5 3c3e 662f aebd
00000230: 3a66 363e fc04 193e fd6a 273d 8802 b23d
00000240: 7436 bb3d 538b 163e 6a62 4ebd b894 2c3e
00000250: df92 07be 7786 ba3d f979 4cbe fdf1 fd3c
00000260: 2352 633c 765c 06be ca2f 323d 8f30 be3d
00000270: b9c9 b43d 6d2a 2fbd 01e5 1d3e eca9 db3d
00000280: 238b 05bc 9eb6 4bbe bf01 973d 98ce 323e
00000290: c45d 0cbe dc64 d13d e859 453e e063 6f3d
000002a0: 05b0 3e3e 61d0 723e 3c2c 2a3e 3e6d 143d
000002b0: 5d02 98bc 3a33 483e b9c2 38be 9956 c2bd
000002c0: 3cbc 893b 29c3 0a3d a144 9f3d 30a1 b7bd
000002d0: 1a42 6bbe f612 9cbb 3a1f bd3d 140e ec3a
000002e0: 4aeb 04bd d91b 883e 81e6 01be a7a7 57be
000002f0: 5b96 8f3c eafb 813d 54ba ff3d 14a6 89bd
00000300: 422d fcbd 3847 963d ed93 e9bc a280 edbc
00000310: 92ec 313e a3cd be3d 5f0d 3abe b750 cd3d
00000320: 62fd 253e a4b7 06be 0129 f2bd 7a70 413d
00000330: 3129 963d ec38 083e 5a9e 04be 0581 f63d
00000340: d9fc 2d3e b723 e13d 470c 5ebe 07a9 a1bd
00000350: c6e2 29bc f3c1 1ebe 5dbb f03d 1aff cbbd
00000360: 502b f8bc 7499 fcbd 36ca 0d3e c1d9 37bd
00000370: 2fbc 423e 4688 6d3e 3976 c6bd c4e0 96bb
00000380: 895e fe3d c106 21be 7a12 02be 17ec 0d3b
00000390: 806a e7bc 24b4 83bd 93b5 9fbe 9ed7 95bc
000003a0: 7da3 34bd 6853 103e 129b 6d3e 5817 03be
000003b0: d4f5 93be 26d5 fdbd a801 813d e798 e43d
000003c0: 90dd 9b3b 38cf 96be 3203 bf3d b5d8 053d
000003d0: a693 d93a 43ae 703d 4389 3c3d dd49 e3bd
000003e0: 5a84 523e 05e7 9d3d 2035 5fbe 363d 193e
000003f0: 6a45 193c 0363 c23d a707 fc3c d16c cc3d
0.11994768 0.16394597 0.08878011 0.118710876 -0.0123595465 -0.034283776 0.14838819 0.056132924
0.17253917 0.047178887 -0.034749113 0.101296015 0.032563947 -0.018999835 -0.049406003 0.21593
-0.085183576 0.14400338 0.17721124 0.24655852 0.0819798 -0.13267888 -0.02003809 0.04918483
0.07396135 -0.039421353 0.20838402 0.053949 0.015846692 -0.03092228 -0.20042656 0.08030699
0.24487263 0.0094573805 -0.15275195 -0.16000618 -0.019024553 0.045167528 0.25267893 -0.48697186
-0.095843226 0.069916464 -0.043263152 0.09895609 -0.20881969 0.20287016 0.100664325 0.14264381
0.21868064 0.095546946 0.07485527 0.018500837 -0.050545007 -0.1435398 -0.024577565 0.09369274
-0.022229718 0.21101774 0.19422208 -0.1063049 0.030435624 0.055385232 -0.05025599 0.07745861
0.06890002 -0.4428543 0.18832864 -0.011787862 0.24610583 0.29994023 0.11411058 0.014766268
0.118439585 -0.22091565 0.03266912 0.15664773 0.24518132 -0.016627528 -0.067128964 0.11346119
-0.030947022 0.37461022 -0.0056117256 -0.05202186 0.1503975 -0.043292433 0.28258127 -0.0071049677
0.10871871 0.29079238 -0.085866325 -0.31298992 0.29366904 -0.088937856 -0.05289386 -0.21212006
0.027183557 0.097771764 -0.24587598 0.1105555 0.027504805 0.045770757 -0.074367836 -0.08778519
0.08474387 0.035634685 0.11429017 0.08193908 -0.043190327 0.21224001 0.17304519 0.026414199
0.29646647 0.3803628 0.02751443 -0.076637685 -0.31861058 0.27261752 0.21921857 0.013743041
-0.038536754 0.026157884 0.07498117 0.09973856 0.09767778 -0.031064227 0.14173901 -0.08054741
0.1096062 -0.0017046959 -0.23302715 -0.009644264 0.17236648 -0.18443178 -0.06877418 -0.20939727
0.1341675 0.10916581 0.18446736 -0.08505134 0.17812434 0.14943308 0.040873516 0.08691889
0.091412455 0.14701585 -0.050386824 0.16853607 -0.1323962 0.091076784 -0.19968404 0.030999178
0.013874563 -0.13121209 0.043502606 0.092866056 0.08827538 -0.04276507 0.1541939 0.107257694
-0.008150849 -0.19893882 0.0737338 0.17461622 -0.13707644 0.102243155 0.19272578 0.058444858
0.18621834 0.23712303 0.16618437 0.036236994 -0.018555814 0.19550791 -0.18043031 -0.094891734
0.0042033475 0.033877525 0.07776762 -0.08966291 -0.22974434 -0.0047630025 0.092344716 0.0018009567
-0.03245095 0.26583746 -0.12685587 -0.21060048 0.01752775 0.06346877 0.12486711 -0.0672113
-0.1231332 0.07337803 -0.02851292 -0.028992001 0.173754 0.09316566 -0.18169163 0.10025161
0.16209939 -0.13155991 -0.11824227 0.047226407 0.073320754 0.13302964 -0.12951031 0.12036327
0.16990985 0.1099314 -0.21684371 -0.078935675 -0.010369008 -0.15503673 0.11754487 -0.09960766
-0.03029409 -0.12333956 0.13846669 -0.0448854 0.19017099 0.23196515 -0.09690518 -0.004604431
0.12420375 -0.15725233 -0.12702361 0.0021655613 -0.028249025 -0.064308435 -0.31193218 -0.01829129
-0.044101227 0.14094317 0.23203686 -0.12801874 -0.2889849 -0.123941705 0.06299144 0.11161976
0.004756637 -0.2945497 0.09326781 0.03267737 0.0016599789 0.05875994 0.04602934 -0.11098073
0.205583 0.07710079 -0.2179761 0.14964756 0.0093549285 0.09491541 0.030765368 0.099816926

critic.2.bias f4 [256]
00000000: 2480 8ebe d1a4 81be 3568 bbbe 6dbe 9abe
00000010: 8814 9bbe 8f83 9fbe 8c0a 9bbe dd8c 42be
00000020: ef84 abbe 815c 96be 9b36 62be 03ca 72be
00000030: d9af c6be 0962 35be df7e c3be b403 afbe
00000040: 6843 85be aa78 8fbe 8245 98be 92a1 83be
00000050: 6c99 7bbe 8830 5abe b850 b4be bbe3 a1be
00000060: 62a9 95be e114 82be bff0 a2be e69b a8be
00000070: 36d1 93be 414e 87be 775c 89be c6c6 84be
00000080: 1f31 8dbe d167 82be 5365 93be 114b 9dbe
00000090: ea51 8cbe eab2 92be b6f1 7ebe a8dd b5be
000000a0: 44c1 a0be 4635 8abe 6c9d 92be 3532 83be
000000b0: 2216 b5be f41c c1be 740a a0be 2ef7 9dbe
000000c0: 537c 70be 2517 81be eb65 4fbe 9288 49be
000000d0: a463 73be d2c8 8ebe b309 78be 2405 80be
000000e0: ae99 5bbe c03a 62be 49f6 9abe b6b6 27be
000000f0: ca1d 06be bffb 88be 2b1d 98be b430 53be
00000100: ae97 85be a895 abbe e441 8fbe 5d9d bbbe
00000110: afd0 5dbe bcc7 91be df8d 92be e67f bcbe
00000120: 14b5 a4be cd90 a5be 8185 79be 85bf a6be
00000130: 9447 a3be bdb1 81be ecd5 91be 2ef5 afbe
00000140: 5ecf a4be b44b 89be 82ec afbe 658c a5be
00000150: e4b7 b9be 20a5 90be 0486 48be 8bd4 b1be
00000160: 3a95 b3be 9350 b7be cbca bb3b 0ade e8be
00000170: 8a12 ccbd 5cd4 80be 2afc a9be 8f10 85be
00000180: 2a2d 7bbe 81a9 8cbe 9722 6ebe a022 7bbe
00000190: 70bb 94be 1f05 63be 3367 85be 0db5 64be
000001a0: 40fe a4be ab69 51be 4c03 5ebe f0db 93be
000001b0: 64bf 94be 20bb 51be 32ad 99be e1a7 b8be
000001c0: 8f1d 9fbe 24e6 6bbe 2835 a4be e347 9dbe
000001d0: 9abc 6cbe 72bf 8fbe 793d 75be d605 aebe
000001e0: 93f9 59be d658 9abe 28ba 8dbe 848d 82be
000001f0: b883 98be 297a 40be b6f7 a0be 7425 91be
00000200: 7026 8dbe 0361 a7be 0295 84be 114e 80be
00000210: 8da9 77be b5a3 afbe 7826 89be 7928 96be
00000220: 8b38 a7be d561 2abe acf5 bdbe 76d8 49be
00000230: 8065 8abe 45b8 a2be 7c6e 59be ebd7 93be
00000240: a6b5 67be c328 5bbe 0615 92be e63d f73c
00000250: 1511 57be 29de c2be 812a 74be be75 75be
00000260: f040 94be e115 cbbe 1790 5cbe d823 6fbe
00000270: a900 95be 4d2b 8fbe 7dc5 a1be b65f 88be
00000280: ae8a 75be 21d5 81be c178 97be 8910 43be
00000290: 4df2 70be ea64 9abe 2e29 a7be f2eb 6fbe
000002a0: 2c13 a0be 2fb4 a6be 3e3c 8ebe 8779 bdbe
000002b0: acf3 a1be 9d71 7fbe 91c8 09be 03df 9dbe
000002c0: c5f8 9bbe f054 83be 4f58 38be 2fd7 9bbd
000002d0: 67d3 23be 73a9 93be 0453 a6be e9f4 8abe
000002e0: deaa 81be c83f 75be 8540 a5be c91d 6fbe
000002f0: c9ab 8abe 271d 8abe 2d46 90be f71e a4be
00000300: 6b67 8bbe 87ac 98be 7040 85be b063 6fbd
00000310: 5fbf 9ebe c801 8ebe 6c08 87be 2eb5 b1be
00000320: 53d6 a4be bf70 8abe c4cb bcbe e8b9 94be
00000330: f78c 0cbe 7694 74be 0774 8cbe efb3 acbe
00000340: e890 96be 50d0 80be 1db4 7fbe f74b 90be
00000350: 511b 6cbe ac56 96be f3d7 62be 8b10 95be
00000360: 43bf b6be dd4c 19be aaec c1be fdfd 8bbe
00000370: 32dc 71be 62ff 2dbd bb27 41be 3236 81be
00000380: 3c67 83be c88f 91be effa 49be badf 86be
00000390: bee8 9fbe 65c0 79be debf 8dbe 65af 76be
000003a0: 5855 29be aade 88be 225c 6fbe ed15 82be
000003b0: 5ada c1be ef0e 5dbe 9300 74be 1a8f 98be
000003c0: 4065 583d 0007 9abe 3dfb 6abe 829d 5cbe
000003d0: 4a12 4abe 2ddc 49be e523 8cbe 6ef7 8ebe
000003e0: 515e 6bbe b67e 9ebe 54e6 8ebe a41b 53be
000003f0: e6ec 68be e637 8cbe e64a 9cbe 1caa 8bbe
-0.2783214 -0.25321057 -0.3660294 -0.30223408 -0.30289102 -0.3115506 -0.30281484 -0.18999048
-0.33499858 -0.2936745 -0.22091143 -0.23709874 -0.38806036 -0.17713179 -0.38182732 -0.34182513
-0.2602799 -0.28021747 -0.2974053 -0.25709206 -0.24570245 -0.21307576 -0.35217834 -0.31619057
-0.2923079 -0.25406554 -0.318243 -0.3293144 -0.28870553 -0.2642689 -0.26828358 -0.25932902
-0.2757654 -0.2546983 -0.28788242 -0.30721334 -0.27406245 -0.28652126 -0.24896893 -0.35520673
-0.3139745 -0.2699377 -0.28635728 -0.25624242 -0.35368448 -0.37717402 -0.31257975 -0.30852646
-0.23484926 -0.2521297 -0.20253722 -0.19681004 -0.23768479 -0.2788759 -0.2422245 -0.25003922
-0.21445343 -0.22092724 -0.30266026 -0.16378292 -0.13097301 -0.26754567 -0.29709753 -0.20624048
-0.26092285 -0.33512616 -0.27979958 -0.36643496 -0.21661638 -0.28472698 -0.28623864 -0.3681633
-0.32169402 -0.32337037 -0.24367334 -0.32567993 -0.31890547 -0.25330916 -0.28483522 -0.34366745
-0.3218946 -0.2681557 -0.3436013 -0.32333675 -0.3627311 -0.2825098 -0.19582373 -0.3473247
-0.35074788 -0.3580366 0.005730962 -0.45481902 -0.099644735 -0.25162017 -0.33200198 -0.25989196
-0.24528947 -0.2747307 -0.23255382 -0.24524927 -0.29049253 -0.22169922 -0.26055297 -0.2233469
-0.32225227 -0.20450465 -0.21680945 -0.28878736 -0.2905227 -0.20481539 -0.3001495 -0.3606558
-0.3107724 -0.2303701 -0.32071805 -0.30718908 -0.23118821 -0.2807575 -0.23949231 -0.33988827
-0.21286611 -0.301459 -0.27681088 -0.25498593 -0.29787993 -0.187966 -0.31438988 -0.28348887
-0.27568388 -0.32691202 -0.25894934 -0.2505956 -0.24185772 -0.34304586 -0.26787162 -0.29327753
-0.32660326 -0.16638882 -0.37101495 -0.1971148 -0.27030563 -0.31781211 -0.21233553 -0.2887567
-0.22627887 -0.21402268 -0.28531665 0.030180883 -0.2100261 -0.3806012 -0.23844339 -0.23970696
-0.28955793 -0.3966513 -0.21539341 -0.23353517 -0.29102066 -0.27962723 -0.31595984 -0.26635522
-0.23978683 -0.25357917 -0.29584315 -0.19049276 -0.2352993 -0.30155116 -0.32648605 -0.2342985
-0.31264627 -0.32559344 -0.27780336 -0.3700678 -0.3163122 -0.24945684 -0.13455416 -0.30834207
-0.30463234 -0.2565074 -0.18002437 -0.076094024 -0.15998612 -0.28840217 -0.3248521 -0.27139977
-0.25325674 -0.23950112 -0.32275787 -0.23351206 -0.27084187 -0.26975366 -0.2817854 -0.32054874
-0.2722734 -0.29819128 -0.26025724 -0.05844468 -0.3100538 -0.27735734 -0.26373613 -0.34708542
-0.32194766 -0.27039143 -0.3687421 -0.29048085 -0.13725649 -0.23884758 -0.27432272 -0.33731028
-0.2940743 -0.2515893 -0.24971052 -0.28182957 -0.23057295 -0.29363 -0.2215269 -0.29114184
-0.35692796 -0.14970727 -0.37875873 -0.27342215 -0.23619154 -0.04247988 -0.18862812 -0.2523666
-0.256647 -0.2843001 -0.1972463 -0.26342565 -0.31232256 -0.24389799 -0.27685446 -0.24090345
-0.16536462 -0.2673238 -0.2337499 -0.25407353 -0.37861902 -0.21587728 -0.23828344 -0.29796678
0.052830935 -0.30083466 -0.22947402 -0.2154446 -0.19733539 -0.19712897 -0.27371135 -0.2792315
-0.22985198 -0.30956048 -0.279101 -0.20616013 -0.2274662 -0.27386397 -0.30525893 -0.2727822

critic.4.weight f4 [1, 256]
00000000: a6fb d2bd a1df 08bd 7271 63bd e047 27bd
00000010: f1c4 a33d 0744 aa3d 71cb c13c b453 02bd
00000020: a641 923c c964 b23c 3606 84bd 8ebe d63b
00000030: 8b46 413d 14f4 fcbd 42be 213d abb3 d23d
00000040: 96ab c3bc d188 c33d edf3 ccbd d471 99bd
00000050: da5f d63d c55a 86bd c4e7 f9bd b22c b53d
00000060: 4005 debd fe73 d73c 493f 3d3d f3bb 883c
00000070: 9ce1 afbd 3814 af3c 8956 0ebc 45a8 613a
00000080: 1ce4 4d3c 59c3 d8bd 2fd6 49bc cd82 31bd
00000090: ab43 433e 28c6 bbba 5761 573d 67ac 133d
000000a0: 910a 0abd ea1a 36bc 0a73 7dbd 7e17 bdba
000000b0: e445 1f3c 37ca 78be 0598 093e c216 d63d
000000c0: df3f cabc ccda d2bc a28e 2bbd c4dc 5a3e
000000d0: d661 933d d515 f7bc 86b7 2fbb cd21 233e
000000e0: 192f 613e 6dd4 353d 2988 2d3d b223 59bd
000000f0: 909a 3d3e 8cc1 0b3d 52f8 a53d 2046 01be
00000100: dfac babd 2585 c53c cd25 833d a1d7 8fbd
00000110: b4ee 78bd 6a00 31bc d8b7 7c3d b24c ac3c
00000120: 7130 543c 040f 873e b22d c03c 7629 febc
00000130: 2c32 a2bd e12b a63d 962a a4bd f9ef a63b
00000140: a2f5 0ebd d412 fcbc c2ae c6bc 8aee 26bd
00000150: 717e fcbc 4152 aabd 44df 51bd ebcc 73bd
00000160: 4e39 173b e831 2cbe fd08 443d c2d8 1fbe
00000170: 95e4 cdbc 9bc3 d2bc 7e48 03be 4933 193e
00000180: 1021 473d 78a9 a93c e07a 6c3d 4f49 2dbc
00000190: 7711 ff3c 7444 9fbc 5455 1c3c 4dbd 5abd
000001a0: 231d 1ebd 923b 043e b3ec 31be 3bb4 3bbd
000001b0: 4b58 85bd 3ba1 0bbe fa4f a3bb 48a7 2abe
000001c0: 2352 f23b ac92 003e 0f0e 303c 0713 cc3c
000001d0: 13c7 ef3d 4ed3 403e d2b9 273d 8b46 37be
000001e0: 386e ebbc bf52 e93c 11a2 b13d 2eaf 333d
000001f0: 9ebf b0bd d297 08bc c2bf 02be 3a74 d0bd
00000200: 8f65 66bc d2a9 59bd 6b4d 27bd c759 5e3d
00000210: b462 d63d fa81 d33d 9f97 5dbd f336 b73d
00000220: c4d9 2e3b c455 883d edd9 c83c 7bb1 ccbd
00000230: 2dd9 72bd 1bb7 fabd 2971 9dbc 57d4 2bbe
00000240: a8ee 37be 8667 173e 2c28 b0bd 4c7e 4fbd
00000250: 29c5 dabd cd23 3f3d 1a9e 20be 796b efbd
00000260: e7d6 8cbd 6115 3ebd c022 5abe 9c04 82bd
00000270: 562a 373d 825b babd 7221 b03c d2c1 5e3d
00000280: 6b4a 00be ee4a 533d 6e65 3e3c f177 e6bd
00000290: 858f ecbc ce55 e8bc 3484 7abd c576 313d
000002a0: b6ec c63c 035d 7a3d d6e1 cdbd e9ee 4d39
000002b0: b1f3 3fbc 836e 82ba b844 203e 4965 ddbc
000002c0: b57c cb3c 10a1 d93d 175c 2f3d 7d52 6cbd
000002d0: f22c 463e 3d2d c93c 4e08 163a eda6 9fbd
000002e0: 84d7 973d 2688 03bd 9e5c 84bd 8816 073e
000002f0: c4b2 08bd 2bf9 cc3d 3d02 57bd 0f90 9bbc
00000300: d184 2f3e 18d8 61bc 8239 683d 7d0a 413d
00000310: e8cf 813d 41eb 38be d1c1 5bbe 634d f1bc
00000320: c48a c4bd 0cba b4bb 3a55 263d 2b0d 40bc
00000330: 3492 f53d ef67 16be c64d 9ebd 02b7 a03d
00000340: faff 76bd 9d35 92bd 772e 4a3d c96e 1d3d
00000350: fa56 d9bd 8777 353e 8df6 2b3e 8ff7 2f3e
00000360: d3b6 c5bc ec1e a03d 6c78 c9bb 0e8e 2abd
00000370: 2f94 35bd 83b1 a9bd 27cf 943c 241f 503e
00000380: 3ed5 833d 5e76 30bd d803 71be a353 b13d
00000390: 11a0 c1bd 38bf 9fbd 5fce 8cbd 9903 0f3e
000003a0: 3c5e a13d f07e 513a b1de adbd 4b32 b4bd
000003b0: 1f6e 003d f93a 7abd abe8 2c3e e754 6cbd
000003c0: 9244 2abe d7a7 88bc 2660 09bc a62c f4bd
000003d0: 68dc f23d 03a6 383e 6c4d bebd ff94 c83d
000003e0: 1084 8abd bbd4 8a3d 1751 d7bc c417 46bd
000003f0: 59b7 bd3d 22f0 d43d c5f7 4a3d 6363 9abb
-0.103019044 -0.033416394 -0.05552811 -0.04084003 0.07996548 0.083137564 0.023656579 -0.031818107
0.01785357 0.021776574 -0.06446497 0.0065534776 0.047186416 -0.12351242 0.039488085 0.10288175
-0.02388553 0.0954758 -0.10007463 -0.07492414 0.10467501 -0.06560282 -0.12202409 0.088464156
-0.10840845 0.026300427 0.04620293 0.016691184 -0.085879534 0.021371946 -0.008687624 0.0008608143
0.012566593 -0.105841346 -0.012319132 -0.043337632 0.19068782 -0.0014326023 0.052583065 0.036053088
-0.033701483 -0.011114815 -0.061877288 -0.0014426557 0.009721253 -0.24295889 0.13436897 0.104535595
-0.02468866 -0.025739096 -0.041884072 0.21373278 0.07196395 -0.030161778 -0.002681227 0.15930863
0.21990623 0.044392038 0.04236618 -0.053012557 0.18515992 0.034120128 0.08104004 -0.12624407
-0.09115004 0.02411134 0.06403694 -0.0702355 -0.06077452 -0.010803321 0.061698765 0.021032665
0.012951002 0.26378644 0.02345929 -0.03102563 -0.07919726 0.08113838 -0.08015935 0.005094525
-0.034902222 -0.030770697 -0.024253253 -0.040754832 -0.03082201 -0.0831647 -0.051238313 -0.059521597
0.0023074928 -0.16815913 0.047860134 -0.1561003 -0.02513341 -0.025728038 -0.12820622 0.1496097
0.048615515 0.020710692 0.05773437 -0.01057656 0.031136258 -0.01944182 0.009541828 -0.053403188
-0.038602006 0.1291335 -0.1737545 -0.045826178 -0.06510981 -0.13635723 -0.004983899 -0.16665375
0.0073950454 0.12555951 0.010745539 0.024911417 0.11707892 0.18830606 0.040948696 -0.17898004
-0.02873908 0.02848184 0.0867349 0.043868236 -0.08630298 -0.008336978 -0.12768462 -0.101784185
-0.014062299 -0.05314047 -0.040845316 0.054284837 0.10468045 0.103275254 -0.054099675 0.089460276
0.0026680091 0.066569835 0.024517978 -0.09994789 -0.059289146 -0.12241956 -0.019218998 -0.1678022
-0.17962134 0.14785585 -0.08601412 -0.050657555 -0.106821366 0.046665 -0.15685311 -0.11690421
-0.06876927 -0.046407107 -0.21302319 -0.063485354 0.04471811 -0.09099485 0.021500323 0.05438406
-0.12528388 0.05158513 0.011620862 -0.11253346 -0.02887703 -0.028361227 -0.061161235 0.043326158
0.024282794 0.06112386 -0.100528404 0.00019639324 -0.011715815 -0.0009951148 0.15651214 -0.027025836
0.024839738 0.10626423 0.042812433 -0.057695854 0.19353083 0.024557704 0.00057232834 -0.077955104
0.07414153 -0.032112263 -0.06462978 0.13192189 -0.03337361 0.100084625 -0.05249237 -0.01898959
0.17140509 -0.013784431 0.05669547 0.047129143 0.06338483 -0.18058492 -0.21460654 -0.029455846
-0.0959678 -0.0055153426 0.040608622 -0.0117218895 0.11990777 -0.14688085 -0.07729678 0.07847406
-0.060302712 -0.07139132 0.04936072 0.03843573 -0.106122926 0.17721377 0.1679327 0.1718428
-0.024135029 0.07818398 -0.0061483886 -0.04163938 -0.044330772 -0.08285811 0.018165184 0.20324379
0.06437157 -0.043081634 -0.23536623 0.086585306 -0.09454358 -0.07800144 -0.068753 0.13966216
0.07879302 0.00079916324 -0.08489741 -0.08798655 0.03135502 -0.061091397 0.16885631 -0.057698157
-0.1662772 -0.016681595 -0.00838474 -0.119225785 0.118584454 0.18032078 -0.09292111 0.09794044
-0.0676347 0.06778856 -0.026283784 -0.04836251 0.092634864 0.10397364 0.049552698 -0.004711555

actor.0.weight f4 [256, 162]
00000000: 56d5 e2be db6d 63be 4cad 38bd 3c78 e6be
00000010: 8d98 79be bf22 e9be 81fe b9be 166f 653e
00000020: a280 383e 0564 81bf 2265 7bbe e5d0 df3d
00000030: 2ef4 36be fd26 363e 5cf9 f1bd 7a97 16bf
00000040: af03 383e 8b2a 96be 0e94 00be b2f7 a33d
00000050: 84fc 90bc b44f e53c 6d9a a9be 2f73 7bbe
00000060: 0c45 84be 01d2 abbd f9f9 4a3d efc8 d53d
00000070: 15cb a2be ae8d d63e 6d78 933e 8621 21bf
00000080: d729 693e d9d1 98be e936 583e 2b13 063f
00000090: 04db ae3d 79a7 893d 4838 37bc 1dae ef3e
000000a0: 99a6 47bd 0334 cb3e ce1c e53e 784a 85be
000000b0: 4033 38bd 0907 563e 59a1 c63e 9980 32bf
000000c0: 746c 363f 40ee b2bc 9d8b 7abf 3122 8d3e
000000d0: 85f4 193e ba57 2abe dacf 01be d268 0a3f
000000e0: 4f60 43be ce43 7d3e be17 b2bd d980 0dbd
000000f0: 525e e6be 46ac 5abd 2aaf 06bf d358 f23d
00000100: 36de 203d edaa 833e 6440 10bf 95be 453e
00000110: 11df a13d 747c 8d3d 4017 88be aef2 0fbd
00000120: 3445 223f cacf 78be f9a5 973e 9681 82be
00000130: b188 a63e 1f63 943e a719 e73e 4603 3e3d
00000140: b7d1 39be 910d 1c3b 6cef b8be b07d c43e
00000150: 3966 953e 9973 a0be ed91 d23e 458b c1be
00000160: 497c 833e c7e7 e83e fe72 92be 8daa 263e
00000170: 79d6 8ebe 4b38 4bbd af6c 283f 6d13 8e3e
00000180: fda3 4fbe d971 81bd e6e0 e0be e968 93be
00000190: 1988 9a3d be58 a8be 2b14 79bf f35e 54bf
000001a0: 745a 5abf 735e 81bf cd3f 66bd cf20 11bf
000001b0: f442 073f 9b18 69be 35a0 a73d b14a fb3d
000001c0: 3511 a73d 5835 723f ab0a 49be 8210 203f
000001d0: b32d 8a3c 5164 383f 4e97 213e d85d ba3e
000001e0: 47b4 24bf 2479 40be a0f6 92be 3ca4 403e
000001f0: af76 913e 17f5 e2bb 2d7a 82be 3431 3fbd
00000200: 7559 b5be 8ddd 0dbb 2236 483f 0463 13bd
00000210: 4836 09be c1ff 4a3e 727c 423f 5022 f6be
00000220: 2f89 5e3e e07b 4dbe 8818 60bd f1ca d8bd
00000230: aba5 af3e 3c84 f83e 3d8c be3e 05a7 573e
00000240: 4b07 bfbd 7cd7 f03e 898e 6dbe 722c ab3e
00000250: 4045 96be 1d4b 9c3e fa98 c2be 4cd2 9abe
00000260: 78b5 6cbf f2cd 673e 544a 8a3e 6ef2 f2bb
00000270: bd14 003d b2fb 22be 3220 7b3e 0f66 9ebe
00000280: c3b7 8abc 6642 46bc 730f 41be 6b2b ffbe
00000290: 5cda 7e3d 6f87 3bbe dc55 18be fa92 ad3d
000002a0: 8029 bebd 2a91 b53e 599b 1fbe 1315 debd
000002b0: dd9d 26be b88f 91be b732 683e 2a08 b5be
000002c0: 9e24 c13c 0624 f7be b1e5 f43e 7f07 37bf
000002d0: a3ac 47bf f924 1d3e a7bf 443e 70dd b7be
000002e0: 7687 953c a64d 57be c9bb c53e a41e 3c3e
000002f0: c8f6 063f 3578 83be 16d3 15bd 4bd1 06bf
00000300: 9d72 c83d d8b2 32be 65e8 c4bd 4ce7 9bbe
00000310: 6dd2 17be bc7e 5b3c 8ed0 803e 56c2 42be
00000320: 60bd 46be c755 383f ac73 1bbd 3d6d 5c3e
00000330: 8c6b fdbe 7457 7e3f 6068 bc3e 8182 193e
00000340: 208d b0be 6e08 b73d 8fff 18bf 093a aa3d
00000350: 06a7 8d3e 0e0b 00be 9a74 43be aefe 19be
00000360: d42e 543c 27c3 1a3f 5410 9f3e 6132 673e
00000370: 3bc3 613f 948c b93d d7c2 02be 6778 24bf
00000380: af81 f83e 3897 bb3d d1eb 52bf e63b 5dbe
00000390: c902 073e ef11 593f 0ba3 61bf d57d fbbe
000003a0: a0c1 fd3d 36a6 823d c0c1 81be f08a 9bbc
000003b0: 32f1 cdbe 8f00 f83e 94d7 99bb e7ff 02be
000003c0: b438 c8be 2e08 11be baab 5ebf af5b 42be
000003d0: 110c b43c 0158 05bf c0ca 1dbf 039e 66bd
000003e0: 96ba ed3e de30 37be 128f f7bd b64a f4be
000003f0: 53b2 a7bd 56be ec3e 3175 723e e391 35bf
-0.44303387 -0.22209875 -0.045087144 -0.45013607 -0.243746 -0.45534322 -0.36326984 0.22405657
0.1801782 -1.0108649 -0.24550298 0.10928515 -0.17866585 0.1778831 -0.1181514 -0.58824885
0.17970155 -0.29329333 -0.12556478 0.080062285 -0.017698534 0.027992107 -0.3312563 -0.24555658
-0.2583393 -0.083896644 0.0495548 0.10438716 -0.31795564 0.41904968 0.28802815 -0.6294178
0.22769867 -0.298476 0.21114697 0.52373 0.08537868 0.06721396 -0.011182852 0.46812525
-0.048742864 0.3968812 0.4474854 -0.26033378 -0.04497075 0.20901121 0.38794973 -0.69727474
0.71259236 -0.021842122 -0.9786928 0.27565148 0.15034683 -0.16635028 -0.12676945 0.54066193
-0.19079708 0.24732897 -0.08695935 -0.034546707 -0.44993836 -0.05338695 -0.5261103 0.11833348
0.039274417 0.25716344 -0.5634825 0.19310983 0.07903875 0.06908503 -0.26580238 -0.035143547
0.63386846 -0.24298015 0.29618815 -0.2548949 0.32526162 0.28981873 0.4513676 0.04638984
-0.18146406 0.0023811797 -0.36120164 0.38377142 0.29179552 -0.31338194 0.41126958 -0.37801567
0.2568076 0.45489332 -0.28603357 0.16275997 -0.27898005 -0.049614232 0.6579084 0.27749196
-0.202774 -0.06320543 -0.43921584 -0.28790978 0.0754549 -0.32880205 -0.972964 -0.8295738
-0.8529427 -1.0106949 -0.05621319 -0.56690687 0.5283654 -0.22763292 0.08184854 0.12270106
0.08157579 0.94612646 -0.19632976 0.6252519 0.016867494 0.7202807 0.15780374 0.36399722
-0.6433758 -0.18796211 -0.28703785 0.1881265 0.2841086 -0.0069261896 -0.25483838 -0.046677783
-0.35419813 -0.0021646947 0.782076 -0.0359831 -0.13399613 0.19824125 0.7597114 -0.48073053
0.21732019 -0.20066786 -0.054710895 -0.10585583 0.34306082 0.48538387 0.37216368 0.21059807
-0.09327563 0.47039402 -0.23198904 0.33432347 -0.2934971 0.30526057 -0.38007337 -0.3023857
-0.924644 0.22637156 0.27009833 -0.007414154 0.031269778 -0.15916327 0.24524 -0.3093724
-0.016933328 -0.012100792 -0.1885355 -0.49837813 0.062219962 -0.18313383 -0.14876503 0.08475299
-0.09285259 0.35462314 -0.15586604 -0.10843863 -0.16271158 -0.2842996 0.22675596 -0.3535779
0.02357703 -0.4826967 0.4783149 -0.71495813 -0.779978 0.15346135 0.19213735 -0.3591113
0.01825307 -0.21025714 0.3861983 0.18371063 0.5272031 -0.25677648 -0.03657826 -0.52663106
0.09787486 -0.17451036 -0.09614638 -0.30449903 -0.14826365 0.013396915 0.25159115 -0.19019446
-0.19408178 0.72005886 -0.03795211 0.21526046 -0.49496114 0.9935219 0.36798382 0.1499119
-0.3448267 0.08937155 -0.5976495 0.083118506 0.2766649 -0.12504217 -0.19087449 -0.15038559
0.012950618 0.6045403 0.31067145 0.22577812 0.88188523 0.09060016 -0.12769638 -0.6424622
0.4853644 0.09159702 -0.8239108 -0.2160488 0.13184656 0.8479299 -0.8813941 -0.4911944
0.12390447 0.063793585 -0.25343132 -0.018987149 -0.4022308 0.48437926 -0.0046948884 -0.12792931
-0.3910576 -0.14163277 -0.86980784 -0.18980287 0.02197841 -0.5208741 -0.61637497 -0.056303035
0.46431416 -0.17889735 -0.12087835 -0.4771325 -0.081883095 0.46238965 0.23677517 -0.7092573

actor.0.bias f4 [256]
00000000: 7abb 39bb aeb8 91bd 45ab 32bf 573c 59be
00000010: 504d 47be 50aa 923d 856b 8cbe 7c35 0dbc
00000020: 6692 bebd a24a 74bc 5494 eebd 2cee c6bd
00000030: 0373 f33d 6e12 d7bd 8894 61be 0a67 81be
00000040: 19b0 6cbe e31c a2be 0b6d 7ebe c9cc d6bd
00000050: a492 81bd b56b 9c3d b34c 05be a06e d4bc
00000060: 8612 183e 306f 49be f2ea a3be 199a 06be
00000070: 3f54 dc3d f506 a4bd 1d97 d9bd 0cc0 ae3d
00000080: 3e5d debd 9942 93be d516 a13d 2bf4 2fbe
00000090: 22d5 86be 26a1 6fbe 7698 25bd 7948 863b
000000a0: 02e1 27be 05bf a6be b451 00be 9c1d 0e3d
000000b0: bba7 1cbe d68d 14be 09db c8be 3b82 1ebc
000000c0: 5f2e 123c 9353 0abd dded 1f3d 69d5 61be
000000d0: 9680 02be 0367 5cbe 07e6 98bd f61e 4abe
000000e0: 1505 7c3d 61ce 183d ed54 8abe 8b3b 16bf
000000f0: f649 e0bc f929 91be 8f70 6a3d bc96 48be
00000100: c772 ed3d b4d8 093e cb23 2cbc b800 e43a
00000110: 0a0d d8bd 03da b9be 4608 1f3d c4df f9bd
00000120: c4b3 e1bd a884 35be 80b4 99bd 44df 4f3d
00000130: f617 893d 8bf0 3abe 8bf8 75be 5bc8 acbe
00000140: 46af e9bd 053c bbbd 49ee c9be ea76 213c
00000150: 678c 8abb 1db5 0ebe 18db 80bd 5a70 89be
00000160: 8fe0 073e 76cd 41be e78e 283e 78e1 6b3d
00000170: 0dcd 06be bc76 95be 7cd2 a3be 7d7e 7e3d
00000180: ca49 213d 3627 ecbd 25be 76be fb60 c7bd
00000190: c774 a2bd bdd3 ba3d 22a6 5cbe 414e ddbe
000001a0: 7bba af3d 14cb 383e bacd d1be 084e 5fbd
000001b0: a35d 42bd eead 87be 2d06 e6bd 32fc f23c
000001c0: 2adc d1bd e58d babd 542e 02bf deb1 9abd
000001d0: aa09 31be 4f8b 82be dc9f 36be ac47 83be
000001e0: a8b8 313d b21a febc 4e08 7cbd 730b 80bd
000001f0: 80ad 983c a738 88bd ce08 9abd 65d2 0b3e
00000200: 3dbf 31bc e60a 19be 75e0 2c3e 8804 c5bd
00000210: 7c3f 43be cbf8 47be a5c3 c8be 81ea f4bd
00000220: b601 c3be 2865 f2be 8130 9abe 0522 82be
00000230: 182e 44be 6a33 3a3e 6a37 29be f4b5 853d
00000240: f275 fdbd 804b 83bd 4364 89be d772 083d
00000250: 1018 84be edc9 22bb a5fa 3abf ca65 cbbd
00000260: 7a8d e9bc 06fc 24bb 40f0 49be 19ba 9bbe
00000270: 8418 bdbe 0b0e 05bf 1a65 043e 75e4 ac3d
00000280: 0a1e e5bd f6ae bf3d 2b2c 873d a12c 443d
00000290: cdef 693d 1958 7dbd b119 c0be 0170 2bbe
000002a0: c07c cdbd 2648 91be 89a9 babe a1b4 7ebe
000002b0: c0ae c6be b4c5 b3be a098 263d 9c73 b1bd
000002c0: 2d4b 27bd 596f f43d ca06 c23d b13a 3f3d
000002d0: 3271 1abf 3652 5dbe c402 e03d 94d8 163d
000002e0: 5d33 95bd 6403 3abf bdc2 d0bd a239 a6be
000002f0: eb8f 323d 7001 cbbe 974f ccbd 7d46 e8be
00000300: 10d4 b4be d7c9 a03d 670c 99be d17f 47be
00000310: 7968 8bbc 0950 ff3c b5bb a9bd fe5f ccbe
00000320: 78a4 6abd 18a8 453d 2419 f03d 5bc6 01be
00000330: dcc5 0bbe 5465 d1bd cc11 d7be 2114 3d3a
00000340: 974c 00be d6e4 17be ee0a 4ebd 92fd 0fbe
00000350: 5d24 71be 30f0 6cbe 2a69 e53c 744d b2be
00000360: 72ce 57be 9a0b 21be 1a17 22be 3ba5 c6be
00000370: f3ea 72bd b24f b1bd add4 0cbe 351a 7ebc
00000380: e3ec 1dbe c984 4dbe f5ce 5fbe e017 ccbd
00000390: 4516 cabd 0c89 7fbe 3959 b63c c8c0 febc
000003a0: 1d8a d3be 832c 02bf 1894 0d3e ca43 c5be
000003b0: b775 e0be 164b 87be d4a9 3bbd c349 6cbe
000003c0: 4f0b f5be 7a58 75bd 58f0 5c3d 68d4 87be
000003d0: a640 bdbd fdc8 8ebe 77dc 66be cde8 c6be
000003e0: bcdd 30be 41f6 1ebe da15 983d 298d 1ebe
000003f0: 287f 05be c853 bfbd 4db0 c1be 864a 75be
-0.0028340505 -0.07115303 -0.69792587 -0.21214424 -0.19463086 0.07161391 -0.2742578 -0.008618709
-0.09305267 -0.014910372 -0.11649385 -0.097133964 0.11887171 -0.10501562 -0.22029316 -0.25273925
-0.23114051 -0.31662664 -0.24846284 -0.104882784 -0.063267976 0.07637731 -0.1301754 -0.025931656
0.14850816 -0.19671321 -0.32015187 -0.13144721 0.10758256 -0.080091394 -0.10624526 0.08532724
-0.10857628 -0.28761747 0.07865683 -0.17182986 -0.26334482 -0.23401317 -0.0404286 0.004097995
-0.16394427 -0.3256761 -0.12531167 0.034696206 -0.15298359 -0.14507231 -0.3922961 -0.009674604
0.008922189 -0.03377111 0.039045203 -0.22054066 -0.12744364 -0.21523671 -0.07465749 -0.19738373
0.061528284 0.037306193 -0.27017918 -0.58684605 -0.027379017 -0.28352335 0.05723625 -0.1958875
0.11594158 0.13461572 -0.010506581 0.0017395234 -0.10549362 -0.36299142 0.03882625 -0.12200883
-0.11020616 -0.17726386 -0.07505131 0.050750032 0.06694023 -0.18255822 -0.24020593 -0.3374661
-0.11410384 -0.09142307 -0.3943961 0.0098550115 -0.004228163 -0.13936277 -0.06291789 -0.2684353
0.13269256 -0.18926033 0.16460763 0.05758807 -0.13164158 -0.2919215 -0.31996524 0.062132347
0.03937701 -0.115309164 -0.24095972 -0.097352944 -0.0793243 0.09122417 -0.2154775 -0.43223765
0.0858049 0.18046218 -0.4097727 -0.054517776 -0.04745258 -0.26499885 -0.11231647 0.029661272
-0.10247071 -0.091090955 -0.5085194 -0.07553457 -0.17288843 -0.2549691 -0.17834419 -0.2564062
0.043388993 -0.031018589 -0.061531357 -0.06252184 0.018637419 -0.066514306 -0.075212106 0.13654478
-0.010848817 -0.14945564 0.16882499 -0.09620005 -0.19067186 -0.195285 -0.39211765 -0.119587906
-0.38087243 -0.473428 -0.3011513 -0.2541658 -0.19158208 0.18183675 -0.16525045 0.065288454
-0.12376012 -0.06410885 -0.26834306 0.033312645 -0.25799608 -0.0024839595 -0.73038703 -0.09931524
-0.028509844 -0.0025174632 -0.19720554 -0.3041542 -0.36932766 -0.5197455 0.12929192 0.08442012
-0.1118737 0.09359543 0.06600221 0.047894124 0.057113457 -0.061851595 -0.375196 -0.16741945
-0.1003356 -0.28375357 -0.3645747 -0.24873592 -0.388052 -0.35111773 0.0406729 -0.08664629
-0.040843178 0.119353004 0.09473951 0.04668683 -0.6032897 -0.21613392 0.109380275 0.03682764
-0.072851874 -0.72661424 -0.101933934 -0.32465845 0.043594282 -0.39649534 -0.09976118 -0.45366278
-0.3531804 0.07850998 -0.29892275 -0.19482352 -0.01701759 0.031166093 -0.082877554 -0.39916986
-0.057285756 0.04825601 0.11723545 -0.12673323 -0.13649696 -0.10224405 -0.42005765 0.0007212777
-0.12529217 -0.14833388 -0.050303392 -0.14061573 -0.23549028 -0.231385 0.028004248 -0.34824717
-0.21074846 -0.15727082 -0.15829125 -0.38797936 -0.059306096 -0.08657779 -0.13753004 -0.015509178
-0.15422396 -0.20070185 -0.21856292 -0.09965491 -0.09867529 -0.24954623 0.022259342 -0.031097785
-0.4131631 -0.5084917 0.13826025 -0.3852828 -0.4383981 -0.26424474 -0.045816258 -0.23075013
-0.4786019 -0.05989883 0.053940147 -0.2652924 -0.09240846 -0.27887717 -0.22545038 -0.38849488
-0.17272085 -0.15523626 0.07426043 -0.15483536 -0.13036788 -0.09342152 -0.3782982 -0.2395421

actor.2.weight f4 [256, 256]
00000000: 6152 c53e 850b a9be 009a 5c3e ef42 a63e
00000010: 7830 13be 25da 7ebe b35d 89bd 7b9a aebc
00000020: 3467 0fbf c8e7 f8be 4bf7 58be d123 ea3d
00000030: 5037 22be ac4c 02bf 0ffe 073f ae52 14bd
00000040: bfd9 fd3e 00ff 90be 1a4d 8abe 4b8c 7cbe
00000050: 0d82 b4be c2fc 63be 5e69 973d 7fd1 54bf
00000060: a4bf 24be 1271 6ebe 9946 efbb 26ad 1abf
00000070: cd30 12bd a746 45be 8ac1 5ebe 00b2 74bd
00000080: e160 673e 4c16 c1bd 236a 28bf b31f 0a3f
00000090: 9c8e 243f b260 393f 0a84 04be db15 96bd
000000a0: 40cc efbd a97d 023f e240 8b3d 14f5 ffbd
000000b0: 6a6e 633e ee47 6bbe 8422 d53e 4411 0b3e
000000c0: cba0 953e 57e8 1f3f aa21 4e3e a498 423e
000000d0: 627a 06bf 9609 b4be 1048 e8be d306 e7be
000000e0: fd18 adbc c2ed bdbd e8a9 043f c9e1 953e
000000f0: 16b0 edbe ef5b b13e b9c7 8a3d c2ba afbe
00000100: 92c6 313f b0f0 f5bd 2a2b f33e 2234 843e
00000110: ee28 d23e 3eb3 693e 31a9 e13d 740b d7be
00000120: 265d 043f 9393 243e 29ba b2bb c24f 99be
00000130: f231 413e 0d7c 293f b9b3 69bd 1912 95be
00000140: b75e 0d3e 505a 2fbe bcf2 39be 219b 8abe
00000150: d72e 003f 4e08 d6be 869e 693c 04b0 953e
00000160: 5053 fbbe c885 4c3d 7a43 97be 55ae 5abe
00000170: ed67 183f bdaa 1f3e e7e8 d73d 2613 e3be
00000180: 1b90 36bf 3bac f2be 1d4c 243c af5d af3d
00000190: 19ed e33e 7b17 e1be 82cb 22be 40ca 983d
000001a0: 8c1d 57bd 1d7b ab3e 277c 703e 8f75 fcbc
000001b0: 8e5b 73be 8fea bb3d 20c1 863d 0abd 1abe
000001c0: e666 91bd b1de 8e3f ea67 963d 0134 b8be
000001d0: 2475 2ebe f651 3c3f 73e9 e1be bea7 c0be
000001e0: 65b5 283e 4a2d 86be 244a 2ebf d7e5 b73d
000001f0: dd13 713e b031 76be e4ff b43c 762a a3be
00000200: be21 c2be e12f b1be 8bfa 23bf bb2f a3be
00000210: f9a4 083e f77b eebe ee2f f43d a89b 433e
00000220: 1cef 503e 48e1 843e 4253 e43c 5e63 103f
00000230: d6fb ccbd 8e14 68be 70d2 babd c071 4abe
00000240: 31c9 b73d ac28 bfbe 1874 c63d b103 333e
00000250: f279 dcbe e872 e7be 4205 af3e 2bb9 08bd
00000260: 4854 edbe 9a22 6bbe 7182 b0bc b699 8e3e
00000270: 1508 833e 5864 82bd 0e83 583e d4d9 56bd
00000280: da13 9a3d 9e24 58bf aa2e 823e 025b 243f
00000290: 511d 08bf 15b4 403f 576a e3bd f358 ecbc
000002a0: 1f57 0a3f ca77 45bd 54e2 de3d b923 183e
000002b0: 1614 fbbc 654b 2b3f 3cb6 ef3e cd09 a63d
000002c0: 663f 45be aad6 4cbd 4b24 aa3e e1d8 cfbe
000002d0: 013b 383e f5fc d1be fc5b 18bf dddc 243e
000002e0: 5d41 cf3c 6a4b b5bd 8373 35be 8ef2 9d3d
000002f0: 1407 593d 1e25 783e abb1 143f 3d33 333e
00000300: 6017 223f 8d33 a93d 4e7a 28bf bc1c b0be
00000310: aed9 b4be 575e 12bf 1954 78bd e321 c63e
00000320: e826 9a3d 13ca 8b3d 80d6 ccbe 0a4c 8f3e
00000330: da1b 1ebf 502c 8d3e cd7c 6f3e b428 fe3c
00000340: b5a2 9d3d 9c57 143f 0fa5 d1bd 0354 c4be
00000350: 79b5 7fbe 5bdc d33e f123 29bf 9c4f 14be
00000360: 6871 58be 1bdd d73e 6558 a83e eb95 5ebd
00000370: de58 013f 5893 46be a331 dcbe 34d1 a93e
00000380: 6966 0e3e fd6d 0c3e ff94 a33e 0a34 60be
00000390: df01 04bf d4f6 00be c63a d8be 6432 003e
000003a0: 6d51 b7bd 528d b53e 4821 033e 62d3 2f3e
000003b0: dccb d43d 0c12 9c3c 476a debe b0a2 d43e
000003c0: aef2 923e dc07 c5be 43dd eebe 5675 5c3f
000003d0: b8e9 dcbe 9ef1 61be 744c 0f3e 0057 133f
000003e0: 7f70 52bd f620 373f 6924 05be 26d6 a7bd
000003f0: c050 dc3d bc8c 5e3f c410 f53d 0b74 d23d
0.38539413 -0.330166 0.21543121 0.3247294 -0.14373958 -0.24887903 -0.06707325 -0.021313896
-0.5601685 -0.48614335 -0.21188085 0.11432613 -0.15841413 -0.5089824 0.5312204 -0.036211662
0.4958019 -0.2831955 -0.2701195 -0.24662893 -0.3525547 -0.22264388 0.07393144 -0.83132166
-0.1608873 -0.2328532 -0.007302117 -0.60420454 -0.03569107 -0.19265233 -0.21753517 -0.059740067
0.2259555 -0.09428081 -0.6578695 0.5395462 0.64280105 0.7241317 -0.12940994 -0.07328387
-0.117088795 0.5097299 0.06799485 -0.12497917 0.22210088 -0.22976658 0.41627896 0.13580805
0.29224238 0.624639 0.2013003 0.1900354 -0.5253049 -0.35163563 -0.4536748 -0.45122394
-0.02113008 -0.09273864 0.51821756 0.29273823 -0.46423405 0.34640452 0.06776375 -0.34322172
0.6944362 -0.12008798 0.4749387 0.25821024 0.41046852 0.22822282 0.11018599 -0.42000926
0.51704633 0.1607192 -0.005454321 -0.29943663 0.18866709 0.6620491 -0.057056163 -0.2911537
0.13805662 -0.17124295 -0.18159002 -0.2707148 0.5007147 -0.4180321 0.014258986 0.29235852
-0.49087 0.04993227 -0.29543668 -0.21355565 0.5953358 0.15592475 0.105424695 -0.44350547
-0.7131364 -0.47397026 0.010027912 0.085627906 0.4451683 -0.43963227 -0.15897945 0.07460451
-0.052518412 0.33492365 0.2348486 -0.030817775 -0.23765394 0.09175598 0.065798044 -0.15111175
-0.070997044 1.116171 0.07344039 -0.35977176 -0.17036873 0.7356256 -0.4412342 -0.37627977
0.16475447 -0.26206428 -0.6808188 0.08979385 0.23542733 -0.24042392 0.022094674 -0.31868333
-0.37916368 -0.3460684 -0.64054173 -0.31872353 0.13344182 -0.46578953 0.11923204 0.19102347
0.20403713 0.25953126 0.027871732 0.5640162 -0.100089714 -0.22664091 -0.09122169 -0.19769955
0.08973921 -0.37335718 0.09690112 0.17481877 -0.43061787 -0.45204854 0.341837 -0.033379715
-0.46353364 -0.22962418 -0.021546574 0.27851647 0.25592104 -0.06366795 0.21143743 -0.05245383
0.07523318 -0.84430873 0.25426227 0.64201367 -0.53169733 0.75274783 -0.11104267 -0.028851008
0.54039186 -0.048209943 0.108830124 0.14857377 -0.030649226 0.6691192 0.4681872 0.08107338
-0.19262466 -0.050009407 0.33230814 -0.40595153 0.17991258 -0.41013303 -0.59515357 0.16099878
0.025299722 -0.08852275 -0.17719845 0.07712279 0.052985266 0.24232909 0.580836 0.17500015
0.6331692 0.08261786 -0.6581162 -0.34396923 -0.35322326 -0.571752 -0.060627077 0.3869773
0.07526952 0.06825652 -0.400074 0.279877 -0.6176125 0.2757287 0.23387451 0.031025268
0.076970495 0.5794618 -0.102365606 -0.38345346 -0.2497157 0.41379055 -0.6607047 -0.14483494
-0.21137011 0.42160878 0.3287994 -0.05434219 0.50526226 -0.19392145 -0.4300662 0.33167422
0.13906254 0.13713832 0.31949612 -0.21894851 -0.51565355 -0.12594157 -0.4223234 0.12519222
-0.089510776 0.3545938 0.12805665 0.1717048 0.103904456 0.019051574 -0.43440458 0.4153037
0.28700775 -0.3848256 -0.46653184 0.8611654 -0.43147063 -0.22064826 0.13994008 0.57554626
-0.051376816 0.7153467 -0.1300217 -0.081951424 0.10757589 0.86933494 0.119660884 0.1027604
