only_win_reward.onnx (onnx, 474612 bytes, 6 tensors)

actor.0.weight f4 [256, 162]
0	0xbee722dc	-0.45143783
1	0xbe8b34be	-0.27188677
2	0xbe015688	-0.12630665
3	0xbee95fe1	-0.45580962
4	0xbe90b64f	-0.2826409
5	0xbec9c800	-0.394104
6	0xbeb88acb	-0.3604339
7	0x3d2c83fb	0.042118054
8	0x3db29964	0.08720663
9	0xbf8d543f	-1.1041335
10	0xbf0b7d79	-0.5448833
11	0xbc0b49fb	-0.008501525
12	0xbdcb7570	-0.09934509
13	0x3d5ef9fe	0.05443763
14	0xbe05ee3a	-0.13079157
15	0xbf46d9bb	-0.7767598
16	0x3e4d1402	0.20027164
17	0xbe7faba1	-0.24967815
18	0xbe7c97b4	-0.24667245
19	0xbe0db86a	-0.1383988
20	0xbcf8ff38	-0.030395135
21	0xbd229955	-0.03969701
22	0xbe9e6639	-0.30937365
23	0xbe81c98c	-0.2534908
24	0xbebbe827	-0.36700556
25	0xbe3c1442	-0.18367103
26	0x3d051d44	0.032498613
27	0xbd1bc6d4	-0.038031414
28	0xbec32298	-0.3811233
29	0x3eb2c384	0.34914792
30	0x3e66213f	0.2247362
31	0xbf202d1f	-0.6256885
32	0x3eb54e11	0.35411122
33	0xbe8320b0	-0.25610876
34	0x3e48685e	0.19571063
35	0x3ef93a8b	0.48677477
36	0x3d21eb35	0.03953095
37	0xbd704c9a	-0.058666803
38	0xbd906789	-0.07050998
39	0x3ec1f89f	0.37884995
40	0xbe69f795	-0.22848351
41	0x3ecc38da	0.39887124
42	0x3ee00531	0.4375396
43	0xbe9f9781	-0.31170276
44	0xbe1e8223	-0.1547933
45	0x3e4ba60d	0.19887562
46	0x3efacb91	0.48983434
47	0xbf39ca05	-0.7257388
48	0x3f19bab0	0.6005049
49	0xbd9d55d5	-0.07682387
50	0xbf763053	-0.96167487
51	0x3e5de14f	0.2166798
52	0x3e3de223	0.18543296
53	0xbe9afa47	-0.3026907
54	0x3d751fca	0.05984477
55	0x3ebf4adf	0.3736181
56	0xbe6177a5	-0.22018297
57	0x3e88729b	0.26649937
58	0xbc7d7f60	-0.015472263
59	0xbd59e5a9	-0.053197537
60	0xbee4076d	-0.44536915
61	0xbbc3847d	-0.0059667216
62	0xbef8c2c6	-0.485861
63	0xbbbf4c60	-0.005837962
64	0x3d9c69d5	0.07637373
65	0x3e64cbee	0.22343418
66	0xbf0dda9f	-0.55411714
67	0x3e481d9b	0.19542544
68	0x3dc1621c	0.09442541
69	0xbd143e85	-0.036192436
70	0xbe32849b	-0.17433397
71	0x3e1a1757	0.15047966
72	0x3eea8d4f	0.45810935
73	0xbe34f8b0	-0.17672992
74	0x3e5a05bf	0.21291254
75	0xbe8f238f	-0.27956817
76	0x3f0c9353	0.549123
77	0x3ee191f0	0.44056654
78	0x3ecd3256	0.40077466
79	0xbb916992	-0.004437634
80	0xbe73d156	-0.23810324
81	0x3df22a13	0.11824431
82	0xbea76944	-0.326975
83	0x3e91d22b	0.28480658
84	0x3e454f61	0.19268562
85	0xbeecd922	-0.4625941
86	0x3ec4fb78	0.38473105
87	0xbecfea09	-0.40608242
88	0x3eaf8519	0.34281233
89	0x3f0485d7	0.51766723
90	0xbeaf7bc0	-0.342741
91	0xbcb0f960	-0.021603286
92	0xbeb09cd0	-0.34494638
93	0x3ce9c134	0.02853451
94	0x3f0e091f	0.5548267
95	0x3e064016	0.13110384
96	0xbe2ca722	-0.16860631
97	0xbd7a808d	-0.06115775
98	0xbeb53a2a	-0.35395938
99	0xbeb6b85d	-0.35687533
100	0x3d3532bb	0.044237833
101	0xbe5be587	-0.21474276
102	0xbf8283be	-1.0196455
103	0xbf37de2c	-0.7182338
104	0xbf47eaa8	-0.7809243
105	0xbf8eb64e	-1.1149385
106	0x3dd338b9	0.10313553
107	0xbf0c34de	-0.5476817
108	0x3f0c7cf0	0.5487814
109	0xbe87820c	-0.26466405
110	0xbd10f3df	-0.035388824
111	0xbb090c2d	-0.0020911798
112	0xbdbf4c0d	-0.093406774
113	0x3f6b1276	0.91825044
114	0xbe286df6	-0.16448197
115	0x3ee8eb6f	0.45492122
116	0x3d4157cd	0.047202874
117	0x3f598a22	0.849764
118	0x3e846255	0.2585627
119	0x3edc30e7	0.4300606
120	0xbf450340	-0.76958084
121	0xbebf8e07	-0.37413046
122	0xbe9f2aa1	-0.3108721
123	0x3e715a86	0.23569688
124	0x3e38d195	0.18048699
125	0xbb222dbd	-0.00247465
126	0xbd248ea0	-0.04017508
127	0x3d3e8b00	0.04651928
128	0xbeb8c144	-0.3608495
129	0x3c97eef8	0.018546566
130	0x3f3cd186	0.7375721
131	0x3d6f2a48	0.058389932
132	0xbd633c27	-0.055477288
133	0x3e8694ac	0.26285303
134	0x3f38d6e6	0.7220291
135	0xbf0b690f	-0.5445718
136	0x3e8acf0d	0.27111092
137	0xbe90ab47	-0.28255674
138	0xbdb5ab97	-0.08870619
139	0xbe6c365c	-0.23067611
140	0x3e8c6540	0.27420998
141	0x3efffabf	0.49995992
142	0x3e8f27df	0.27960107
143	0x3e84ac3e	0.2591266
144	0x3cfb27ba	0.030658592
145	0x3f0ef367	0.5584015
146	0xbea85f1d	-0.32885066
147	0x3eafa649	0.34306553
148	0xbea40369	-0.32033852
149	0x3ef413a9	0.4767125
150	0xbeaaed27	-0.33384058
151	0xbeee2499	-0.46512297
152	0xbf86da30	-1.0535336
153	0x3e1b4b01	0.1516533
154	0x3e49daa7	0.19712315
155	0xbd4a97fd	-0.049461354
156	0xbc7ce197	-0.015434644
157	0xbe7c1040	-0.24615574
158	0x3dbdf03e	0.09274338
159	0xbedb505d	-0.4283475
160	0xbdce31a6	-0.100680634
161	0xbdb0fb2a	-0.08641656
162	0xbe4a107c	-0.19732851
163	0xbf387026	-0.72046125
164	0x3d38f0ad	0.0451514
165	0xbe81f091	-0.2537885
166	0xbe995fa1	-0.29955772
167	0x3c8610a4	0.016365357
168	0xbe4c240a	-0.19935623
169	0x3e6a8fcc	0.22906417
170	0xbe2a9dec	-0.16661805
171	0xbdd39d19	-0.103326984
172	0xbe93c461	-0.28860763
173	0xbe6ede47	-0.2332698
174	0x3dcdc33d	0.10047004
175	0xbee6a04a	-0.45044166
176	0xbd8e0c7f	-0.06935977
177	0xbf063d58	-0.52437353
178	0x3ed92cb7	0.42416927
179	0xbf5ef9a5	-0.8709968
180	0xbf51149b	-0.81672066
181	0xbd5476ce	-0.051871113
182	0xbd4b4306	-0.049624465
183	0xbee7e8b1	-0.45294717
184	0x3cb92a7d	0.022603268
185	0xbe6662f6	-0.22498688
186	0x3e9f8300	0.31154633
187	0x3d213793	0.03935964
188	0x3eb34dbb	0.3502024
189	0xbe9ec12e	-0.3100676
190	0xbdab968a	-0.083783224
191	0xbf27d7ef	-0.65563864
192	0xbd714bf6	-0.058910333
193	0xbe406800	-0.18789673
194	0xbe78fc0d	-0.243149
195	0xbe9cf6c7	-0.30657026
196	0xbe3ea990	-0.1861937
197	0xbd436e96	-0.047712885
198	0x3e06d5a6	0.13167438
199	0xbe9f0d94	-0.31065047
200	0xbe9c061e	-0.30473417
201	0x3eeb3749	0.45940617
202	0x3caa94d4	0.02082292
203	0x3e743a43	0.2385035
204	0xbf07d1f9	-0.5305477
205	0x3f6fe855	0.93713886
206	0x3eb97bfd	0.36227408
207	0x3d83ba04	0.06431964
208	0xbeaa88a4	-0.33307374
209	0xbc37e97d	-0.011225102
210	0xbf20b927	-0.6278252
211	0x3c3bba70	0.011458024
212	0x3e86e136	0.26343697
213	0xbe63238b	-0.22181527
214	0xbe797ec7	-0.24364768
215	0xbe5dc168	-0.2165581
216	0x3c571f71	0.013130055
217	0x3f098ffe	0.5373534
218	0x3eb045e0	0.3442831
219	0x3e192b4c	0.14957923
220	0x3f535b9a	0.8256165
221	0x3e2142ed	0.15748186
222	0xbdb2a3e1	-0.08722664
223	0xbf1e3222	-0.61795247
224	0x3f094b0e	0.5363015
225	0xbd859994	-0.06523433
226	0xbf69594d	-0.9115189
227	0xbe17361f	-0.1476674
228	0x3e2650ff	0.16241835
229	0x3f3f2eab	0.74680585
230	0xbf53b398	-0.82695913
231	0xbefd1e64	-0.4943725
232	0x3e404e5d	0.18779893
233	0x3e9816a8	0.29704785
234	0xbe890174	-0.2675892
235	0xbd63daa7	-0.055628445
236	0xbef8f757	-0.48626205
237	0x3ea582c2	0.32326323
238	0x3c82b06c	0.015953265
239	0xbe06e13a	-0.13171855
240	0xbe9e6f79	-0.30944422
241	0xbd994625	-0.07484082
242	0xbf59c4a3	-0.8506567
243	0xbd2677be	-0.04064154
244	0x3cf6d44e	0.030130532
245	0xbf11d8e2	-0.5697156
246	0xbf1dc0c8	-0.61622286
247	0x3d17a335	0.03702088
248	0x3eb97f38	0.36229873
249	0xbe046ca8	-0.12932074
250	0xbe366445	-0.17811687
251	0xbeede825	-0.46466175
252	0xbe108a41	-0.1411524
253	0x3ee8882f	0.454164
254	0x3e0a0cd2	0.13481453
255	0xbf37a181	-0.7173081

actor.0.bias f4 [256]
0	0xbd704880	-0.05866289
1	0xbe371051	-0.17877318
2	0xbf2a2f08	-0.66478014
3	0xbea1d077	-0.3160436
4	0xbe24c39b	-0.16090243
5	0x3de73a74	0.11290446
6	0xbe657d2e	-0.22411034
7	0xbd13686f	-0.035988268
8	0xbe4b98c8	-0.198825
9	0x3d3c0453	0.04590256
10	0xbd4fc6e1	-0.050726775
11	0xbc0b79b1	-0.0085129
12	0x3e02a534	0.12758332
13	0xbe1ecc6a	-0.15507665
14	0xbe8a9fed	-0.2707514
15	0xbe9cbecc	-0.30614316
16	0xbe960691	-0.29301885
17	0xbe6ba1ac	-0.23010892
18	0xbe90ff7d	-0.28319922
19	0xbd24d6f0	-0.040244043
20	0xbdbc0fbe	-0.0918269
21	0x3da2a3cb	0.07941397
22	0xbe0c5db2	-0.13707617
23	0xbd4021a9	-0.0469071
24	0x3da4c8ae	0.08046089
25	0xbe04604c	-0.1292736
26	0xbf05452f	-0.5205869
27	0xbe45023e	-0.19239137
28	0xbd9c2aba	-0.07625337
29	0xbcbd64e8	-0.023119405
30	0xbe82169d	-0.25407878
31	0x3df84e05	0.12124256
32	0xbd702821	-0.05863202
33	0xbef4a5d2	-0.4778276
34	0x3de77b14	0.11302772
35	0xbe5211c0	-0.20514584
36	0xbe52310f	-0.20526527
37	0xbe6771e3	-0.22602038
38	0xbe066fbe	-0.13128564
39	0xbd2b6c2b	-0.041851204
40	0xbe167202	-0.14691928
41	0xbed8edcf	-0.42368934
42	0xbe57cc9e	-0.21074149
43	0x3d3f25fa	0.046667077
44	0xbe063a1c	-0.13108104
45	0xbd227b90	-0.03966862
46	0xbeb0b17a	-0.34510404
47	0x3c5f61ac	0.013634127
48	0xbcbf906d	-0.023384297
49	0xbd9915f4	-0.0747489
50	0x3cc6e0da	0.02427714
51	0xbe39f5f9	-0.18160237
52	0xbdafe6da	-0.08588953
53	0xbe68b149	-0.22723879
54	0xbd0157b4	-0.03157778
55	0xbe836838	-0.2566545
56	0x3d605676	0.054769956
57	0xbdb26815	-0.08711258
58	0xbe7384be	-0.23781106
59	0xbf0ef074	-0.5583565
60	0xbd8cf5d6	-0.06882827
61	0xbe4d00bf	-0.20019816
62	0x3dcd1758	0.10014218
63	0xbe4bd0b1	-0.19903828
64	0xbd8c635c	-0.06854889
65	0x3e2056a9	0.15658058
66	0x3d21deb0	0.039519012
67	0x3cdcba92	0.026944432
68	0x3c5bb9fa	0.0134110395
69	0xbefd5cb4	-0.4948479
70	0x3d20777f	0.03917646
71	0xbe5e7cb1	-0.21727253
72	0xbd616946	-0.055032037
73	0xbe34f1d0	-0.17670369
74	0xbdbc5d56	-0.0919749
75	0x3de5ff52	0.11230339
76	0x3d1110e5	0.035416503
77	0xbdf468a7	-0.11934023
78	0xbe1f5060	-0.15558004
79	0xbea2b03f	-0.3177509
80	0xbded6648	-0.11591774
81	0xbda4784f	-0.080307595
82	0xbec3bbad	-0.38229123
83	0x3de7d132	0.11319198
84	0xbe2e8f24	-0.17046791
85	0xbe35fdd2	-0.17772606
86	0xbe6fcf09	-0.23418821
87	0xbeb6952f	-0.35660693
88	0x3e46d1fc	0.1941604
89	0xbe82700a	-0.25476104
90	0x3e68cb7f	0.22733878
91	0x3dd318c7	0.1030746
92	0xbe366742	-0.17812827
93	0xbeb71403	-0.35757455
94	0xbe81af21	-0.25328925
95	0x3debc400	0.115119934
96	0x3de9aaa7	0.114095025
97	0xbd939533	-0.07206192
98	0xbeb2fbc8	-0.3495772
99	0xbdb29955	-0.08720652
100	0xbe56769c	-0.20943683
101	0x3d96ce55	0.073635735
102	0xbe53af18	-0.20672262
103	0xbec8783e	-0.39154238
104	0x3c4011e9	0.01172302
105	0x3e198fc5	0.1499625
106	0xbed2ee63	-0.411975
107	0xbdacb502	-0.08432962
108	0xbd0389e7	-0.032113936
109	0xbe820fa5	-0.2540256
110	0xbdd69af6	-0.10478775
111	0x3da1a210	0.07892239
112	0xbe2bbe3e	-0.1677179
113	0xbd90ad52	-0.07064308
114	0xbf0cc221	-0.5498372
115	0xbe86780a	-0.26263458
116	0xbe50bca7	-0.20384465
117	0xbe7d366e	-0.24727795
118	0xbeade4c4	-0.33963597
119	0xbe562d9f	-0.2091584
120	0xbd869703	-0.06571772
121	0xbc0324f6	-0.008004418
122	0xbd156aa0	-0.03647864
123	0xbe041200	-0.12897491
124	0xbda78a6e	-0.081807
125	0xbe35a570	-0.1773889
126	0xbe085120	-0.13312197
127	0x3d9bb1b9	0.07602257
128	0xbdce28e6	-0.100663945
129	0xbe230142	-0.15918449
130	0x3e3da1b0	0.1851871
131	0xbcc1a41b	-0.023637822
132	0xbe9cbb14	-0.3061148
133	0xbe349d2e	-0.17638084
134	0xbeb9d117	-0.36292335
135	0xbe294dc7	-0.16533576
136	0xbe9da2ef	-0.3078837
137	0xbf043ea5	-0.5165809
138	0xbecae794	-0.39629805
139	0xbe63b4ab	-0.22236888
140	0xbdef8270	-0.11694801
141	0x3e0e2e88	0.13884938
142	0xbe76df00	-0.24108505
143	0x3dad6706	0.08466916
144	0xbdc3779a	-0.095442966
145	0xbc249f57	-0.010047755
146	0xbe954bcd	-0.29159394
147	0x3c1934bc	0.009350952
148	0xbe995701	-0.2994919
149	0x3cba83b6	0.022767883
150	0xbf2de734	-0.6793091
151	0xbe121fb1	-0.14269902
152	0xbd6ac815	-0.05731972
153	0x3d4671c0	0.048448324
154	0xbe6f058c	-0.2334196
155	0xbee8156f	-0.45328853
156	0xbed62e62	-0.41832262
157	0xbf069f62	-0.5258695
158	0x3e611d9f	0.21983956
159	0x3df5f775	0.12010089
160	0xbdbfff3f	-0.09374856
161	0x3df9a42d	0.12189517
162	0x3d583946	0.052788995
163	0xbc964f41	-0.018348338
164	0x3dd1fc26	0.102531716
165	0xbd89754d	-0.067118265
166	0xbea7a3da	-0.32742196
167	0xbe0e8968	-0.13919604
168	0xbde4ee6c	-0.11178288
169	0xbe929bca	-0.28634483
170	0xbecac9a9	-0.3960698
171	0xbe974319	-0.2954338
172	0xbecef179	-0.40418604
173	0xbec3d282	-0.38246542
174	0x3c90c42e	0.01767167
175	0xbe9c146d	-0.30484334
176	0x3bbd4d57	0.005777042
177	0x3df13e38	0.117794454
178	0x3bcaf71b	0.006194008
179	0x3cff500b	0.031166097
180	0xbf192fd2	-0.59838593
181	0xbe739f69	-0.23791279
182	0x3e0ed354	0.13947803
183	0xbce1771b	-0.027522614
184	0xbd08af35	-0.033370215
185	0xbf20d484	-0.62824273
186	0xbd89c1a9	-0.06726391
187	0xbeaa16af	-0.3322043
188	0x3d805e96	0.06268041
189	0xbea1e1da	-0.31617624
190	0xbd7f28d8	-0.06229481
191	0xbedd904f	-0.4327416
192	0xbea855ac	-0.32877862
193	0x3d63a17a	0.055573918
194	0xbeba2901	-0.36359408
195	0xbe0b6665	-0.13613279
196	0xbcb4aad7	-0.022054119
197	0x3d3a87c0	0.045539618
198	0xbca2952a	-0.019846518
199	0xbf0d0ae9	-0.5509477
200	0xbde7aa0c	-0.11311731
201	0xbdb15de4	-0.08660486
202	0x3e5f6094	0.21814185
203	0xbe8feae3	-0.28108892
204	0xbe01f2d7	-0.12690292
205	0xbe3a9cc5	-0.18223865
206	0xbf0151d6	-0.50515497
207	0x3c2d2714	0.010568399
208	0xbe258ec3	-0.1616774
209	0xbe5c23c3	-0.21498017
210	0xbd2096d6	-0.03920635
211	0xbe474782	-0.19460872
212	0xbe693e49	-0.22777666
213	0xbe3c3818	-0.18380773
214	0x3d088539	0.033330176
215	0xbec14d2e	-0.37754196
216	0xbe230fcb	-0.15923993
217	0xbe17c6c0	-0.14821911
218	0xbe48f736	-0.19625553
219	0xbebde38d	-0.3708767
220	0xbd56089f	-0.052254315
221	0xbe053cfe	-0.13011548
222	0xbdd6936f	-0.104773395
223	0xbdba67c3	-0.09101822
224	0xbdae9674	-0.085247904
225	0xbe510e18	-0.20415533
226	0xbe3ba6fb	-0.18325417
227	0xbe61c287	-0.22046863
228	0xbe06d453	-0.13166933
229	0xbe6b5faa	-0.22985712
230	0xbdaaeb2c	-0.08345637
231	0xbcc51285	-0.024056682
232	0xbef1911e	-0.47181028
233	0xbf27f64a	-0.6561018
234	0x3e291955	0.1651357
235	0xbec8a345	-0.39187065
236	0xbed10476	-0.40823716
237	0xbea2ca93	-0.31795177
238	0xbd2298df	-0.03969657
239	0xbe567e49	-0.20946611
240	0xbf0fab50	-0.5612078
241	0xbdde8242	-0.108646885
242	0x3df3ee48	0.11910683
243	0xbe85a0be	-0.260992
244	0xbd85f3fe	-0.065406784
245	0xbe831aff	-0.25606534
246	0xbdf26d8a	-0.11837299
247	0xbe939bd3	-0.28829822
248	0xbe3d033f	-0.1845827
249	0xbe591740	-0.21200275
250	0x3de91e60	0.11382747
251	0xbe83d016	-0.25744694
252	0xbe822ae2	-0.25423342
253	0xbd94ea20	-0.07271218
254	0xbefec985	-0.49763122
255	0xbe894a32	-0.2681442

actor.2.weight f4 [256, 256]
0	0x3eb8f99e	0.36127943
1	0xbe89f645	-0.269457
2	0x3de5fc5b	0.112297736
3	0x3eac9aa3	0.33711728
4	0xbe34e74c	-0.17666358
5	0xbe68395b	-0.2267813
6	0xbd832455	-0.06403414
7	0xbd72c944	-0.059273973
8	0xbf0d3e87	-0.55173534
9	0xbeea663c	-0.45781124
10	0xbe910005	-0.28320327
11	0x3e2e10f8	0.1699866
12	0xbe38917f	-0.18024252
13	0xbefb2b37	-0.49056408
14	0x3f112cb3	0.5670883
15	0x3d206c30	0.039165676
16	0x3ec3f451	0.38272336
17	0xbe8f1ab7	-0.2795007
18	0xbeb4fd65	-0.35349575
19	0xbec569d2	-0.38557297
20	0xbe93619a	-0.28785402
21	0xbdd0de41	-0.101986416
22	0x3d896bd8	0.06710023
23	0xbf2aee4e	-0.66769874
24	0xbe35f0e2	-0.17767671
25	0xbe7e6e84	-0.24846846
26	0xbdb8b2fa	-0.09018512
27	0xbf442027	-0.7661156
28	0x3cc8ac14	0.024496116
29	0xbdf6aeec	-0.120450824
30	0xbe8ad152	-0.27112824
31	0xbc5876a7	-0.013211883
32	0x3e9d62f4	0.30739558
33	0xbe41e857	-0.18936287
34	0xbf139944	-0.5765574
35	0x3f0664b1	0.5249739
36	0x3f36fab3	0.71476287
37	0x3f537a41	0.8260842
38	0xbd8d4e56	-0.06899707
39	0xbde53c9d	-0.11193202
40	0xbe3818db	-0.17978232
41	0x3ed9ebf4	0.4256283
42	0x3e447408	0.19184887
43	0xbe675dc8	-0.22594368
44	0x3e5b3d7a	0.2141017
45	0xbed044a2	-0.40677363
46	0x3ebec735	0.37261358
47	0x3e128038	0.14306724
48	0x3ea48851	0.3213525
49	0x3f1f56d4	0.62241864
50	0x3e55dd33	0.20885162
51	0x3de974e2	0.11399247
52	0xbf0d0e07	-0.5509953
53	0xbef21786	-0.47283572
54	0xbef53418	-0.47891307
55	0xbf09d0e5	-0.5383437
56	0x3d9de1c4	0.07709077
57	0x3cc338a8	0.023830727
58	0x3eef9c73	0.4679905
59	0x3e84b4bd	0.25919142
60	0xbf0eed44	-0.5583079
61	0x3ea50c74	0.32236063
62	0x3dd7e679	0.10542006
63	0xbe81ce9d	-0.25352946
64	0x3f31406f	0.6923894
65	0xbc3c05fe	-0.011476038
66	0x3ecff841	0.4061909
67	0x3e70f2c0	0.23530102
68	0x3eae5aab	0.3405355
69	0x3e075f84	0.1322003
70	0x3d05a3d6	0.03262695
71	0xbeeaa3a0	-0.4582796
72	0x3f1168c2	0.5680047
73	0x3dea0fa1	0.11428762
74	0x3b86becc	0.0041121
75	0xbea3832c	-0.31936014
76	0x3e2ea820	0.17056322
77	0x3f09c999	0.5382324
78	0xbe730cb0	-0.23735309
79	0xbea31391	-0.31850865
80	0x3df783d7	0.12085693
81	0xbe902a2a	-0.2815717
82	0xbdc45092	-0.0958568
83	0xbef5c38d	-0.48000756
84	0x3ef05806	0.46942157
85	0xbef09459	-0.4698818
86	0x3b13188c	0.002244505
87	0x3e9469c3	0.2898694
88	0xbf0106e7	-0.5040116
89	0xbce64c7b	-0.02811264
90	0xbe08db6a	-0.1336495
91	0xbe7a3166	-0.24432907
92	0x3f0b91db	0.5451943
93	0x3cf8fa15	0.030392686
94	0x3da60809	0.08107001
95	0xbeed40fd	-0.46338645
96	0xbf60a2ca	-0.87748396
97	0xbf06de57	-0.52683014
98	0x3c51d953	0.012808162
99	0x3d40630a	0.04696945
100	0x3ee118bf	0.43964192
101	0xbecdb089	-0.40173748
102	0xbe89ac2b	-0.26889166
103	0xbd1c85ec	-0.038213655
104	0xbd26ca32	-0.040720172
105	0x3e267c98	0.16258466
106	0x3e8fee59	0.28111532
107	0x3b8bf99e	0.0042717
108	0xbe955b30	-0.29171133
109	0x3e1aa05c	0.15100235
110	0xbdaf06a8	-0.085461915
111	0xbdf401fa	-0.119144395
112	0xbe628785	-0.22122009
113	0x3f8e5879	1.112075
114	0xbc9dc4b7	-0.01925884
115	0xbef6f09e	-0.4823045
116	0xbe6e3c2b	-0.2326514
117	0x3f39eb6b	0.72624844
118	0xbebd97fe	-0.37030023
119	0xbee30e1b	-0.443467
120	0x3d4bd46b	0.049763124
121	0xbe975f92	-0.29565102
122	0xbf2921d4	-0.6606724
123	0x3db0bb94	0.08629528
124	0x3e5c0051	0.21484496
125	0xbeba57ea	-0.36395198
126	0x3db585f8	0.08863443
127	0xbec25f00	-0.37963104
128	0xbed48fdc	-0.41516006
129	0xbed86076	-0.42261094
130	0xbf131822	-0.574587
131	0xbedb08a0	-0.42780018
132	0x3de98ab3	0.11403408
133	0xbf1da8c1	-0.61585623
134	0x3e60ee5f	0.21965931
135	0x3e7f0f1a	0.24908105
136	0x3e67bf80	0.22631645
137	0x3e5abcab	0.21361034
138	0x3d9f1e7b	0.077694856
139	0x3f1da966	0.61586607
140	0xbe1d8e95	-0.15386422
141	0xbdef7970	-0.11693084
142	0xbd795696	-0.06087359
143	0xbe9362d8	-0.2878635
144	0x3e2e5b8a	0.17027107
145	0xbee53874	-0.44769633
146	0x3b3029d2	0.0026880396
147	0x3dede016	0.116150066
148	0xbeff29fb	-0.49836716
149	0xbed81f6a	-0.42211467
150	0x3e7f2f81	0.24920465
151	0xbe56634e	-0.20936319
152	0xbefd0327	-0.49416468
153	0xbe319614	-0.17342407
154	0xbe0072f8	-0.12543857
155	0x3ea64ae4	0.32479012
156	0x3e4d81b0	0.20069003
157	0xbe2cf2c4	-0.16889483
158	0x3e495251	0.19660307
159	0xbd085fd4	-0.033294514
160	0x3d9eb9dd	0.07750294
161	0xbf7bbc13	-0.98333853
162	0x3e63a0fa	0.22229376
163	0x3f176e17	0.5915236
164	0xbecb81d7	-0.39747497
165	0x3f46eba9	0.7770334
166	0xbe4d8526	-0.20070323
167	0x3da619e3	0.08110406
168	0x3f043a9e	0.5165194
169	0xbde824f2	-0.11335172
170	0x3e95ee3d	0.29283324
171	0x3e24e4bc	0.1610288
172	0xbc851060	-0.01624316
173	0x3f2cad0a	0.67451537
174	0x3ef2ec30	0.47445822
175	0x3ddb3313	0.10703101
176	0xbe6c9aa7	-0.2310587
177	0xbe81e4e4	-0.25369942
178	0x3ed9eaa1	0.4256182
179	0xbee60f91	-0.4493375
180	0x3c773133	0.015087414
181	0xbebac6dd	-0.36479846
182	0xbf233b1e	-0.6376208
183	0x3deeaa31	0.11653555
184	0x3dd78143	0.105227016
185	0xbe1816be	-0.14852425
186	0xbeb3a609	-0.35087612
187	0xbd9fdbe9	-0.078056164
188	0x3cf36b13	0.029714143
189	0x3e6e61d0	0.232795
190	0x3f202672	0.6255866
191	0x3c610213	0.013733405
192	0x3f211b09	0.6293188
193	0xbc459c36	-0.012061169
194	0xbf27101e	-0.6525897
195	0xbf1b49ad	-0.60659295
196	0xbec06f45	-0.37584892
197	0xbf3167b2	-0.6929885
198	0xbc769795	-0.015050788
199	0x3e9572ea	0.29189235
200	0xbd263641	-0.040579084
201	0xbca7d6b1	-0.020488115
202	0xbec00372	-0.3750263
203	0x3ea972ce	0.33095402
204	0xbf1aa47e	-0.60407245
205	0x3ec08c94	0.37607253
206	0x3e4982c8	0.19678795
207	0x3e1007df	0.14065503
208	0x3c955edf	0.018233715
209	0x3f1d48a9	0.61438996
210	0xbd655f9a	-0.055999376
211	0xbecc4c39	-0.39901903
212	0xbe6ea9d9	-0.23306979
213	0x3eab9aa9	0.33516434
214	0xbef5e6c9	-0.48027638
215	0xbe989521	-0.29801276
216	0xbe6424ac	-0.22279614
217	0x3ead7def	0.33885142
218	0x3eb37967	0.3505356
219	0x3d3e2fec	0.04643242
220	0x3ef9b06a	0.48767406
221	0xbe93906f	-0.28821132
222	0xbf02d1d0	-0.511014
223	0x3e911886	0.28339022
224	0xbd9519c9	-0.07280309
225	0x3df1c4a9	0.11805088
226	0x3e930f24	0.2872249
227	0xbee0cf77	-0.43908283
228	0xbf1ed523	-0.6204397
229	0xbda07adc	-0.078359336
230	0xbeb79545	-0.3585607
231	0x3e3752a2	0.17902616
232	0xbeac75ff	-0.33683774
233	0x3ea4d91d	0.32196894
234	0x3dbff255	0.09372393
235	0x3da27b02	0.07933618
236	0x3e0a87f8	0.1352843
237	0xbe3cb6da	-0.18429127
238	0xbeb6c9a8	-0.35700727
239	0x3e4fde36	0.2029961
240	0x3dffb99d	0.12486575
241	0xbed3bba9	-0.4135411
242	0xbf0aa0ae	-0.5415143
243	0x3f43cf5f	0.764883
244	0xbecf97fe	-0.40545648
245	0xbe360c6a	-0.17778173
246	0x3dc4f417	0.09616869
247	0x3f48000b	0.78125066
248	0xbdfc7d1d	-0.12328551
249	0x3f4fb5f6	0.81137025
250	0xbe121185	-0.14264496
251	0xbcb8d64c	-0.022563122
252	0x3d990363	0.07471349
253	0x3f82a763	1.0207332
254	0x3da7e500	0.08197975
255	0xbccb4892	-0.024814878

actor.2.bias f4 [256]
0	0xbeac2e5e	-0.33629125
1	0xbe80f28e	-0.25185055
2	0xbf1614d5	-0.5862554
3	0xbee6a69d	-0.4504899
4	0xbecf3ad0	-0.40474558
5	0xbebf4ae4	-0.37361825
6	0xbe03ccd2	-0.12871101
7	0xbf033605	-0.512543
8	0xbeea00da	-0.45703775
9	0xbed72f0a	-0.42028075
10	0xbee06559	-0.43827322
11	0xbee83dc6	-0.4535963
12	0xbf1308ec	-0.5743549
13	0xbec5849a	-0.3857773
14	0xbea9ef38	-0.33190322
15	0xbea1f17f	-0.3162956
16	0xbe9839eb	-0.29731688
17	0xbea5beee	-0.3237223
18	0xbf04c818	-0.5186782
19	0xbea4a887	-0.32159826
20	0xbf3ea43d	-0.7446936
21	0xbe8d72db	-0.2762669
22	0xbf17cf73	-0.5930092
23	0xbef0843b	-0.46975884
24	0xbeb73b7d	-0.35787573
25	0xbe470ac2	-0.19437698
26	0xbed28b2d	-0.41121808
27	0xbec0a8b9	-0.37628725
28	0xbe59e5e5	-0.21279104
29	0xbebef21a	-0.37294084
30	0xbea09aba	-0.31368047
31	0xbf2b0022	-0.6679708
32	0xbedc9177	-0.4307973
33	0xbe4649ae	-0.19364044
34	0xbee65f05	-0.4499437
35	0xbe590430	-0.21193004
36	0xbec14413	-0.3774725
37	0xbec5da08	-0.38642907
38	0xbea4538d	-0.32094994
39	0xbec3366b	-0.38127455
40	0xbef13d78	-0.4711721
41	0xbe1c9ec3	-0.15294938
42	0xbeaec612	-0.3413549
43	0xbea1747c	-0.31534183
44	0xbde70eee	-0.112821445
45	0xbe973bd2	-0.29537827
46	0xbf00010d	-0.50001603
47	0xbe9ce3ba	-0.30642492
48	0xbec2859b	-0.37992558
49	0xbeb08461	-0.34475997
50	0xbead511e	-0.3385095
51	0xbea61de9	-0.32444695
52	0xbea9551a	-0.3307274
53	0xbe964850	-0.29352045
54	0xbeac23a2	-0.33620936
55	0xbd1a24b0	-0.037632644
56	0xbe77dd5d	-0.24205537
57	0xbeda029f	-0.42580125
58	0xbea0dca6	-0.3141834
59	0xbf0b7703	-0.5447847
60	0xbebdb8fa	-0.37055188
61	0xbeb5bf5d	-0.3549756
62	0xbf060b7c	-0.52361274
63	0xbea4d02f	-0.3219008
64	0xbe12077b	-0.14260666
65	0xbf0b3f01	-0.5439301
66	0xbeb55368	-0.35415196
67	0xbd922ea4	-0.07137802
68	0xbece3386	-0.40273684
69	0xbeccbe7e	-0.39989084
70	0xbeca16ba	-0.39470464
71	0xbedbb55f	-0.42911813
72	0xbf1fc74d	-0.62413484
73	0xbe959b8a	-0.2922023
74	0x3d64cee1	0.055861358
75	0xbef432c0	-0.4769497
76	0xbd4b59bf	-0.049646135
77	0xbe78b92d	-0.24289389
78	0xbec86d4e	-0.39145893
79	0xbec927f1	-0.39288285
80	0xbe0fea05	-0.14054115
81	0xbe7770e2	-0.24164155
82	0xbebe347c	-0.37149417
83	0xbea5417e	-0.3227653
84	0xbf2cd92a	-0.67518866
85	0xbe5b6883	-0.21426587
86	0xbe3c0d58	-0.18364465
87	0xbeb158f8	-0.3463819
88	0xbf056f58	-0.5212302
89	0xbead0bd2	-0.3379808
90	0xbe525e9f	-0.20543908
91	0xbed65264	-0.41859734
92	0xbf12c1d5	-0.57327014
93	0xbead5bab	-0.33859
94	0xbec406af	-0.3828635
95	0xbdb6a5c9	-0.0891834
96	0xbeba6a5e	-0.36409277
97	0xbf04c68d	-0.51865464
98	0xbf065c7c	-0.5248487
99	0xbf0cd267	-0.5500855
100	0xbe8b87e7	-0.27252123
101	0xbecac0d0	-0.3960023
102	0xbed06da2	-0.40708643
103	0xbea5bfda	-0.32372934
104	0xbeb9d03d	-0.36291686
105	0xbead6965	-0.33869472
106	0xbf19da1b	-0.6009843
107	0xbe7ef5d2	-0.2489846
108	0xbdac023f	-0.08398866
109	0xbef83de9	-0.48484734
110	0xbdfdfdb2	-0.12401904
111	0xbea482cd	-0.32131043
112	0xbeb9e368	-0.3630631
113	0xbe96b402	-0.2943421
114	0xbe9d59ef	-0.30732676
115	0xbef11fc3	-0.47094545
116	0xbe8d7eea	-0.2763589
117	0xbefb7cd3	-0.4911867
118	0xbede019d	-0.43360606
119	0xbeb06431	-0.3445144
120	0xbea0684a	-0.31329566
121	0xbed00726	-0.40630454
122	0xbeba3f61	-0.3637648
123	0xbee110e5	-0.43958202
124	0xbf00344a	-0.50079787
125	0xbed16331	-0.4089599
126	0xbedc0f11	-0.42980245
127	0xbf02b087	-0.5105061
128	0xbed7af04	-0.42125714
129	0xbd4afc86	-0.04955723
130	0xbec688be	-0.387762
131	0xbf01596c	-0.5052707
132	0xbee91ec1	-0.45531276
133	0xbebde261	-0.37086776
134	0xbecc5acb	-0.3991302
135	0xbe17af6a	-0.14813009
136	0xbe91d207	-0.2848055
137	0xbf0c0aab	-0.5470378
138	0xbee60bb5	-0.44930807
139	0xbeb5fc37	-0.35543987
140	0xbee21ff3	-0.44165
141	0xbe7f4f13	-0.24932508
142	0xbe1fefeb	-0.15618865
143	0xbeec20d4	-0.46118796
144	0xbf0bf31a	-0.5466782
145	0xbeda5f8d	-0.42651024
146	0xbe0e3f03	-0.13891225
147	0xbe8b06d9	-0.27153662
148	0xbc7945c8	-0.015214391
149	0xbe90c374	-0.2827412
150	0xbeb23d2f	-0.34812304
151	0xbe82c8ec	-0.25543916
152	0xbe397823	-0.18112235
153	0xbf0f4b2b	-0.5597407
154	0xbe599526	-0.21248302
155	0xbea3c5f8	-0.31986976
156	0xbee967d9	-0.45587042
157	0xbe8f12c7	-0.27944013
158	0xbeb9b36a	-0.36269695
159	0xbee71e90	-0.45140505
160	0xbe8f634e	-0.2800545
161	0xbe955d45	-0.29172722
162	0xbed79618	-0.421067
163	0xbdbd3943	-0.092394374
164	0xbee59e1d	-0.44847193
165	0xbd9c19f7	-0.0762214
166	0xbefc0acb	-0.49226984
167	0xbf00a53d	-0.50252134
168	0xbecd75e6	-0.40129012
169	0xbf127052	-0.5720264
170	0xbea7b0a8	-0.32751966
171	0xbea3a557	-0.31962082
172	0xbf1d0ac7	-0.6134457
173	0xbe75d793	-0.24008016
174	0xbe8d3579	-0.2757986
175	0xbecfdca7	-0.40598032
176	0xbe8d200b	-0.2756351
177	0xbe9ff9a7	-0.31245157
178	0xbed220d4	-0.4104067
179	0xbec2ee1a	-0.38072282
180	0xbe9243e6	-0.28567427
181	0xbe77a6c6	-0.24184713
182	0xbe890415	-0.26760927
183	0xbe34b2b0	-0.17646289
184	0xbef687e2	-0.48150545
185	0xbe1f9f44	-0.15588099
186	0xbe801e30	-0.2502303
187	0xbec54eaf	-0.38536593
188	0xbea07ef9	-0.31346872
189	0xbed8020b	-0.4218906
190	0xbf34b06e	-0.7058171
191	0xbe9a2c79	-0.30112055
192	0xbe9a0e4d	-0.30089036
193	0xbe5ca4bb	-0.21547215
194	0xbeb12a5f	-0.3460264
195	0xbe53b89c	-0.20675892
196	0xbef45ef5	-0.47728696
197	0xbeb2edb5	-0.3494698
198	0xbe3177f2	-0.17330912
199	0xbe6f3026	-0.23358211
200	0xbf00627f	-0.50150293
201	0xbeaa8bf0	-0.3330989
202	0xbec65495	-0.38736406
203	0xbebd5fb0	-0.36987066
204	0xbe60f1ec	-0.21967286
205	0xbe63cd36	-0.2224625
206	0xbe959462	-0.2921477
207	0xbed30d4b	-0.4122108
208	0xbe85a1ad	-0.2609991
209	0xbeaae843	-0.33380327
210	0xbefa09bc	-0.48835552
211	0xbeaa33a3	-0.3324252
212	0xbeca255c	-0.39481628
213	0xbe81d07e	-0.2535438
214	0xbed4d290	-0.41566896
215	0xbd91dd22	-0.07122256
216	0xbe8482d6	-0.2588107
217	0xbe3584ec	-0.17726487
218	0xbf117088	-0.56812334
219	0xbe65bb48	-0.22434723
220	0xbe3e334d	-0.18574257
221	0xbe434ffd	-0.19073482
222	0xbe3f7a1b	-0.18698923
223	0xbd206027	-0.039154198
224	0xbed98326	-0.4248287
225	0xbe982f88	-0.29723763
226	0xbe72c8ea	-0.23709455
227	0xbee160ef	-0.44019267
228	0xbdc5a1eb	-0.09650024
229	0xbe874777	-0.2642171
230	0xbede49dd	-0.43415728
231	0xbeeab900	-0.4584427
232	0xbe17b083	-0.14813428
233	0xbea6680b	-0.32501253
234	0xbe9ec440	-0.31009102
235	0xbe420bdd	-0.18949838
236	0xbe998b77	-0.29989216
237	0xbe8e4d44	-0.27793324
238	0xbe8b67ff	-0.2722778
239	0xbec555f7	-0.38542148
240	0xbec45063	-0.3834258
241	0xbe90a768	-0.2825272
242	0xbedad655	-0.42741647
243	0xbd9e9a77	-0.077443056
244	0xbf0f2c48	-0.5592694
245	0xbe6efbed	-0.2333829
246	0xbec03cdc	-0.37546432
247	0x3d6de004	0.058074966
248	0xbef5e317	-0.48024818
249	0xbebf2f38	-0.37340713
250	0xbedfc3e5	-0.43704143
251	0xbeb74734	-0.3579651
252	0xbea00008	-0.31250024
253	0xbe7a8f03	-0.24468617
254	0xbebeab4a	-0.37240058
255	0xbe9cdf17	-0.30638954

actor.4.weight f4 [40, 256]
0	0xbd8deefd	-0.06930349
1	0x3ee0ce35	0.43907323
2	0x3d18f8db	0.037346702
3	0x3ea937e4	0.33050454
4	0xbee6f798	-0.45110774
5	0x3caf9729	0.021434383
6	0x3f9c3f4c	1.2206817
7	0x3f250ad9	0.6446968
8	0xbd30838c	-0.043094203
9	0x3d38e0e8	0.045136362
10	0x3f1a829e	0.60355556
11	0x3cf40e34	0.029791929
12	0x3b89a8f9	0.0042010513
13	0x3df6cb8e	0.12050544
14	0x3de3edba	0.11129327
15	0x3dc5efda	0.09664889
16	0x3e27ba4f	0.16379665
17	0x3f0cc41c	0.5498674
18	0x3f07e88f	0.5308923
19	0xbd8d301c	-0.06893942
20	0xbd93b02a	-0.07211335
21	0xbf2bb9a7	-0.6708016
22	0x3e11e5a9	0.14247765
23	0xbed71fc6	-0.4201643
24	0xbe6d79ea	-0.23191038
25	0x3de43a9f	0.111439936
26	0x3e908f86	0.282345
27	0xbe377686	-0.17916307
28	0x3d9ae6ff	0.0756359
29	0xbf1e7500	-0.6189728
30	0xbcb4aeac	-0.022055946
31	0x3e9f4d4a	0.31113654
32	0xbf25538b	-0.645806
33	0xbdd4a361	-0.103827246
34	0xbe56e58f	-0.20986007
35	0xbdd8cf80	-0.105864525
36	0x3fcad56b	1.584638
37	0x3e240911	0.16019084
38	0xbd7c0f52	-0.061538048
39	0x3e39cff6	0.18145737
40	0xbe79cd40	-0.24394703
41	0x3eca75f5	0.3954312
42	0x3e1d1b1a	0.1534237
43	0xbc497664	-0.012296293
44	0x3ec6c658	0.388232
45	0x3e6f2ff0	0.2335813
46	0xbecfc168	-0.40577245
47	0x3d21fdd6	0.039548717
48	0x3d991520	0.074747324
49	0x3dc2a0c5	0.095033206
50	0xbf32c78b	-0.6983573
51	0xbf3b5394	-0.73174405
52	0x3eb24c39	0.34823778
53	0xbf14a225	-0.5805991
54	0xbef47a05	-0.47749344
55	0xbf4411ec	-0.76589847
56	0xbe2470a4	-0.16058594
57	0x3d98dc52	0.07463898
58	0xbe8199a5	-0.25312534
59	0x3f29484b	0.66125935
60	0x3e8b2591	0.27177098
61	0x3f132815	0.57483035
62	0xbd9f5702	-0.07780267
63	0xbe6cb040	-0.23114109
64	0xbe46393a	-0.19357768
65	0x3f0f60da	0.5600716
66	0xbe80b56a	-0.25138408
67	0x3ea838be	0.3285579
68	0x3d5089de	0.05091273
69	0x3f441791	0.7659846
70	0xbdcf0b97	-0.101096325
71	0x3eb52b1e	0.35384458
72	0x3ed29076	0.4112584
73	0x3e3ed515	0.18635972
74	0xbf3c17f6	-0.7347406
75	0x3d7696de	0.060202472
76	0xbf316f3d	-0.6931036
77	0x3eb26b0c	0.34847295
78	0x3fdf0842	1.7424395
79	0x3ec4a3d7	0.3840625
80	0x3e10e7a0	0.14150858
81	0x3c2befc4	0.010494176
82	0x3efb84f2	0.49124867
83	0x3e2ebf6c	0.17065209
84	0x3e228991	0.1587279
85	0x3e2a0f66	0.16607437
86	0x3f1a9273	0.60379714
87	0x3f1290af	0.5725202
88	0x3f5a8ed5	0.85374194
89	0xbf01b837	-0.50671715
90	0x3c619c0e	0.0137701165
91	0x3f1bc186	0.6084217
92	0x3f0e23fd	0.55523664
93	0x3ee0f659	0.43937948
94	0x3ed7cb79	0.42147425
95	0x3f31f85d	0.695196
96	0xbe98b64a	-0.29826576
97	0x3c970fed	0.018440211
98	0xbf1209ed	-0.57046396
99	0xbd1b7760	-0.03795564
100	0xbf032d73	-0.51241225
101	0x3e97af9e	0.29626173
102	0xbebe2ae9	-0.37142113
103	0x3eaa293d	0.33234587
104	0xbf389a73	-0.7211067
105	0x3d880948	0.06642395
106	0x3ee8869d	0.45415202
107	0xbe0b632b	-0.13612048
108	0xbe63a261	-0.22229911
109	0x3e370ca7	0.1787592
110	0xbe778790	-0.24172807
111	0xbf10c80d	-0.56555253
112	0xbf2e560f	-0.68100065
113	0x3eec82fd	0.46193686
114	0x3ebb6eab	0.3660787
115	0x3f4b9381	0.7952195
116	0x3ebbd0ab	0.3668264
117	0x3ed2f231	0.41200402
118	0xbf106dbd	-0.5641745
119	0xbd052bf9	-0.03251264
120	0xbe425e1e	-0.18981215
121	0x3e9efe7d	0.31053534
122	0xbe0d77ef	-0.13815282
123	0xbe5ed505	-0.21760948
124	0x3bb9cdcb	0.0056702844
125	0x3e1050ce	0.14093325
126	0x3edec905	0.4351274
127	0x3fa03ebc	1.2519145
128	0xbe0c2978	-0.13687694
129	0x3d804457	0.06263035
130	0x3e2ef361	0.17085029
131	0xbdf0ce8b	-0.11758145
132	0x3e9511cf	0.2911515
133	0xbdce5f49	-0.10076768
134	0xbe79ebdf	-0.24406384
135	0x3dfb7140	0.1227746
136	0x3eec65cf	0.46171424
137	0xbef630b1	-0.48084024
138	0x3e933356	0.28750104
139	0x3eed814b	0.46387705
140	0x3ea17aef	0.31539103
141	0xbf5bfee2	-0.85935795
142	0xbf65e201	-0.8979798
143	0xbebdc4e7	-0.37064287
144	0x4003fe36	2.0623908
145	0x3ea5d743	0.32390794
146	0x3e3f584c	0.18686026
147	0xbe876836	-0.26446694
148	0xbf503752	-0.8133441
149	0xbead1985	-0.33808532
150	0x3faf13eb	1.3677953
151	0xbe4aa367	-0.19788896
152	0x3e1b3861	0.15158226
153	0xbf326573	-0.6968605
154	0x3eef4924	0.4673549
155	0x3f17882d	0.5919216
156	0x3e45a079	0.19299497
157	0x3ea82512	0.32840782
158	0x3eabf040	0.33581734
159	0xbc8a19f4	-0.016858079
160	0x3ed8ff37	0.42382213
161	0xbe530ea2	-0.2061105
162	0xbf1229d6	-0.57095087
163	0x3ed3fab9	0.41402224
164	0xbe40f718	-0.18844259
165	0xbf645ba5	-0.8920234
166	0xbe38aec0	-0.18035412
167	0xbe174c6d	-0.14775248
168	0x3c8e8705	0.017398367
169	0xbe1f65cd	-0.15566178
170	0x3ebea7e4	0.37237465
171	0xbd36875d	-0.044562686
172	0x3f181f75	0.59423
173	0xbe64ae22	-0.22332051
174	0xbebd342e	-0.36953872
175	0xbf1aaa2a	-0.604159
176	0xbec7283a	-0.38897878
177	0x3d297084	0.04136707
178	0x3eb679ca	0.35639793
179	0x3eac1c8a	0.33615524
180	0x3efef3ee	0.4979548
181	0xbf247f96	-0.6425718
182	0x3d634405	0.05548479
183	0x3e233652	0.1593869
184	0x3ea1569d	0.31511393
185	0xbdac9f7b	-0.08428856
186	0xbece16ed	-0.40251866
187	0x3ea4d18f	0.3219113
188	0x3e62e58a	0.22157875
189	0x3f846e2b	1.034612
190	0x3ee1423c	0.43995845
191	0x3f08199a	0.53164065
192	0xbefd5fce	-0.49487156
193	0xbd9cd5aa	-0.07657941
194	0xbef2b4a9	-0.47403458
195	0x3ee68e50	0.4503045
196	0xbaa49833	-0.0012557566
197	0xbefcc05d	-0.49365512
198	0xbe8a8246	-0.27052516
199	0x3ccac678	0.02475284
200	0xbd468ff9	-0.048477147
201	0x3f31ec2d	0.69501
202	0xbe82688e	-0.25470394
203	0x3e7320db	0.23743002
204	0xbf01c444	-0.506901
205	0xbee72a8e	-0.45149654
206	0x3bd340a3	0.0064469143
207	0x3f372d4e	0.71553504
208	0x3e2754c1	0.16340925
209	0xbe92eb44	-0.28695118
210	0x3dbd1662	0.09232785
211	0xbf82b78e	-1.0212266
212	0xbd38ab18	-0.045085043
213	0x3f3c669c	0.7359407
214	0x3e3f552f	0.18684839
215	0x3dff9414	0.124794155
216	0xbe85315d	-0.26014224
217	0xbe01410b	-0.12622468
218	0x3ea11883	0.31464013
219	0x3edc78b5	0.43060842
220	0x3e436248	0.1908046
221	0xbe179da9	-0.14806236
222	0xbf486268	-0.78275156
223	0xbe71a1a5	-0.23596819
224	0xbee2a1f8	-0.44264197
225	0xbe16e60d	-0.14736195
226	0xbc9ada8a	-0.018903036
227	0xbf82d73f	-1.0221938
228	0xbe290bd8	-0.16508424
229	0xbf0fe170	-0.56203365
230	0x3ed6fbdb	0.41989025
231	0xbe96d9cf	-0.2946305
232	0x3e71621d	0.23572583
233	0xbecf2d8e	-0.40464443
234	0x3dddfef3	0.10839643
235	0x3f69d16b	0.9133517
236	0x3d9543c3	0.07288315
237	0xbeaab028	-0.33337522
238	0x3e713acd	0.23557587
239	0x3f0b90a9	0.5451761
240	0x3f2f27a9	0.6841989
241	0x3da3821d	0.079838015
242	0x3d960d8d	0.07326803
243	0xbee13493	-0.43985423
244	0x3ed6fce9	0.4198983
245	0x3dbf98ce	0.09355317
246	0x3f144bfb	0.57928437
247	0xbf39b66e	-0.7254399
248	0xbe52b53e	-0.20576951
249	0x3de77082	0.11300756
250	0x3e93a4a6	0.28836554
251	0x3ef9eb45	0.4881231
252	0xbea5c896	-0.32379597
253	0xbe4b6464	-0.19862515
254	0xbdf072c6	-0.11740641
255	0xbe59b543	-0.21260552

actor.4.bias f4 [40]
0	0xbf6b6a38	-0.9195895
1	0x3ded7583	0.11594679
2	0xbf524c7d	-0.8214796
3	0x3e386215	0.18006165
4	0x3e59a25c	0.21253341
5	0x3df8aee6	0.12142734
6	0xbe3e4d54	-0.18584186
7	0x3ec49ed3	0.38402423
8	0x3ed6acdd	0.4192876
9	0xbb359083	-0.0027704544
10	0xbf8a92a4	-1.0826001
11	0xbdd55fd0	-0.104186654
12	0xbfb7f634	-1.437201
13	0xbec7a0a7	-0.38989756
14	0x3e14efe3	0.14544635
15	0x3ea119ba	0.3146494
16	0xbd8b4a91	-0.06801332
17	0x3ef77513	0.48331508
18	0x3ebe557f	0.37174603
19	0xbebb53e9	-0.36587456
20	0xbf6807b5	-0.9063676
21	0xbd88548a	-0.066567495
22	0xbf1483f9	-0.58013874
23	0xbd15513a	-0.036454417
24	0x3ea89876	0.32928818
25	0x3ee9f47b	0.45694336
26	0x3cf05e92	0.02934197
27	0x3f3804c3	0.71882266
28	0x3f1ba568	0.60799265
29	0x3e1ff358	0.15620172
30	0xbf8f2d2b	-1.1185659
31	0x3e9ac539	0.30228594
32	0xbf61e2d6	-0.8823675
33	0x3e4998ba	0.19687167
34	0x3eff24dd	0.49832812
35	0x3e928df9	0.28623942
36	0x3eb5bb16	0.35494298
37	0x3f30a82e	0.6900662
38	0x3f19bf37	0.60057396
39	0x3eb5ed2b	0.35532507
