only_win_reward.pt (torch, 906353 bytes, 11 tensors)

critic.0.weight f4 [256, 162]
00000000: 7e44 d7bd 4302 ccbd b280 96be 84c1 473e
00000010: c248 e7bd ed1b ce3d 0620 fd3d f506 27bd
00000020: cece 773c c2f5 cbbd edb3 06bc 4df3 d4bd
00000030: 4579 81bd 4337 d3bd 4385 78be 6267 42be
00000040: 2e78 aabc f611 e5bd b593 8abd 047a acbe
00000050: 0b26 91be e393 76be cbc5 123c 34ed 973d
00000060: 7e5a c2bd 2080 81be 4d1b d53d 5237 72be
00000070: 2110 72be e0b8 db3c b277 4bbd ae88 fa3d
00000080: f679 403c 302e a3bd f83c c9bd a5f5 2abe
00000090: 5a35 a1bd 94e6 b8be ee8c 853d 0508 823e
000000a0: dead 97be ff40 bebe 2c1d c53e 6cd1 623d
000000b0: e430 a0be 788c 94be b886 b4bb b062 903d
000000c0: 81ca 5ebe 205c b6bc 97e5 babe 229b c8bc
000000d0: 10c2 493e 71d6 423e 2730 9ebe 4f43 023d
000000e0: 3a80 84be b10b d0bd 195a 44be 2c59 11be
000000f0: d472 30be f2df 48be 9dff 56be f5a7 97be
00000100: 8875 013e 1627 ddbd 0570 e33d ede3 b73d
00000110: 7034 71be 6caf 45be 72f8 153e 75f1 263d
00000120: 0720 723e 4f06 783c 1f54 023d d67d bc3e
00000130: 070f 713d 339d 8a3e 062e 0bbe 4737 7d3e
00000140: 40e6 c7bd 1c81 00be 262f 653d 8ea9 d73c
00000150: 4d35 5bbe 0376 e6bd 8d53 8a3c 5d2e b53b
00000160: d4ae 873d 5c33 a83d 6f28 953d ceb5 91bc
00000170: 425a 0b3e 52c0 dabd bf5c 0f3d 6069 b0bd
00000180: c70f 8cbc acbe 1abd 9791 cabd 8dfc a8bd
00000190: 77d9 27be 5284 b3bd b3ba 133d d40e 1d3e
000001a0: 7c95 18be e985 3ebe 30e4 d9bd 274d 4bbd
000001b0: 4b78 01bd 7d6d 54bd ef74 603e a9a1 0cbb
000001c0: d0fc 823e 5412 09be 8e55 a1bd 33f6 97bd
000001d0: dcb6 8c3d 023c 41bd 71d3 a2bd 5f06 403c
000001e0: 4923 adbe fa35 0abe 0d96 69bd a14a ea3c
000001f0: 38a1 06bd 3aab 133e 1ce0 64bd 7da9 5c3d
00000200: 7bb8 293e 7c35 3cbe d918 c4be f1b0 5cbe
00000210: b79a 24be d93e 693d 669e c5be bca7 57bd
00000220: 08ff 8ebc 8e47 50be 6a0e f7bc 349c 1cbe
00000230: 2077 2dbe 2742 f4bc e679 1d3e c007 cbbd
00000240: 1583 1cbd c8d5 08bd 8902 31bd 28dc 97be
00000250: 9478 95bd 8542 75be d794 7dbe b725 c73c
00000260: 3cfd bebe 7042 6cbe 1e50 233e 3fc9 d9bd
00000270: 3f10 623d cd41 b0be b7b3 babd b779 02bd
00000280: 5d67 43bf 4ee4 e23e 8759 013e a234 43bd
00000290: 8caf 2b3e 0b67 da3c af93 75bd 6cb4 babd
000002a0: 6e28 24bd 6b30 f2bc 6749 983b 91e4 3fbc
000002b0: af38 f5bc de24 0d3d aa35 e13a e207 82bb
000002c0: e4d2 0ebb 0cc9 7d3d badb 4dbd 18c4 a8bc
000002d0: d9b4 9bbc 5bd7 2b3d 9cb2 8e3e 22f5 93bc
000002e0: 9f9a 0b3e ea4e 01bd 12bd 85bd 1df0 48bd
000002f0: 36ab 0bbd 263f 40bd a446 093c 90a6 a73d
00000300: 42a0 043d 2467 33be 69b9 c4bd 71ce 31be
00000310: 7954 13be 29ac 42be 58c3 fabd 0485 16be
00000320: 8b39 63be b29d 4dbe c8f3 333e bdd4 913e
00000330: 7411 473e ff4a b73e 8f3b 703e 1ab1 8f3e
00000340: ada3 8f3e 4f96 783e 5fcc a63d 494e 8e3e
00000350: b4d2 cf3e c3de d23e be1e 583e cd4a 933e
00000360: 02b9 a03e 2768 513e c269 573e 6c51 973e
00000370: fdf6 ab3e 6cdf 6c3e 0a2d ff3d 8675 c9bd
00000380: 25ca 183e 67da 98bd 6f59 6ebe 77a7 7dbd
00000390: b322 e0bd a87f 0fbe 6745 e6bd 4a9f bfbc
000003a0: 951d c5bd 2fef 92be 63f7 94be af53 4ebe
000003b0: 44ed 7fbe 1982 3cbe 2be8 93be 242c 19be
000003c0: 043c 20be 3448 d4be 1540 1b3e 3679 afbd
000003d0: 6ea2 733e 2724 9abd d33a 9fbd 7257 39be
000003e0: 84ac 3fbd cc84 373e 70ae 953e 0bb4 853e
000003f0: 1192 303e 5e80 07bc 111f 073f e7b3 c8bd
-0.10511111 -0.09961369 -0.29395062 0.19507414 -0.11293174 0.1006392 0.123596236 -0.04077812
0.01512499 -0.09958984 -0.008221609 -0.103979684 -0.063219585 -0.10313275 -0.24269585 -0.1898475
-0.02080926 -0.111850664 -0.06766454 -0.3368684 -0.28349337 -0.24079852 0.00895829 0.0741829
-0.09489916 -0.25293064 0.10405598 -0.23653916 -0.23638965 0.026821554 -0.049674697 0.12233101
0.011747828 -0.07967794 -0.09826082 -0.16695268 -0.07871504 -0.36113417 0.06521021 0.25396743
-0.29624838 -0.37158963 0.3849882 0.0553755 -0.312873 -0.2901342 -0.005509224 0.07050073
-0.21756937 -0.022260725 -0.36503288 -0.024488036 0.19702935 0.19027115 -0.30896112 0.03180247
-0.2587908 -0.1015848 -0.19174995 -0.14194173 -0.17231303 -0.19616678 -0.20995946 -0.2962033
0.12642491 -0.10798471 0.111053504 0.0897902 -0.2355516 -0.193052 0.14645556 0.040757615
0.2364503 0.015138223 0.031818505 0.36814755 0.05885222 0.27073058 -0.13591775 0.24728118
-0.097607136 -0.12549251 0.055953167 0.026325967 -0.21407051 -0.11252978 0.016885543 0.0055292086
0.06625143 0.08212921 0.07283103 -0.017786887 0.1360865 -0.106812134 0.03500056 -0.08613849
-0.017097367 -0.037779495 -0.0989105 -0.08251295 -0.1639155 -0.087654725 0.036066722 0.15337688
-0.14900774 -0.1860577 -0.106392264 -0.049634125 -0.03160886 -0.05186223 0.21919607 -0.0021458662
0.25583506 -0.13385898 -0.078776464 -0.07420006 0.06870815 -0.04717637 -0.079504855 0.011720269
-0.33815983 -0.13497153 -0.057027865 0.028600039 -0.032868594 0.14420786 -0.05587779 0.053872574
0.1657428 -0.18379778 -0.38300207 -0.21551873 -0.16074644 0.0569447 -0.3859741 -0.0526502
-0.017455593 -0.20339796 -0.03015824 -0.15293962 -0.16939974 -0.0298167 0.15378532 -0.099135876
-0.038210947 -0.033407003 -0.04321531 -0.29660153 -0.07298389 -0.23951156 -0.24763809 0.024309976
-0.37302577 -0.23072219 0.15948531 -0.10634088 0.055191275 -0.34425202 -0.09116309 -0.031854358
-0.76329595 0.44314808 0.12631808 -0.047657616 0.16766185 0.026660463 -0.059955295 -0.09116444
-0.04007762 -0.029564103 0.004647422 -0.011712209 -0.029934255 0.034458987 0.0017182131 -0.003968225
-0.002179318 0.06195931 -0.050258376 -0.020601317 -0.019007133 0.041953426 0.27870643 -0.018061224
0.13633202 -0.0315694 -0.06530203 -0.049057115 -0.034098826 -0.046935223 0.008378658 0.08186066
0.032379396 -0.17519814 -0.09605677 -0.17363907 -0.14387693 -0.19010986 -0.1224429 -0.14699179
-0.2218992 -0.20079687 0.17573464 0.2848262 0.19440252 0.35799405 0.2346022 0.28064805
0.28054562 0.24276088 0.081444494 0.27794102 0.4059044 0.4118558 0.21105477 0.28768006
0.3139115 0.20449887 0.21036437 0.29554307 0.33586875 0.23132104 0.124597624 -0.09836869
0.14920862 -0.07463532 -0.23276304 -0.061927285 -0.10944118 -0.1401354 -0.11243706 -0.023391385
-0.09624783 -0.28698108 -0.2909499 -0.2014911 -0.24992853 -0.18409003 -0.28888068 -0.14958245
-0.15647894 -0.41461337 0.15161164 -0.08568041 0.23792431 -0.07526427 -0.07774892 -0.18099764
-0.046795383 0.17921752 0.29234648 0.26113924 0.1724322 -0.008270351 0.5278178 -0.09799939

critic.0.bias f4 [256]
00000000: da12 b2be 1063 9b3e e56a c5be 74a3 0f3e
00000010: 4256 b9be d04d c5be afcf d5be 632e aebe
00000020: 6bc9 95be d6f7 6dbe 91da edbe 56ae 3fbf
00000030: e0ad 9abe 277d b93e 1e18 02bf dfe6 1bbf
00000040: 5129 c3be 775f a7be 7bc3 cfbe c634 14bf
00000050: cb44 843d 0ec3 7b3e eb25 6cbf 2d7a e0be
00000060: 8402 9fbe cb38 be3d 83d3 cebe 015a 0bbf
00000070: d3e8 ccbe 16a2 88be 7618 a8be b436 32be
00000080: d164 cfbe 42e6 07be 549a 55bd 45a6 793e
00000090: dd9a c63d 0750 16bf c982 03bf a760 bf3e
000000a0: 0e75 8d3d 766a 9bbe 5d7a a5be a3e4 cabe
000000b0: dc24 703f 2aea 69be 4d82 033c 139e 02bf
000000c0: 8a2e 17bf f414 66bf f93f febe 38d2 f8be
000000d0: d0f2 0cbf 7b4d 16bf 6431 e7be c5eb 03bf
000000e0: 260a ebbd 9b5f f63c 9aa0 abbe 23f2 08bf
000000f0: 12bd c3be 26c2 38bd 4647 27bf 7cf5 5abe
00000100: d732 fbbe 8a8a 9f3f 0540 5bbf c390 253e
00000110: 5f43 28bf 18e6 f9be 9dbb 02bf 7576 ddbd
00000120: 0daf b4be f7c5 fe3d 6b52 4abe 58c7 bcbe
00000130: 64ee dcbe 6e38 75be 5b9e 003e 2bc6 58bd
00000140: a51a 7b3d 13c0 a8be 2472 ddbe 296a 903e
00000150: 5382 6dbe 4619 bebe e62b d6be e528 ac3e
00000160: c0ec bebe 697a 0dbf 3f30 e3bd be61 8b3e
00000170: 1553 2dbf 5fe3 f7bd f6a5 e03e 14af f7bd
00000180: 63f0 283e 01c3 30be a91e 423e dbf0 6bbd
00000190: 37ca 96be 862c 833e adbc a7be ffd4 06be
000001a0: 2922 07bf 44c6 ddbd edd2 00bf 7583 27bf
000001b0: 26db 01bf 13e1 cbbe 98fd 15bf cda0 f4be
000001c0: 1fd1 0abe 2579 a8be 623a 0f3e 2f69 793e
000001d0: 04d8 a1be 1030 e7be 0a5e c7be 0ef5 acbe
000001e0: c256 86be ac73 46bf c7e5 89be bb71 93be
000001f0: eee6 22bf 6911 11bf a3da 20bf 28d3 1ebe
00000200: 1679 f6be 4c62 193d e5b7 003f 04d2 94be
00000210: 9f7c 88be 7372 9c3e e4a9 b73d 9e34 073d
00000220: 429b d7be 890c 96be 03aa 2e3e cc14 01bf
00000230: dd2c 3abf 632c 0fbf 7451 a7bd 042d 6bbe
00000240: 0436 99be 2fb0 f4be e77d 25bf 7b2c a3be
00000250: bce5 53bd c57b 25bf 728b 33be 6fd7 01bf
00000260: 9acb a53e 08be 803d de93 1b3e 445c 04bf
00000270: d781 2ebf f5f7 ef3c d735 ca3d b304 0fbf
00000280: 49fc 97be 9daa 183e 6bf9 ebbd e51e a2be
00000290: c45c cebd 14fb 54bf a204 92be 011a c7be
000002a0: f904 e8bd e2ba 12bf d4e1 f1be d473 b2be
000002b0: b299 0bbd 02f9 9cbe a5ca 5b3d d00b 243e
000002c0: 0efe b33d 4a60 5cbe 4df2 15bf 8354 0dbf
000002d0: 0568 72bf bacb bcbe 718f 9c3d fb88 3a3e
000002e0: a189 58be 4253 a3be 30cc 41be afdb ba3e
000002f0: c044 ebbe 8b38 99be 6533 a4be 049a 26bc
00000300: aabf 1dbf ee26 dfbe 0578 8cbe a3bf d2be
00000310: 0f91 dbbe 1e5a bfbe dd74 b13e 4762 adbe
00000320: 01ec f0be 71d4 cabe 8397 353e a3cd 0bbf
00000330: d204 8f3e 118c e6be cbac 35bf adde 2ebf
00000340: 1558 23be ffe9 c0be f5b6 28be a2c2 14bf
00000350: 61ef 9d3e daab b0be 298b 0abf b7a1 f2be
00000360: cb35 11bf 7101 fb3e f1d2 91be a0a9 893e
00000370: 27b6 89be 02fe fa3e 8fdd 54be 07f7 41be
00000380: 07bb 343d 643e 6d3e b30e 3dbf e748 95be
00000390: f525 cebe aee9 38bf 83c8 85bd ce5c 89be
000003a0: 2ff4 32be 5aae c6be f788 f8be b772 0b3d
000003b0: 4c4f 0d3f e94a 01be 01f3 9dbe 1064 cdbe
000003c0: 1092 6c3e 18bf 183f 6d3d 75be 490f 8bbe
000003d0: 40fd 87be d12b 08be bc5e eebe 90d5 bebd
000003e0: dd97 aabe d7b9 b0bd e999 0a3f f0ba 553f
000003f0: 33fe cbbe d205 283e fa4a e5be 38d6 23bf
-0.34780008 0.30349016 -0.38558117 0.14027196 -0.36198622 -0.3853593 -0.41760013 -0.34019765
-0.29255232 -0.23239073 -0.46455815 -0.7487539 -0.3021078 0.36228296 -0.5081805 -0.60899156
-0.3811746 -0.3269002 -0.40578827 -0.57893026 0.06458434 0.24586126 -0.9224536 -0.43843213
-0.31056607 0.09288176 -0.40395746 -0.5443421 -0.4002138 -0.26686162 -0.32831162 -0.1740368
-0.40506604 -0.1327143 -0.052149132 0.24379833 0.096975066 -0.5871586 -0.5137144 0.37378427
0.06907092 -0.3035466 -0.32319918 -0.3962756 0.9380624 -0.22843233 0.008026672 -0.5102245
-0.5905539 -0.8987572 -0.49658182 -0.48597884 -0.55058 -0.58711976 -0.4515487 -0.5153163
-0.11476545 0.030074885 -0.33520967 -0.5349447 -0.38230187 -0.04510703 -0.6534313 -0.21382707
-0.49062225 1.2464154 -0.8564456 0.16168503 -0.657278 -0.4880836 -0.51067525 -0.108136095
-0.35289803 0.124401025 -0.19758002 -0.36870837 -0.43150628 -0.23947307 0.12560408 -0.052923363
0.061304707 -0.3295904 -0.43251145 0.28205994 -0.23194246 -0.37128657 -0.41830367 0.3362495
-0.3729 -0.5526491 -0.110931866 0.2722301 -0.677049 -0.121039145 0.43876618 -0.120939404
0.1649795 -0.17261888 0.18957008 -0.057602745 -0.29451153 0.25619906 -0.32761136 -0.13167189
-0.527865 -0.10828832 -0.5032185 -0.6543496 -0.5072502 -0.39820156 -0.5859008 -0.4777893
-0.13556336 -0.32904926 0.13987115 0.2435653 -0.3161012 -0.45153856 -0.38938934 -0.33780712
-0.26238066 -0.7752025 -0.2693312 -0.28797707 -0.6363362 -0.5666719 -0.62833613 -0.15510237
-0.48139256 0.03744726 0.502806 -0.2906648 -0.26657578 0.30556068 0.08967951 0.033009164
-0.4211064 -0.2930644 0.17057042 -0.5042236 -0.72724706 -0.55927104 -0.08169833 -0.22966391
-0.29924023 -0.47790667 -0.64645237 -0.31869873 -0.051732764 -0.6464198 -0.17533663 -0.5071935
0.32381898 0.062862456 0.15193126 -0.51703286 -0.6816687 0.02929304 0.098735504 -0.55866545
-0.29684666 0.14908834 -0.11522182 -0.31664196 -0.100762874 -0.83195615 -0.2851916 -0.38887027
-0.113290735 -0.5731641 -0.47242606 -0.34853995 -0.034082122 -0.30658728 0.053660054 0.16020131
0.087886915 -0.21521106 -0.58572847 -0.5520708 -0.9468997 -0.3687418 0.07644547 0.18216316
-0.21146251 -0.31899458 -0.18925548 0.3649573 -0.4595089 -0.2992595 -0.3207046 -0.010168556
-0.6162058 -0.43584388 -0.27435318 -0.41161832 -0.42884108 -0.3737344 0.34659472 -0.33864042
-0.47055057 -0.39615205 0.17733578 -0.5461065 0.27933365 -0.45028737 -0.70966786 -0.68308526
-0.1595157 -0.37678525 -0.16476043 -0.58109486 0.30846694 -0.34506112 -0.5411859 -0.47389004
-0.56722707 0.49024537 -0.28481248 0.26887226 -0.26896784 0.49021918 -0.20787643 -0.1894189
0.044123676 0.23168331 -0.73850554 -0.29157183 -0.40263334 -0.72231567 -0.06532385 -0.26828617
-0.17475961 -0.38804895 -0.48541996 0.034044947 0.5519912 -0.12626232 -0.3084946 -0.40115404
0.23102593 0.59666586 -0.23949213 -0.271601 -0.26560402 -0.13297965 -0.46556652 -0.093180776
-0.33318987 -0.08629196 0.541411 0.8348837 -0.39842376 0.1640847 -0.44783765 -0.63998747

critic.2.weight f4 [256, 256]
00000000: 40a1 ed3d 1fcc 303e 376e b73d 6c71 0c3e
00000010: e363 9ebc d7f5 f1bc d678 113e ab1b 523d
00000020: 6e83 2d3e f83c 2c3d 63a4 19bd 0506 f33d
00000030: 82b1 fd3c c0bf cabc ab11 5bbd dbad 5b3e
00000040: 1951 93bd 7fb6 0e3e 380a 313e d1fe 7f3e
00000050: 2eaf c53d ee82 f2bd a325 e8bc de9c 453d
00000060: 42a4 8e3d eabe 0bbd 22fc 4f3e ba5d 573d
00000070: 6001 273c e3b2 09bd 3c34 56be a023 973d
00000080: db9f 753e a2c2 0ebc 0fde 22be 51c5 2fbe
00000090: 2ca5 c0bc f622 2f3d 1202 813e 9699 fdbe
000000a0: 5330 e2bd 5acf 853d 2a24 35bd 60ba cc3d
000000b0: ee2d 50be 51b9 503e 973d c83d c34f 103e
000000c0: 522b 5c3e 49f8 f63d 03ed 973d 5226 873c
000000d0: 70ff 56bd 4420 1abe 4687 dbbc 2a80 c13d
000000e0: 961a b4bb e1c0 523e 593f 463e 3034 d6bd
000000f0: ce2b 3a3d 4f3a 883d 0cd7 4dbd 0223 9a3d
00000100: 9da7 883d 154f dfbe 4d07 3d3e 1e6d d439
00000110: 8cab 7a3e bb26 993e 4b17 e03d 0726 f33c
00000120: 203b ed3d 6daa 58be bd89 393d 7daa 1f3e
00000130: adc6 793e 0613 9fbc 31f7 a1bd 7a63 e33d
00000140: 0bc7 03bd 3fc1 b93e 382d b9bb 8996 71bd
00000150: a065 2c3e 9434 29bd 05b4 8e3e 3399 d9bb
00000160: 0425 d53d 7f4e 923e d0b6 c4bd 1e1c 9ebe
00000170: 5791 943e 8fdc bcbd 5479 44bd 30be 59be
00000180: 1204 963c c8a4 c83d 5603 7dbe 2174 fb3d
00000190: 48c2 d23c 0b45 3b3d fa46 a8bd acf5 b4bd
000001a0: 87e4 a43d fb82 0f3d bea2 e23d 8a94 a93d
000001b0: 6c98 44bd 2884 553e 2ccb 2d3e 9762 e13c
000001c0: 5f1e 973e a0d5 c23e 5c02 d33c fe3e 91bd
000001d0: d63e a2be 5489 8a3e 57e0 5f3e 6c4d 363c
000001e0: aced 0bbd 9db2 d03c aa8b ae3d 8045 c73d
000001f0: 9fe0 c13d cc15 06bd 49e9 0f3e 40c1 a6bd
00000200: 3ed5 d93d b4ca 113c ad0d 6fbe 0268 44bc
00000210: 62cf 293e d5eb 39be 6b0a 83bd 7b75 58be
00000220: 2f9c 063e c5a7 d93d 1c83 403e c2ae b2bd
00000230: 3ee4 333e 7a7a 133e a71c 2c3d fb25 af3d
00000240: ba84 ba3d f9be 183e ea63 66bd 05f2 343e
00000250: e150 0dbe ac9a b83d db82 46be 94c7 cf3c
00000260: 8df0 7a3c c5b5 04be faa9 5f3d 2c33 ba3d
00000270: e1d3 b73d 02ee 2cbd b02d 203e 2187 df3d
00000280: bfcb 74bc ab66 47be 1ae0 b33d e83f 2c3e
00000290: c145 01be 8610 cc3d f718 413e 6513 613d
000002a0: a42d 343e 4167 7e3e 6528 323e 2a06 133d
000002b0: 0afb b3bc 56da 473e b6bd 38be d14e d2bd
000002c0: f1cb 90bb 4ef6 503d 53f8 a03d ddf3 bfbd
000002d0: 0ba1 6fbe d277 5abc 3bb3 ce3d affb 053d
000002e0: b3e6 36bd 1667 853e dc38 07be 248b 43be
000002f0: 232f 533c d15e 713d 60db f93d 33fb 95bd
00000300: 7ed2 02be 3b82 903d 854a b9bc 1c43 f7bc
00000310: 4966 2f3e 73bd c23d 8ffc 3cbe ec91 d23d
00000320: c4d6 1e3e 4912 07be c6bc f2bd bb8b 273d
00000330: d1c7 943d 8bb9 043e 0844 0dbe f293 ef3d
00000340: 92e6 263e e1e8 f93d 4a0a 62be 44cb b7bd
00000350: 5344 d8bb 6165 21be f61d eb3d f0ec d4bd
00000360: 89e3 b5bb be33 0bbe d0c7 093e 461a 4fbd
00000370: 35ce 3b3e 6383 683e 6d77 cabd 8507 0abc
00000380: 3fe1 083e 6176 20be b952 01be 421b eeba
00000390: f02a 0fbd aab1 53bd 0869 a0be 6765 97bc
000003a0: ca6e 19bd 3da3 0b3e 616b 683e 3a16 ccbd
000003b0: 0cbc 96be 29ca 01be 68db 773d b5f8 ea3d
000003c0: d198 9c3c d9a4 8dbe c2be b63d 0ca6 e13c
000003d0: 85da 70bb b7b8 8e3d b196 3c3d a5b3 dabd
000003e0: 01c4 4e3e 5097 ab3d bcf7 69be 79bb 263e
000003f0: 8fb4 e33b bb22 bc3d 2533 f43c 9bee c33d
0.116030216 0.17265366 0.08956569 0.13715142 -0.01933474 -0.02953617 0.14206252 0.051295917
0.16944668 0.04205033 -0.037510287 0.118663825 0.030968431 -0.024749637 -0.053483646 0.2145304
-0.071932025 0.13936804 0.17289054 0.24999548 0.096525535 -0.11841379 -0.02833826 0.048245303
0.069649234 -0.034117617 0.20311025 0.05257962 0.010193199 -0.033617865 -0.20918363 0.07379842
0.23986761 -0.008713396 -0.15905021 -0.17165114 -0.02351626 0.04275795 0.25196892 -0.4953124
-0.11044373 0.0653369 -0.04422394 0.09996486 -0.20330021 0.20383193 0.09777372 0.14092927
0.215009 0.120590754 0.07418253 0.016497765 -0.052489698 -0.15051371 -0.026797902 0.094482735
-0.0054963334 0.2058139 0.19360103 -0.10459173 0.04545193 0.066517465 -0.050253913 0.075262085
0.06672595 -0.43615022 0.18459816 0.0004051709 0.24479502 0.29912362 0.10941943 0.029681219
0.11583543 -0.21158762 0.045297373 0.1559238 0.24392195 -0.01941825 -0.07908476 0.11102958
-0.032172244 0.36280248 -0.0056511424 -0.058981452 0.16835642 -0.041309908 0.2787172 -0.006640577
0.10407451 0.28575513 -0.09605181 -0.30880827 0.29017136 -0.09221756 -0.04796727 -0.21263957
0.018312488 0.097970545 -0.24708304 0.12278009 0.025727406 0.04572014 -0.08216663 -0.08835921
0.08051401 0.035037022 0.11066197 0.08280285 -0.047996923 0.20851195 0.16972035 0.027512832
0.2951536 0.38053608 0.025757961 -0.07092093 -0.31688565 0.27057898 0.21862923 0.011126857
-0.03416221 0.025475794 0.085227326 0.09730053 0.09466671 -0.03273563 0.14053835 -0.08142328
0.10636376 0.008898426 -0.2334506 -0.011987688 0.16583017 -0.18156369 -0.063984714 -0.21138565
0.13145517 0.106277026 0.18800014 -0.08724739 0.17567536 0.1440219 0.042019513 0.08552166
0.09107347 0.149166 -0.05624763 0.17670448 -0.13800384 0.09013876 -0.19385855 0.025363721
0.015316141 -0.12959965 0.05460546 0.090917915 0.089759596 -0.04221917 0.15642428 0.10914446
-0.014941155 -0.19472758 0.08782978 0.16821253 -0.12624265 0.09964089 0.1885718 0.054950137
0.17595536 0.24844076 0.17398222 0.03589455 -0.02197029 0.19516882 -0.18041119 -0.10268939
-0.004418843 0.051016144 0.07859864 -0.09372685 -0.23401277 -0.013334231 0.10092779 0.032710727
-0.044653606 0.2605521 -0.13205284 -0.19096047 0.012889656 0.058928315 0.122000456 -0.07323303
-0.12775609 0.070560895 -0.022618541 -0.030183367 0.17128862 0.09508791 -0.18455718 0.10281739
0.15511614 -0.13190569 -0.11852412 0.04090474 0.072646745 0.12961404 -0.13795483 0.1169814
0.16298893 0.12202621 -0.22074237 -0.08974317 -0.0065999418 -0.15761329 0.11480324 -0.10396755
-0.005550806 -0.13593957 0.13455129 -0.050562166 0.1834038 0.2270637 -0.0988606 -0.008424644
0.13367175 -0.15670158 -0.12629212 -0.0018166082 -0.034953058 -0.051683106 -0.31330132 -0.01848097
-0.037459172 0.13636489 0.22697212 -0.09965177 -0.29440343 -0.12674774 0.060511976 0.11473218
0.019115837 -0.2766483 0.08923103 0.027544998 -0.0036751342 0.06968825 0.046042148 -0.10678796
0.20191957 0.0837847 -0.2284841 0.16282453 0.0069490145 0.09186312 0.029809544 0.09566995

critic.2.bias f4 [256]
00000000: d109 8bbe 740f 80be 4bf6 b8be 5a4f 9cbe
00000010: 6dda 9bbe 9430 9dbe 2041 9bbe cbc7 3ebe
00000020: d402 adbe a814 97be 5d21 6abe b703 77be
00000030: e546 c7be 5a00 37be 8f1a c5be 6997 aebe
00000040: 1724 86be a71f 90be 0aba 95be 060d 84be
00000050: f601 81be ce29 59be 0b00 b3be fbbe a1be
00000060: 6452 8bbe 382c 83be 9e88 a2be d4dd a9be
00000070: df83 93be 6345 88be 91c7 89be d1a4 85be
00000080: 418f 8ebe f791 7abe 15ba 94be 1da1 9dbe
00000090: d904 9abe 2388 92be 7a74 7abe f18d b2be
000000a0: 5d9f a2be 581b 8bbe fec1 92be c91f 84be
000000b0: 7827 b4be 3c7a c7be 8d85 9cbe 2e9f 9cbe
000000c0: f7e6 72be b10f 81be 6e69 4dbe b079 56be
000000d0: 0b76 74be 5f18 90be 9e29 7abe 392d 88be
000000e0: bcd6 5ebe 69c7 76be ee72 9bbe b4b5 31be
000000f0: dd99 13be d061 89be d778 92be 6e3c 67be
00000100: 6a08 7cbe 64a3 acbe 4fd4 8dbe 88b3 b9be
00000110: 3b63 5cbe 4a56 93be 9fd0 95be ee91 bebe
00000120: dab1 a4be ad1e b0be 2008 7cbe 1b54 a5be
00000130: cb3d a1be b7b6 85be 7e03 95be b5ce b0be
00000140: ff1c a6be d4b2 8abe c584 b0be 3704 a7be
00000150: 432a bbbe 6df4 8ebe df5a 44be 13b1 b1be
00000160: d329 b4be b723 b9be 9121 af3b 7bdf f1be
00000170: 39b0 e0bd 329b 82be 8792 abbe f169 88be
00000180: d0fd 7dbe d0d2 8dbe 6c18 6bbe 360e 7dbe
00000190: 7896 96be fd84 66be 61d7 86be 8806 63be
000001a0: 7f9f a4be 0ef9 4dbe a44a 6abe 4e8b 94be
000001b0: c335 95be ed11 53be 1d5b 9abe f0e5 b4be
000001c0: 4158 a0be ae62 63be c9c5 a5be 0067 9ebe
000001d0: 4467 66be 3d91 8bbe d055 76be 7178 b9be
000001e0: bfb2 5fbe 1e76 9abe 1c0e 8dbe dadd 83be
000001f0: e2fb 9dbe 3e47 41be aee9 a3be 3a89 97be
00000200: 53f0 8dbe 5359 aabe 9b52 87be b560 80be
00000210: fa34 7ebe 823f b2be 1656 89be f109 97be
00000220: 15a3 a8be 39fb 2cbe e9c8 bfbe b329 4ebe
00000230: 7929 87be e304 a6be db5d 5bbe 1ad8 8ebe
00000240: 888f 55be 3111 5ebe 2066 90be a3e9 363d
00000250: de0d 4fbe 963b c0be 0cc0 76be 1b68 7fbe
00000260: 2ccf 92be febf cabe b457 70be 27f5 72be
00000270: 953b 97be fe4c 92be fb44 a3be b1ca 83be
00000280: a06b 71be bd26 82be 4875 98be e5b0 3cbe
00000290: 7564 74be 421c 9cbe d823 a8be 9845 70be
000002a0: 696b a1be 18e2 a6be 3a9b 89be 3b9b bebe
000002b0: b459 a3be e246 81be 91d7 00be f045 9ebe
000002c0: fef3 9bbe 36b7 88be 7447 3abe 7e38 b0bd
000002d0: 5116 36be 2108 95be 7808 a7be 3983 90be
000002e0: a7e8 82be edab 72be b62a a3be 999e 73be
000002f0: d3e3 8bbe 5a34 88be ce7f 90be 9da8 a4be
00000300: 79ad 88be 18b6 97be 6b92 86be c2e4 6fbd
00000310: 138e 9ebe d53f 93be 355d 95be c0f9 b2be
00000320: fde8 a2be b21a 8bbe 9ba3 bebe d2b4 95be
00000330: 30f3 0cbe a93c 7dbe 2a96 8cbe 3d28 aabe
00000340: fe35 96be 7b7f 81be bc20 7cbe 3f7f 92be
00000350: d6c2 6dbe 9a7b 9fbe 627b 68be 6a6c 84be
00000360: 351a b7be 9652 0cbe 8605 c3be e406 8dbe
00000370: 7aa7 75be f63e aebc 9e5c 43be 757c 80be
00000380: be2a 83be 22b6 95be 8ef7 50be dc4a 8dbe
00000390: 16d5 a0be 29ec 79be e951 8cbe e4bc 80be
000003a0: fb62 3dbe 16c7 89be 3476 6ebe 6b42 82be
000003b0: bb39 c3be ad72 56be d41b 62be de3b 99be
000003c0: 9aee 113d ba9e 9cbe ac6b 6ebe 7d04 62be
000003d0: 4c42 58be 2834 3abe f0f3 8cbe 6281 8bbe
000003e0: 05ef 5bbe bfef a1be eaf4 8fbe e3a3 4fbe
000003f0: 9e09 6cbe c0cb 8abe 7c29 9dbe dc7a 8cbe
-0.27155927 -0.2501179 -0.36125407 -0.3052929 -0.30440083 -0.30701125 -0.30323124 -0.18630902
-0.3379122 -0.29507947 -0.2286429 -0.24122511 -0.38921276 -0.17871228 -0.38496825 -0.34099892
-0.2619941 -0.2814915 -0.292435 -0.25791186 -0.2519681 -0.21207353 -0.3496097 -0.3159102
-0.27211297 -0.25619674 -0.31744856 -0.33177054 -0.28811547 -0.26615438 -0.2691007 -0.26102307
-0.2784367 -0.24469744 -0.2904822 -0.30786982 -0.30081823 -0.2861949 -0.24458495 -0.34873918
-0.3176221 -0.271693 -0.2866363 -0.258055 -0.35186362 -0.38960445 -0.3057064 -0.30590194
-0.23720919 -0.25207284 -0.2005975 -0.20944858 -0.23873155 -0.28143594 -0.24429938 -0.26597002
-0.21761602 -0.24099506 -0.30361122 -0.1735447 -0.14414163 -0.26832438 -0.28607818 -0.22581646
-0.24612585 -0.33718407 -0.2770104 -0.36269784 -0.21522228 -0.2877677 -0.29260728 -0.3722071
-0.3216694 -0.34398404 -0.24612474 -0.3229073 -0.31492457 -0.26115963 -0.29104227 -0.34532705
-0.32443997 -0.2708956 -0.34476295 -0.32620403 -0.3655568 -0.27920857 -0.1917529 -0.3470541
-0.3518816 -0.3616006 0.0053445776 -0.47240815 -0.10971112 -0.2550903 -0.3351023 -0.26643327
-0.24803853 -0.276999 -0.22958535 -0.24712452 -0.29411674 -0.22511669 -0.26336196 -0.2217046
-0.32152936 -0.20114538 -0.22880036 -0.2901253 -0.2914258 -0.20612307 -0.3014764 -0.35331678
-0.31317332 -0.22205612 -0.3237746 -0.30937958 -0.2250033 -0.27259246 -0.24056172 -0.36224702
-0.2184553 -0.3016824 -0.27549827 -0.25755197 -0.30856234 -0.18874833 -0.3201422 -0.29596883
-0.27722415 -0.33271274 -0.2643021 -0.25073782 -0.24824896 -0.34814078 -0.2682349 -0.29499772
-0.32936922 -0.16892709 -0.3745797 -0.20133094 -0.2639883 -0.32425603 -0.21422522 -0.27899247
-0.20855534 -0.21686246 -0.28202915 0.044656407 -0.20220134 -0.3754546 -0.24096698 -0.24942057
-0.28673685 -0.39599603 -0.23470956 -0.2372633 -0.29537645 -0.28574365 -0.31888565 -0.2574058
-0.23576212 -0.2542018 -0.29776978 -0.18426855 -0.23866446 -0.3049031 -0.32839847 -0.23464048
-0.3152726 -0.3259437 -0.2687624 -0.37227806 -0.31904376 -0.25249392 -0.12582232 -0.30912733
-0.3045959 -0.2670228 -0.1819132 -0.08604525 -0.1778195 -0.29107764 -0.3262365 -0.28225115
-0.25568125 -0.23698397 -0.31868523 -0.23790969 -0.27322254 -0.2660244 -0.28222507 -0.32159892
-0.2669485 -0.29631114 -0.26283583 -0.05856777 -0.3096777 -0.28759637 -0.29172674 -0.3495617
-0.3181838 -0.27168804 -0.37234196 -0.29239517 -0.13764644 -0.24730171 -0.27458316 -0.33233824
-0.29338068 -0.25292572 -0.24621862 -0.28612706 -0.23218855 -0.31148988 -0.22703317 -0.25863963
-0.35762182 -0.13703379 -0.38090152 -0.2754432 -0.23989668 -0.021270256 -0.190783 -0.25094953
-0.25618547 -0.2924052 -0.20406935 -0.27596176 -0.31412572 -0.24406494 -0.27406242 -0.25144112
-0.1849479 -0.26909703 -0.23287278 -0.25441298 -0.38129982 -0.20942183 -0.22080928 -0.29928488
0.03562794 -0.3058985 -0.23283261 -0.22072025 -0.2111904 -0.18183959 -0.2752986 -0.2724715
-0.21477897 -0.31628224 -0.28116542 -0.20277362 -0.23050544 -0.27108574 -0.30695713 -0.27437484

critic.4.weight f4 [1, 256]
00000000: 60d2 11be 7192 aabd 6b52 dabd b92c 3ebd
00000010: 45ae d73d 1473 e73d 9d53 413d fbde b3bd
00000020: 9a2d 3dbc 3742 223d 43dc b4bd f82d b03b
00000030: e24c 853d 0c55 0fbe 0514 123d b4da f63d
00000040: d647 c9bc 69ac d53d 4af9 0dbe 5af8 adbd
00000050: 3bc6 013e 483c cfbd eb0a 14be bbf8 e53d
00000060: 67b5 f1bd 5090 003c 28c9 8b3d 5938 d23b
00000070: 05ac dbbd 71f4 323d f75e 3bbd f70d a6bc
00000080: a6ef 753c 88dd 24be b9b4 9fba 7a79 70bd
00000090: 5770 9c3e 45c0 4fbd e59b c63d 0e8e d13d
000000a0: 3940 ecbc b684 58bc eeed 9abd e372 03bd
000000b0: 35bd 863d 1da8 85be 3938 2a3e fc5d 053e
000000c0: 520e bbbc 06e5 6ebd bf05 59bd ad7a 2f3e
000000d0: 2429 ab3d 0dca f7bc 0437 763a 1bc3 0a3e
000000e0: 6ead 743e e21e 873d 4b66 693d 6184 8dbd
000000f0: fe98 413e 7835 3c3d 6b07 073e f766 22be
00000100: 8413 27be 20c7 1cbc 1fd0 cd3d 69bf adbd
00000110: f2de b5bd 7299 533b a6d1 253d c6f9 723c
00000120: 5a77 613d 4a84 af3e 9b09 b53c 945c a3bd
00000130: b5a9 e9bd 2e6d 0a3d 5982 88bd 957c 213b
00000140: f9ce 1cbd d9b6 0ebd 03af 0cbd 1786 5abd
00000150: 5d55 513c 33c5 e8bd 3fd9 82bd e02a b1bd
00000160: 26ba 5fbc 6cb1 51be c70c 693d b8de 53be
00000170: b8a7 9dbc e407 dabc 64a1 16be d8a5 393e
00000180: 659e 6f3d 5de7 7a3c ed77 c43d 127e 25bc
00000190: 96f1 373c 41f1 1c3a 4f06 673c f310 a8bd
000001a0: 97aa 8fbd 318f 233e edaf 6abe ae9f 7dbd
000001b0: c007 9ebd 63d6 15be 5f5e e9bc fab5 21be
000001c0: 1213 bb3c 3363 2a3e abb2 a93c 3665 ba3c
000001d0: fb6d 163e 1d1d 543e f4de 523d 4509 88be
000001e0: bd2e 6fbc 0fb8 703d 6587 dd3d ee83 413d
000001f0: 031b 3cbd ce9e 29bd f1ec f7bd b66d fbbd
00000200: fd71 d9bc ef3f 22bd 4513 33bc ea57 903d
00000210: a88c ab3d 056f b83d 69e2 b1bd b529 b53d
00000220: 5a3a 30bc a474 013e 1ba1 e23c a862 f7bd
00000230: c081 e5bd 8f9a 02be 5cc3 9abc 47f0 69be
00000240: b6b7 6fbe bfa4 1b3e 7734 f0bd 6c9f 7fbd
00000250: ec32 1dbe 38f5 c63d 67c2 39be c328 13be
00000260: 3e87 d3bd 014f 93bd 76f7 99be 4917 b6bd
00000270: 98b8 9a3c 997b bbbd 76a5 f83b adb5 f33d
00000280: f43f 1fbe c7af 8d3d 6896 e83c 292f 27be
00000290: bdf0 21bd 4fca d6bc 43bb 7abd 88d5 7c3d
000002a0: 6945 443c 2734 9b3d d9b6 18be bc41 d13a
000002b0: fd89 12bc ee87 a7bb 88c8 5e3e 3985 38bd
000002c0: 4e29 563d 9fb5 7a3d c193 953d f238 84bd
000002d0: d652 693e 9be4 dc3b 9c95 413c 46cf d3bc
000002e0: e8cd 933d b3c7 a0bd f0b5 d4bd 7b9d 053e
000002f0: 7747 06bd 77ed 003e 586b 95bd 07d8 72bd
00000300: 18f1 4a3e 52da 8ebd 00e8 513d 5718 703d
00000310: 3901 ac3d 710f 7cbe facf 93be 5c33 2fbd
00000320: 50e5 02be ec85 08bd 5010 e43c 7f49 e2bc
00000330: 6148 433e f8a8 0cbe 0a5b c0bd 2eb0 f13d
00000340: 3972 b1bd b21c b1bd 6d44 ca3d 2aba 8f3c
00000350: 1144 ecbd 893e 3c3e 052c 3d3e f120 7c3e
00000360: 9dac 23bd 7e80 bc3d e5e9 9e3b 0fe1 51bd
00000370: 48a7 19bd a485 d0bd ac73 1abd 7051 713e
00000380: 8bd1 af3d 55bd 29bd d595 4ebe 6eea 243d
00000390: 04cd d6bd 7fba c3bd 1cd4 cfbd 38d3 233e
000003a0: d381 9a3d 0d57 18bd eb1f d5bd 60df d4bd
000003b0: eec6 b03b cbdf 88bd 5a53 393e 7629 a2bd
000003c0: 1063 49be 60b6 aebc d41b b13b f87b fdbd
000003d0: 4a13 383e 2c91 6b3e 2d70 e6bd a46f 0c3e
000003e0: 19de 93bd 6345 3639 6268 e4bc 6d4f 54bd
000003f0: f4f9 e53d 0657 043e f93a 7d3d 4a16 99bc
-0.14240408 -0.08328713 -0.10660251 -0.04642937 0.10531286 0.11301246 0.04719888 -0.087827645
-0.011546517 0.03961393 -0.08831074 0.0053765737 0.06508805 -0.13997287 0.035663623 0.12053433
-0.024570387 0.10433275 -0.13864627 -0.08494635 0.12673275 -0.101189196 -0.1445729 0.11229082
-0.11802178 0.007846907 0.06825477 0.0064154086 -0.107261695 0.04369015 -0.045744862 -0.02027033
0.01501075 -0.16100132 -0.0012184597 -0.0587096 0.30554458 -0.050720472 0.09697703 0.10232173
-0.028839217 -0.0132152345 -0.07564913 -0.032091986 0.06579057 -0.26104823 0.1662301 0.13024133
-0.022833977 -0.058323883 -0.052983996 0.17136641 0.08357456 -0.030247713 0.0009392353 0.1355099
0.23894283 0.06597687 0.05698232 -0.06910015 0.18906018 0.04594943 0.13186423 -0.1585959
-0.16316038 -0.0095689595 0.100494616 -0.08483774 -0.08880414 0.0032287505 0.04048314 0.014830058
0.055045463 0.34280616 0.022099307 -0.07976642 -0.11409322 0.033795528 -0.06665487 0.0024640907
-0.038283322 -0.034842346 -0.03434659 -0.053350534 0.0127767 -0.11365738 -0.06389093 -0.08650756
-0.013655221 -0.20477837 0.05689695 -0.20690429 -0.019245014 -0.02661509 -0.14710003 0.1812967
0.058500666 0.01531395 0.095931865 -0.010100858 0.011227032 0.00059868774 0.014100625 -0.08206358
-0.07014959 0.15972592 -0.22918673 -0.06191986 -0.07716322 -0.14632563 -0.028487382 -0.15792075
0.022836242 0.16639404 0.020715078 0.02275334 0.14690392 0.20714231 0.051482156 -0.26569572
-0.014598546 0.058769282 0.1081684 0.04724496 -0.045924198 -0.041411214 -0.1210574 -0.12276785
-0.026543612 -0.039611753 -0.010929887 0.07048018 0.083764374 0.0900555 -0.086857624 0.088458456
-0.0107561 0.12642151 0.027664712 -0.12079364 -0.112063885 -0.12754272 -0.018891983 -0.22845565
-0.23409924 0.15199564 -0.11728757 -0.062407896 -0.15351456 0.097147405 -0.18140565 -0.14371018
-0.1032853 -0.07192803 -0.3007161 -0.0889116 0.01888685 -0.09154434 0.007588084 0.11899886
-0.1555174 0.069182925 0.028392032 -0.16326584 -0.039536227 -0.026219515 -0.061213743 0.061727077
0.011979439 0.07578307 -0.14913501 0.0015965025 -0.008944032 -0.0051126396 0.21756184 -0.045048926
0.052285485 0.061208364 0.073035724 -0.06456174 0.22785506 0.006741119 0.011815455 -0.025855672
0.07217008 -0.078505896 -0.10386264 0.13048355 -0.032782998 0.12590586 -0.07295865 -0.05928805
0.19818532 -0.06975235 0.051246643 0.058616962 0.08398671 -0.24615265 -0.2886961 -0.04277359
-0.12782788 -0.033330843 0.02783981 -0.027622936 0.19070579 -0.13736331 -0.09392364 0.11801182
-0.08664364 -0.08648051 0.098763324 0.017544825 -0.1153642 0.1838323 0.18473823 0.24621941
-0.03995954 0.092041954 0.0048496597 -0.051240023 -0.037513047 -0.1018174 -0.03770797 0.23566222
0.08584889 -0.041440327 -0.20174344 0.040262632 -0.104883224 -0.09557056 -0.101478785 0.15998542
0.07544293 -0.037192393 -0.104064785 -0.10394168 0.005394808 -0.0668331 0.18098202 -0.07918064
-0.19666696 -0.021327198 0.0054049287 -0.12377161 0.17976108 0.23004597 -0.112518646 0.13714463
-0.07220096 0.00017382721 -0.027881805 -0.05183356 0.112293154 0.12923822 0.06182382 -0.018687386

actor.0.weight f4 [256, 162]
00000000: dc22 e7be be34 8bbe 8856 01be e15f e9be
00000010: 4fb6 90be 00c8 c9be cb8a b8be fb83 2c3d
00000020: 6499 b23d 3f54 8dbf 797d 0bbf fb49 0bbc
00000030: 7075 cbbd fef9 5e3d 3aee 05be bbd9 46bf
00000040: 0214 4d3e a1ab 7fbe b497 7cbe 6ab8 0dbe
00000050: 38ff f8bc 5599 22bd 3966 9ebe 8cc9 81be
00000060: 27e8 bbbe 4214 3cbe 441d 053d d4c6 1bbd
00000070: 9822 c3be 84c3 b23e 3f21 663e 1f2d 20bf
00000080: 114e b53e b020 83be 5e68 483e 8b3a f93e
00000090: 35eb 213d 9a4c 70bd 8967 90bd 9ff8 c13e
000000a0: 95f7 69be da38 cc3e 3105 e03e 8197 9fbe
000000b0: 2382 1ebe 0da6 4b3e 91cb fa3e 05ca 39bf
000000c0: b0ba 193f d555 9dbd 5330 76bf 4fe1 5d3e
000000d0: 23e2 3d3e 47fa 9abe ca1f 753d df4a bf3e
000000e0: a577 61be 9b72 883e 607f 7dbc a9e5 59bd
000000f0: 6d07 e4be 7d84 c3bb c6c2 f8be 604c bfbb
00000100: d569 9c3d eecb 643e 9fda 0dbf 9b1d 483e
00000110: 1c62 c13d 853e 14bd 9b84 32be 5717 1a3e
00000120: 4f8d ea3e b0f8 34be bf05 5a3e 8f23 8fbe
00000130: 5393 0c3f f091 e13e 5632 cd3e 9269 91bb
00000140: 56d1 73be 132a f23d 4469 a7be 2bd2 913e
00000150: 614f 453e 22d9 ecbe 78fb c43e 09ea cfbe
00000160: 1985 af3e d785 043f c07b afbe 60f9 b0bc
00000170: d09c b0be 34c1 e93c 1f09 0e3f 1640 063e
00000180: 22a7 2cbe 8d80 7abd 2a3a b5be 5db8 b6be
00000190: bb32 353d 87e5 5bbe be83 82bf 2cde 37bf
000001a0: a8ea 47bf 4eb6 8ebf b938 d33d de34 0cbf
000001b0: f07c 0c3f 0c82 87be dff3 10bd 2d0c 09bb
000001c0: 0d4c bfbd 7612 6b3f f66d 28be 6feb e83e
000001d0: cd57 413d 228a 593f 5562 843e e730 dc3e
000001e0: 4003 45bf 078e bfbe a12a 9fbe 865a 713e
000001f0: 95d1 383e bd2d 22bb a08e 24bd 008b 3e3d
00000200: 44c1 b8be f8ee 973c 86d1 3c3f 482a 6f3d
00000210: 273c 63bd ac94 863e e6d6 383f 0f69 0bbf
00000220: 0dcf 8a3e 47ab 90be 97ab b5bd 5c36 6cbe
00000230: 4065 8c3e bffa ff3e df27 8f3e 3eac 843e
00000240: ba27 fb3c 67f3 0e3f 1d5f a8be 49a6 af3e
00000250: 6903 a4be a913 f43e 27ed aabe 9924 eebe
00000260: 30da 86bf 014b 1b3e a7da 493e fd97 4abd
00000270: 97e1 7cbc 4010 7cbe 3ef0 bd3d 5d50 dbbe
00000280: a631 cebd 2afb b0bd 7c10 4abe 2670 38bf
00000290: adf0 383d 91f0 81be a15f 99be a410 863c
000002a0: 0a24 4cbe cc8f 6a3e ec9d 2abe 199d d3bd
000002b0: 61c4 93be 47de 6ebe 3dc3 cd3d 4aa0 e6be
000002c0: 7f0c 8ebd 583d 06bf b72c d93e a5f9 5ebf
000002d0: 9b14 51bf ce76 54bd 0643 4bbd b1e8 e7be
000002e0: 7d2a b93c f662 66be 0083 9f3e 9337 213d
000002f0: bb4d b33e 2ec1 9ebe 8a96 abbd efd7 27bf
00000300: f64b 71bd 0068 40be 0dfc 78be c7f6 9cbe
00000310: 90a9 3ebe 966e 43bd a6d5 063e 940d 9fbe
00000320: 1e06 9cbe 4937 eb3e d494 aa3c 433a 743e
00000330: f9d1 07bf 55e8 6f3f fd7b b93e 04ba 833d
00000340: a488 aabe 7de9 37bc 27b9 20bf 70ba 3b3c
00000350: 36e1 863e 8b23 63be c77e 79be 68c1 5dbe
00000360: 711f 573c fe8f 093f e045 b03e 4c2b 193e
00000370: 9a5b 533f ed42 213e e1a3 b2bd 2232 1ebf
00000380: 0e4b 093f 9499 85bd 4d59 69bf 1f36 17be
00000390: ff50 263e ab2e 3f3f 98b3 53bf 641e fdbe
000003a0: 5d4e 403e a816 983e 7401 89be a7da 63bd
000003b0: 57f7 f8be c282 a53e 6cb0 823c 3ae1 06be
000003c0: 796f 9ebe 2546 99bd a3c4 59bf be77 26bd
000003d0: 4ed4 f63c e2d8 11bf c8c0 1dbf 35a3 173d
000003e0: 387f b93e a86c 04be 4564 36be 25e8 edbe
000003f0: 418a 10be 2f88 e83e d20c 0a3e 81a1 37bf
-0.45143783 -0.27188677 -0.12630665 -0.45580962 -0.2826409 -0.394104 -0.3604339 0.042118054
0.08720663 -1.1041335 -0.5448833 -0.008501525 -0.09934509 0.05443763 -0.13079157 -0.7767598
0.20027164 -0.24967815 -0.24667245 -0.1383988 -0.030395135 -0.03969701 -0.30937365 -0.2534908
-0.36700556 -0.18367103 0.032498613 -0.038031414 -0.3811233 0.34914792 0.2247362 -0.6256885
0.35411122 -0.25610876 0.19571063 0.48677477 0.03953095 -0.058666803 -0.07050998 0.37884995
-0.22848351 0.39887124 0.4375396 -0.31170276 -0.1547933 0.19887562 0.48983434 -0.7257388
0.6005049 -0.07682387 -0.96167487 0.2166798 0.18543296 -0.3026907 0.05984477 0.3736181
-0.22018297 0.26649937 -0.015472263 -0.053197537 -0.44536915 -0.0059667216 -0.485861 -0.005837962
0.07637373 0.22343418 -0.55411714 0.19542544 0.09442541 -0.036192436 -0.17433397 0.15047966
0.45810935 -0.17672992 0.21291254 -0.27956817 0.549123 0.44056654 0.40077466 -0.004437634
-0.23810324 0.11824431 -0.326975 0.28480658 0.19268562 -0.4625941 0.38473105 -0.40608242
0.34281233 0.51766723 -0.342741 -0.021603286 -0.34494638 0.02853451 0.5548267 0.13110384
-0.16860631 -0.06115775 -0.35395938 -0.35687533 0.044237833 -0.21474276 -1.0196455 -0.7182338
-0.7809243 -1.1149385 0.10313553 -0.5476817 0.5487814 -0.26466405 -0.035388824 -0.0020911798
-0.093406774 0.91825044 -0.16448197 0.45492122 0.047202874 0.849764 0.2585627 0.4300606
-0.76958084 -0.37413046 -0.3108721 0.23569688 0.18048699 -0.00247465 -0.04017508 0.04651928
-0.3608495 0.018546566 0.7375721 0.058389932 -0.055477288 0.26285303 0.7220291 -0.5445718
0.27111092 -0.28255674 -0.08870619 -0.23067611 0.27420998 0.49995992 0.27960107 0.2591266
0.030658592 0.5584015 -0.32885066 0.34306553 -0.32033852 0.4767125 -0.33384058 -0.46512297
-1.0535336 0.1516533 0.19712315 -0.049461354 -0.015434644 -0.24615574 0.09274338 -0.4283475
-0.100680634 -0.08641656 -0.19732851 -0.72046125 0.0451514 -0.2537885 -0.29955772 0.016365357
-0.19935623 0.22906417 -0.16661805 -0.103326984 -0.28860763 -0.2332698 0.10047004 -0.45044166
-0.06935977 -0.52437353 0.42416927 -0.8709968 -0.81672066 -0.051871113 -0.049624465 -0.45294717
0.022603268 -0.22498688 0.31154633 0.03935964 0.3502024 -0.3100676 -0.083783224 -0.65563864
-0.058910333 -0.18789673 -0.243149 -0.30657026 -0.1861937 -0.047712885 0.13167438 -0.31065047
-0.30473417 0.45940617 0.02082292 0.2385035 -0.5305477 0.93713886 0.36227408 0.06431964
-0.33307374 -0.011225102 -0.6278252 0.011458024 0.26343697 -0.22181527 -0.24364768 -0.2165581
0.013130055 0.5373534 0.3442831 0.14957923 0.8256165 0.15748186 -0.08722664 -0.61795247
0.5363015 -0.06523433 -0.9115189 -0.1476674 0.16241835 0.74680585 -0.82695913 -0.4943725
0.18779893 0.29704785 -0.2675892 -0.055628445 -0.48626205 0.32326323 0.015953265 -0.13171855
-0.30944422 -0.07484082 -0.8506567 -0.04064154 0.030130532 -0.5697156 -0.61622286 0.03702088
0.36229873 -0.12932074 -0.17811687 -0.46466175 -0.1411524 0.454164 0.13481453 -0.7173081

actor.0.bias f4 [256]
00000000: 8048 70bd 5110 37be 082f 2abf 77d0 a1be
00000010: 9bc3 24be 743a e73d 2e7d 65be 6f68 13bd
00000020: c898 4bbe 5304 3c3d e1c6 4fbd b179 0bbc
00000030: 34a5 023e 6acc 1ebe ed9f 8abe ccbe 9cbe
00000040: 9106 96be aca1 6bbe 7dff 90be f0d6 24bd
00000050: be0f bcbd cba3 a23d b25d 0cbe a921 40bd
00000060: aec8 a43d 4c60 04be 2f45 05bf 3e02 45be
00000070: ba2a 9cbd e864 bdbc 9d16 82be 054e f83d
00000080: 2128 70bd d2a5 f4be 147b e73d c011 52be
00000090: 0f31 52be e371 67be be6f 06be 2b6c 2bbd
000000a0: 0272 16be cfed d8be 9ecc 57be fa25 3f3d
000000b0: 1c3a 06be 907b 22bd 7ab1 b0be ac61 5f3c
000000c0: 6d90 bfbc f415 99bd dae0 c63c f9f5 39be
000000d0: dae6 afbd 49b1 68be b457 01bd 3868 83be
000000e0: 7656 603d 1568 b2bd be84 73be 74f0 0ebf
000000f0: d6f5 8cbd bf00 4dbe 5817 cd3d b1d0 4bbe
00000100: 5c63 8cbd a956 203e b0de 213d 92ba dc3c
00000110: fab9 5b3c b45c fdbe 7f77 203d b17c 5ebe
00000120: 4669 61bd d0f1 34be 565d bcbd 52ff e53d
00000130: e510 113d a768 f4bd 6050 1fbe 3fb0 a2be
00000140: 4866 edbd 4f78 a4bd adbb c3be 32d1 e73d
00000150: 248f 2ebe d2fd 35be 09cf 6fbe 2f95 b6be
00000160: fcd1 463e 0a70 82be 7fcb 683e c718 d33d
00000170: 4267 36be 0314 b7be 21af 81be 00c4 eb3d
00000180: a7aa e93d 3395 93bd c8fb b2be 5599 b2bd
00000190: 9c76 56be 55ce 963d 18af 53be 3e78 c8be
000001a0: e911 403c c58f 193e 63ee d2be 02b5 acbd
000001b0: e789 03bd a50f 82be f69a d6bd 10a2 a13d
000001c0: 3ebe 2bbe 52ad 90bd 21c2 0cbf 0a78 86be
000001d0: a7bc 50be 6e36 7dbe c4e4 adbe 9f2d 56be
000001e0: 0397 86bd f624 03bc a06a 15bd 0012 04be
000001f0: 6e8a a7bd 70a5 35be 2051 08be b9b1 9b3d
00000200: e628 cebd 4201 23be b0a1 3d3e 1ba4 c1bc
00000210: 14bb 9cbe 2e9d 34be 17d1 b9be c74d 29be
00000220: efa2 9dbe a53e 04bf 94e7 cabe abb4 63be
00000230: 7082 efbd 882e 0e3e 00df 76be 0667 ad3d
00000240: 9a77 c3bd 579f 24bc cd4b 95be bc34 193c
00000250: 0157 99be b683 ba3c 34e7 2dbf b11f 12be
00000260: 15c8 6abd c071 463d 8c05 6fbe 6f15 e8be
00000270: 622e d6be 629f 06bf 9f1d 613e 75f7 f53d
00000280: 3fff bfbd 2da4 f93d 4639 583d 414f 96bc
00000290: 26fc d13d 4d75 89bd daa3 a7be 6889 0ebe
000002a0: 6cee e4bd ca9b 92be a9c9 cabe 1943 97be
000002b0: 79f1 cebe 82d2 c3be 2ec4 903c 6d14 9cbe
000002c0: 574d bd3b 383e f13d 1bf7 ca3b 0b50 ff3c
000002d0: d22f 19bf 699f 73be 54d3 0e3e 1b77 e1bc
000002e0: 35af 08bd 84d4 20bf a9c1 89bd af16 aabe
000002f0: 965e 803d dae1 a1be d828 7fbd 4f90 ddbe
00000300: ac55 a8be 7aa1 633d 0129 babe 6566 0bbe
00000310: d7aa b4bc c087 3a3d 2a95 a2bc e90a 0dbf
00000320: 0caa e7bd e45d b1bd 9460 5f3e e3ea 8fbe
00000330: d7f2 01be c59c 3abe d651 01bf 1427 2d3c
00000340: c38e 25be c323 5cbe d696 20bd 8247 47be
00000350: 493e 69be 1838 3cbe 3985 083d 2e4d c1be
00000360: cb0f 23be c0c6 17be 36f7 48be 8de3 bdbe
00000370: 9f08 56bd fe3c 05be 6f93 d6bd c367 babd
00000380: 7496 aebd 180e 51be fba6 3bbe 87c2 61be
00000390: 53d4 06be aa5f 6bbe 2ceb aabd 8512 c5bc
000003a0: 1e91 f1be 4af6 27bf 5519 293e 45a3 c8be
000003b0: 7604 d1be 93ca a2be df98 22bd 497e 56be
000003c0: 50ab 0fbf 4282 debd 48ee f33d bea0 85be
000003d0: fef3 85bd ff1a 83be 8a6d f2bd d39b 93be
000003e0: 3f03 3dbe 4017 59be 601e e93d 16d0 83be
000003f0: e22a 82be 20ea 94bd 85c9 febe 324a 89be
-0.05866289 -0.17877318 -0.66478014 -0.3160436 -0.16090243 0.11290446 -0.22411034 -0.035988268
-0.198825 0.04590256 -0.050726775 -0.0085129 0.12758332 -0.15507665 -0.2707514 -0.30614316
-0.29301885 -0.23010892 -0.28319922 -0.040244043 -0.0918269 0.07941397 -0.13707617 -0.0469071
0.08046089 -0.1292736 -0.5205869 -0.19239137 -0.07625337 -0.023119405 -0.25407878 0.12124256
-0.05863202 -0.4778276 0.11302772 -0.20514584 -0.20526527 -0.22602038 -0.13128564 -0.041851204
-0.14691928 -0.42368934 -0.21074149 0.046667077 -0.13108104 -0.03966862 -0.34510404 0.013634127
-0.023384297 -0.0747489 0.02427714 -0.18160237 -0.08588953 -0.22723879 -0.03157778 -0.2566545
0.054769956 -0.08711258 -0.23781106 -0.5583565 -0.06882827 -0.20019816 0.10014218 -0.19903828
-0.06854889 0.15658058 0.039519012 0.026944432 0.0134110395 -0.4948479 0.03917646 -0.21727253
-0.055032037 -0.17670369 -0.0919749 0.11230339 0.035416503 -0.11934023 -0.15558004 -0.3177509
-0.11591774 -0.080307595 -0.38229123 0.11319198 -0.17046791 -0.17772606 -0.23418821 -0.35660693
0.1941604 -0.25476104 0.22733878 0.1030746 -0.17812827 -0.35757455 -0.25328925 0.115119934
0.114095025 -0.07206192 -0.3495772 -0.08720652 -0.20943683 0.073635735 -0.20672262 -0.39154238
0.01172302 0.1499625 -0.411975 -0.08432962 -0.032113936 -0.2540256 -0.10478775 0.07892239
-0.1677179 -0.07064308 -0.5498372 -0.26263458 -0.20384465 -0.24727795 -0.33963597 -0.2091584
-0.06571772 -0.008004418 -0.03647864 -0.12897491 -0.081807 -0.1773889 -0.13312197 0.07602257
-0.100663945 -0.15918449 0.1851871 -0.023637822 -0.3061148 -0.17638084 -0.36292335 -0.16533576
-0.3078837 -0.5165809 -0.39629805 -0.22236888 -0.11694801 0.13884938 -0.24108505 0.08466916
-0.095442966 -0.010047755 -0.29159394 0.009350952 -0.2994919 0.022767883 -0.6793091 -0.14269902
-0.05731972 0.048448324 -0.2334196 -0.45328853 -0.41832262 -0.5258695 0.21983956 0.12010089
-0.09374856 0.12189517 0.052788995 -0.018348338 0.102531716 -0.067118265 -0.32742196 -0.13919604
-0.11178288 -0.28634483 -0.3960698 -0.2954338 -0.40418604 -0.38246542 0.01767167 -0.30484334
0.005777042 0.117794454 0.006194008 0.031166097 -0.59838593 -0.23791279 0.13947803 -0.027522614
-0.033370215 -0.62824273 -0.06726391 -0.3322043 0.06268041 -0.31617624 -0.06229481 -0.4327416
-0.32877862 0.055573918 -0.36359408 -0.13613279 -0.022054119 0.045539618 -0.019846518 -0.5509477
-0.11311731 -0.08660486 0.21814185 -0.28108892 -0.12690292 -0.18223865 -0.50515497 0.010568399
-0.1616774 -0.21498017 -0.03920635 -0.19460872 -0.22777666 -0.18380773 0.033330176 -0.37754196
-0.15923993 -0.14821911 -0.19625553 -0.3708767 -0.052254315 -0.13011548 -0.104773395 -0.09101822
-0.085247904 -0.20415533 -0.18325417 -0.22046863 -0.13166933 -0.22985712 -0.08345637 -0.024056682
-0.47181028 -0.6561018 0.1651357 -0.39187065 -0.40823716 -0.31795177 -0.03969657 -0.20946611
-0.5612078 -0.108646885 0.11910683 -0.260992 -0.065406784 -0.25606534 -0.11837299 -0.28829822
-0.1845827 -0.21200275 0.11382747 -0.25744694 -0.25423342 -0.07271218 -0.49763122 -0.2681442

actor.2.weight f4 [256, 256]
00000000: 9ef9 b83e 45f6 89be 5bfc e53d a39a ac3e
00000010: 4ce7 34be 5b39 68be 5524 83bd 44c9 72bd
00000020: 873e 0dbf 3c66 eabe 0500 91be f810 2e3e
00000030: 7f91 38be 372b fbbe b32c 113f 306c 203d
00000040: 51f4 c33e b71a 8fbe 65fd b4be d269 c5be
00000050: 9a61 93be 41de d0bd d86b 893d 4eee 2abf
00000060: e2f0 35be 846e 7ebe fab2 b8bd 2720 44bf
00000070: 14ac c83c ecae f6bd 52d1 8abe a776 58bc
00000080: f462 9d3e 57e8 41be 4499 13bf b164 063f
00000090: b3fa 363f 417a 533f 564e 8dbd 9d3c e5bd
000000a0: db18 38be f4eb d93e 0874 443e c85d 67be
000000b0: 7a3d 5b3e a244 d0be 35c7 be3e 3880 123e
000000c0: 5188 a43e d456 1f3f 33dd 553e e274 e93d
000000d0: 070e 0dbf 8617 f2be 1834 f5be e5d0 09bf
000000e0: c4e1 9d3d a838 c33c 739c ef3e bdb4 843e
000000f0: 44ed 0ebf 740c a53e 79e6 d73d 9dce 81be
00000100: 6f40 313f fe05 3cbc 41f8 cf3e c0f2 703e
00000110: ab5a ae3e 845f 073e d6a3 053d a0a3 eabe
00000120: c268 113f a10f ea3d ccbe 863b 2c83 a3be
00000130: 20a8 2e3e 99c9 093f b00c 73be 9113 a3be
00000140: d783 f73d 2a2a 90be 9250 c4bd 8dc3 f5be
00000150: 0658 f03e 5994 f0be 8c18 133b c369 943e
00000160: e706 01bf 7b4c e6bc 6adb 08be 6631 7abe
00000170: db91 0b3f 15fa f83c 0908 a63d fd40 edbe
00000180: caa2 60bf 57de 06bf 53d9 513c 0a63 403d
00000190: bf18 e13e 89b0 cdbe 2bac 89be ec85 1cbd
000001a0: 32ca 26bd 987c 263e 59ee 8f3e 9ef9 8b3b
000001b0: 305b 95be 5ca0 1a3e a806 afbd fa01 f4bd
000001c0: 8587 62be 7958 8e3f b7c4 9dbc 9ef0 f6be
000001d0: 2b3c 6ebe 6beb 393f fe97 bdbe 1b0e e3be
000001e0: 6bd4 4b3d 925f 97be d421 29bf 94bb b03d
000001f0: 5100 5c3e ea57 babe f885 b53d 005f c2be
00000200: dc8f d4be 7660 d8be 2218 13bf a008 dbbe
00000210: b38a e93d c1a8 1dbf 5fee 603e 1a0f 7f3e
00000220: 80bf 673e abbc 5a3e 7b1e 9f3d 66a9 1d3f
00000230: 958e 1dbe 7079 efbd 9656 79bd d862 93be
00000240: 8a5b 2e3e 7438 e5be d229 303b 16e0 ed3d
00000250: fb29 ffbe 6a1f d8be 812f 7f3e 4e63 56be
00000260: 2703 fdbe 1496 31be f872 00be e44a a63e
00000270: b081 4d3e c4f2 2cbe 5152 493e d45f 08bd
00000280: ddb9 9e3d 13bc 7bbf faa0 633e 176e 173f
00000290: d781 cbbe a9eb 463f 2685 4dbe e319 a63d
000002a0: 9e3a 043f f224 e8bd 3dee 953e bce4 243e
000002b0: 6010 85bc 0aad 2c3f 30ec f23e 1333 db3d
000002c0: a79a 6cbe e4e4 81be a1ea d93e 910f e6be
000002d0: 3331 773c ddc6 babe 1e3b 23bf 31aa ee3d
000002e0: 4381 d73d be16 18be 09a6 b3be e9db 9fbd
000002f0: 136b f33c d061 6e3e 7226 203f 1302 613c
00000300: 091b 213f 369c 45bc 1e10 27bf ad49 1bbf
00000310: 456f c0be b267 31bf 9597 76bc ea72 953e
00000320: 4136 26bd b1d6 a7bc 7203 c0be ce72 a93e
00000330: 7ea4 1abf 948c c03e c882 493e df07 103e
00000340: df5e 953c a948 1d3f 9a5f 65bd 394c ccbe
00000350: d9a9 6ebe a99a ab3e c9e6 f5be 2195 98be
00000360: ac24 64be ef7d ad3e 6779 b33e ec2f 3e3d
00000370: 6ab0 f93e 6f90 93be d0d1 02bf 8618 913e
00000380: c919 95bd a9c4 f13d 240f 933e 77cf e0be
00000390: 23d5 1ebf dc7a a0bd 4595 b7be a252 373e
000003a0: ff75 acbe 1dd9 a43e 55f2 bf3d 027b a23d
000003b0: f887 0a3e dab6 3cbe a8c9 b6be 36de 4f3e
000003c0: 9db9 ff3d a9bb d3be aea0 0abf 5fcf 433f
000003d0: fe97 cfbe 6a0c 36be 17f4 c43d 0b00 483f
000003e0: 1d7d fcbd f6b5 4f3f 8511 12be 4cd6 b8bc
000003f0: 6303 993d 63a7 823f 00e5 a73d 9248 cbbc
0.36127943 -0.269457 0.112297736 0.33711728 -0.17666358 -0.2267813 -0.06403414 -0.059273973
-0.55173534 -0.45781124 -0.28320327 0.1699866 -0.18024252 -0.49056408 0.5670883 0.039165676
0.38272336 -0.2795007 -0.35349575 -0.38557297 -0.28785402 -0.101986416 0.06710023 -0.66769874
-0.17767671 -0.24846846 -0.09018512 -0.7661156 0.024496116 -0.120450824 -0.27112824 -0.013211883
0.30739558 -0.18936287 -0.5765574 0.5249739 0.71476287 0.8260842 -0.06899707 -0.11193202
-0.17978232 0.4256283 0.19184887 -0.22594368 0.2141017 -0.40677363 0.37261358 0.14306724
0.3213525 0.62241864 0.20885162 0.11399247 -0.5509953 -0.47283572 -0.47891307 -0.5383437
0.07709077 0.023830727 0.4679905 0.25919142 -0.5583079 0.32236063 0.10542006 -0.25352946
0.6923894 -0.011476038 0.4061909 0.23530102 0.3405355 0.1322003 0.03262695 -0.4582796
0.5680047 0.11428762 0.0041121 -0.31936014 0.17056322 0.5382324 -0.23735309 -0.31850865
0.12085693 -0.2815717 -0.0958568 -0.48000756 0.46942157 -0.4698818 0.002244505 0.2898694
-0.5040116 -0.02811264 -0.1336495 -0.24432907 0.5451943 0.030392686 0.08107001 -0.46338645
-0.87748396 -0.52683014 0.012808162 0.04696945 0.43964192 -0.40173748 -0.26889166 -0.038213655
-0.040720172 0.16258466 0.28111532 0.0042717 -0.29171133 0.15100235 -0.085461915 -0.119144395
-0.22122009 1.112075 -0.01925884 -0.4823045 -0.2326514 0.72624844 -0.37030023 -0.443467
0.049763124 -0.29565102 -0.6606724 0.08629528 0.21484496 -0.36395198 0.08863443 -0.37963104
-0.41516006 -0.42261094 -0.574587 -0.42780018 0.11403408 -0.61585623 0.21965931 0.24908105
0.22631645 0.21361034 0.077694856 0.61586607 -0.15386422 -0.11693084 -0.06087359 -0.2878635
0.17027107 -0.44769633 0.0026880396 0.116150066 -0.49836716 -0.42211467 0.24920465 -0.20936319
-0.49416468 -0.17342407 -0.12543857 0.32479012 0.20069003 -0.16889483 0.19660307 -0.033294514
0.07750294 -0.98333853 0.22229376 0.5915236 -0.39747497 0.7770334 -0.20070323 0.08110406
0.5165194 -0.11335172 0.29283324 0.1610288 -0.01624316 0.67451537 0.47445822 0.10703101
-0.2310587 -0.25369942 0.4256182 -0.4493375 0.015087414 -0.36479846 -0.6376208 0.11653555
0.105227016 -0.14852425 -0.35087612 -0.078056164 0.029714143 0.232795 0.6255866 0.013733405
0.6293188 -0.012061169 -0.6525897 -0.60659295 -0.37584892 -0.6929885 -0.015050788 0.29189235
-0.040579084 -0.020488115 -0.3750263 0.33095402 -0.60407245 0.37607253 0.19678795 0.14065503
0.018233715 0.61438996 -0.055999376 -0.39901903 -0.23306979 0.33516434 -0.48027638 -0.29801276
-0.22279614 0.33885142 0.3505356 0.04643242 0.48767406 -0.28821132 -0.511014 0.28339022
-0.07280309 0.11805088 0.2872249 -0.43908283 -0.6204397 -0.078359336 -0.3585607 0.17902616
-0.33683774 0.32196894 0.09372393 0.07933618 0.1352843 -0.18429127 -0.35700727 0.2029961
0.12486575 -0.4135411 -0.5415143 0.764883 -0.40545648 -0.17778173 0.09616869 0.78125066
-0.12328551 0.81137025 -0.14264496 -0.022563122 0.07471349 1.0207332 0.08197975 -0.024814878
