train-vs-random.pt (torch, 324209 bytes, 11 tensors)

critic.0.weight f4 [128, 162]
00000000: 9313 5a3d 336d 0fbe 5535 19bc a913 0dbc
00000010: f314 71bd d1e2 58bd d388 2ebe 5ee0 29be
00000020: 6bac 033e fdce 2b3c 9248 84be e2aa 98bd
00000030: 1366 c3bd 4554 10bd 3264 cdbd 16ce ccbd
00000040: b73d 313e dc3a 8d3c b933 993b 7b67 2ebb
00000050: 6525 3cbd 0157 2bbd a5ee 8ebd dbeb 25bd
00000060: 1770 b33b 69fd 02bd 83c7 89be b8a9 8d3d
00000070: 6cdd 2fbd 5f56 72bd 0d7d e5bd 52e7 f13c
00000080: 5d2a 823d e78d b23c 691e adbd 74b6 d4bd
00000090: 9d2d 3bbc b596 3dbd 83c1 36be 6a40 db3c
000000a0: 8eb4 d9bb 4f7e 5d3d e00d 18be 1406 6d3c
000000b0: 8b0f ac3d 8c5b b5bd a17e 4fbd 2bef d8bc
000000c0: 39b0 b53d f02f a13b ce53 7b3d c571 f9bd
000000d0: 7c3f b3bd f571 b2bd 5208 4dbb 5353 e6bd
000000e0: a6f7 c6bc 31af 05bd 90c3 ebbd 1fb5 f0bd
000000f0: 6ac1 11be 54fe 8d3e 3592 733e ebd4 103e
00000100: 3396 4dbd 19a8 23be ea49 3c3e a3cc 6d3e
00000110: 9448 e7bd e0f0 b03d ab46 373c 571c 88bd
00000120: 5b4f ca3c 6757 fb3d dba1 20be a17b 4cbe
00000130: 855b 2a3e 896a a1bd 2ceb 13bd 97de aa3d
00000140: 1b9b 003d f175 1e3b fe29 c8bd 400c 20be
00000150: 1333 02be fc91 8f3c 587d 493d b61a 1bbd
00000160: 9ad5 8a3b 69c8 b9ba fab8 553e b6d4 efbd
00000170: ed7b 89be 3d56 a83b ca0a 563d 47c6 e23c
00000180: cd23 c9bd dee7 8fbd 70ec 88bd 3fa9 fb3d
00000190: e0f5 eabd d981 003e 80e7 883d 3c6d bc3d
000001a0: 96a8 e6bd 9b08 08be e6f3 53bb ca70 14be
000001b0: 6d14 9fbd b0b3 e73c f346 43be 7321 243d
000001c0: 71c2 6d3b 7b04 143e 753a b03d bea7 723d
000001d0: aa89 62bd d4c4 17be 4535 42bd 5a36 b53d
000001e0: 6c78 67be f3b4 97bc b7be b13d d063 bcbd
000001f0: 23e9 06be 56f3 d7bd 8966 153d edad acbd
00000200: 6616 98bd 776c 26bd 9c9d 213d 9074 5ebd
00000210: 2293 bf3d 6bdd 3dbe 06a3 83be 0570 ccbd
00000220: 6554 8e3d 48ce 043c 63f7 9fbb 0be7 1ebe
00000230: 1e6c 7e3d 3801 aabd 8835 42be 14f4 91bd
00000240: a7bb 5b3e b9c9 20bd e1cf 013e ff05 f2bd
00000250: 75f7 ff3d efb2 8d3c c14f 80bd c794 bdbd
00000260: 257c 72bd 7c4d a8bc 660e 03bc b4a9 a5bd
00000270: 0aeb b6bd 9311 903d 950d e33d c91e c5bd
00000280: 8f8c b43d 8d03 e13d ae8a d2bd 97a5 ea3b
00000290: c1c5 d8bc 989f 9d3b 0c59 9dbb ef04 a8bc
000002a0: 3c58 f03b 0007 0dbd 8646 343c c6c6 b5bc
000002b0: 7066 77be f2fd f43c 3715 8abe 4742 4ebc
000002c0: ff30 d0bc bb19 8dba ea38 ef3b fb56 77bd
000002d0: d535 afbd 79ec 93bc 10db e43d f4e0 233d
000002e0: 8812 693e 15cf c1bc 6e1c 14bd e113 f53c
000002f0: 5e49 c4bc 26b4 563d 4288 ad3d be7f 903d
00000300: 6035 c6bd 5004 3ebd c950 81bd 6670 07bd
00000310: 00af 8a3c 70b4 09bd 6186 e5bc 858b b6bc
00000320: 1864 36bd ab16 e8bc ba4e 9e3d 593d e83d
00000330: 286d eb3d 3116 033e 3144 f23c 22cd 553d
00000340: 743e d1bc e10e bf3d 7a9a 1b3d acba 063e
00000350: 085e b2be 2115 b8be baab babe 62a9 cfbe
00000360: b84b f8be 2585 05bf 59cb d2be a50e b8be
00000370: fab9 d5be d579 93be 3a9e d93e 4137 ff3e
00000380: d63e da3e c1de ec3e 320d fb3e 6a1b 093f
00000390: 43ab f13e 999e ec3e dc5c f73e 6586 ed3e
000003a0: ee60 3cbc fa64 95bd 6c7b 9d3a d585 ec3c
000003b0: e8d6 d4bd c53e 3ebe c9aa 07be 26dc 19be
000003c0: 984e 91bc 81cb 85bd 6856 89bd 17d3 a43c
000003d0: 6a33 2cbe 7c5d b83c 637e 5a3d 7ec7 4a3d
000003e0: 4b54 f33d ebdb 633c ea8d 003d 0104 b6bd
000003f0: 7b03 763c 2b7f 4a3d 931e babc 5e9a 633d
0.053241324 -0.140065 -0.009351094 -0.008610644 -0.05885787 -0.052950684 -0.17044382 -0.16589496
0.12858741 0.010486362 -0.25836617 -0.07454468 -0.095409535 -0.035236616 -0.10028876 -0.10000245
0.17308699 0.01723998 0.0046753553 -0.0026611972 -0.0459341 -0.04183102 -0.069791116 -0.040508132
0.0054760086 -0.031979952 -0.26910028 0.06917137 -0.042935774 -0.0591644 -0.11205492 0.029529247
0.063557364 0.02179618 -0.08453066 -0.10386363 -0.011424449 -0.046286304 -0.17847256 0.026764113
-0.0066438382 0.054075535 -0.14849043 0.014466781 0.08401402 -0.08855352 -0.050657872 -0.026481232
0.088715024 0.0049190447 0.06135922 -0.12179903 -0.08752343 -0.08713142 -0.0031285477 -0.112463616
-0.02428801 -0.03263778 -0.1151191 -0.11753296 -0.14233938 0.277331 0.23786242 0.14143722
-0.05019207 -0.15982093 0.18387571 0.23222594 -0.1129314 0.08639693 0.011186282 -0.066460304
0.024696043 0.1227253 -0.15686743 -0.19969036 0.16636474 -0.07881648 -0.03611295 0.08343237
0.03139792 0.0024179185 -0.097736344 -0.15629673 -0.12714796 0.017525665 0.049191803 -0.03786727
0.004236889 -0.0014174107 0.20871344 -0.11710493 -0.2685236 0.0051372335 0.052256383 0.027682437
-0.098212816 -0.07026647 -0.06685722 0.122881405 -0.11472678 0.12549533 0.0668478 0.09200522
-0.11262624 -0.13284533 -0.003234142 -0.1449615 -0.07767568 0.028283924 -0.19070034 0.040070962
0.0036279226 0.14454834 0.086049 0.059242003 -0.055307068 -0.14821178 -0.047414083 0.08848257
-0.22604531 -0.0185189 0.08678954 -0.09198725 -0.13174872 -0.105444595 0.03647474 -0.08431611
-0.07426147 -0.040630784 0.03945695 -0.05431038 0.09354235 -0.18541496 -0.25710315 -0.099823035
0.06949691 0.008105822 -0.0048817857 -0.15517823 0.062114827 -0.08301014 -0.18965733 -0.07126632
0.21458302 -0.039254878 0.12676956 -0.1181755 0.124983706 0.017297236 -0.06265212 -0.09256893
-0.059200425 -0.02054476 -0.007999038 -0.08089009 -0.08931549 0.07034602 0.11086575 -0.096250124
0.08815872 0.109870054 -0.10280357 0.007160853 -0.026461484 0.004810285 -0.004801875 -0.020510165
0.007334737 -0.034430504 0.011003142 -0.02218951 -0.2416017 0.029906247 -0.2696931 -0.012589044
-0.025413988 -0.0010765115 0.007300486 -0.060385685 -0.085551895 -0.018057095 0.11174595 0.040009454
0.22760975 -0.023658315 -0.036159925 0.029916706 -0.023960765 0.052417897 0.08473255 0.07055615
-0.09678149 -0.04639083 -0.06314237 -0.033066176 0.01692915 -0.033619344 -0.028018178 -0.022283325
-0.04452905 -0.028331121 0.0772986 0.11339826 0.11495429 0.12801434 0.029573532 0.052197583
-0.025542475 0.0932901 0.037989117 0.13157147 -0.34837365 -0.3595362 -0.36459142 -0.40558916
-0.4849527 -0.5215629 -0.41170767 -0.35948673 -0.4174345 -0.28803888 0.4250353 0.49846843
0.42626065 0.46263698 0.49033505 0.53557456 0.47200975 0.4621475 0.48313034 0.46391597
-0.011497719 -0.072946504 0.0012014932 0.02887241 -0.103925526 -0.18578632 -0.13248743 -0.15025386
-0.017737672 -0.06532956 -0.06705934 0.020120187 -0.16816488 0.022505514 0.053343188 0.049506657
0.11881312 0.013907413 0.03138534 -0.088874824 0.015015478 0.049437683 -0.022719657 0.055567138

critic.0.bias f4 [128]
00000000: e776 11be 378c 933e 4325 cbbd 07be b7bc
00000010: dd65 42be cd8e ef3e 557e 63bd 5fa3 7ebd
00000020: 5573 e2bd 0425 d1bd fe85 cfbd ad63 2dbd
00000030: 7f9a 15be 3fed d23e 84fc b0bd b4fc 32bd
00000040: 012f d4bd d25d 87bd f900 2bbe 9c93 233d
00000050: 3311 ffbd 9711 923e df92 e0bd 6f2f 2e3e
00000060: 26b5 603e 6e0b 9bbd 115a 5e3c 6cd0 873d
00000070: b0f3 69bd 9f9c 7e3c 4d4e a6bd fdc9 873d
00000080: 67ed 3d3e 772c 99bd 0464 5e3c 2f50 f1bd
00000090: 1552 13be fe05 8cbd 47dd b1bc ee0e 783c
000000a0: 5e1d cdbc 45da 5abd 0173 de3d 3de6 953d
000000b0: 8e1b 863c f5e4 123f 36ef c6bd ea10 743e
000000c0: 3dce 23bd e099 1b3e 0177 afbd 420e 62bd
000000d0: 724b 1dbd e156 623e 737f afbd cc86 c8bd
000000e0: 62d9 653d 32a2 20be b0b6 d9bd 6ba0 8a3d
000000f0: 149e b23c e364 dfbd 7510 d7bc bb56 9fbd
00000100: 190e bbbd 2017 29be d875 283e fe24 22be
00000110: 064d 323d 4b04 803d 217f a9bd 5100 9bbd
00000120: 822f 633d b836 acbd fbc1 80bd 813c 233d
00000130: 3f34 fd3c d3ab c43b 3a9a ac3c 8a2e 29bd
00000140: e72d 74bd fb87 003e 9308 db3e bf2d babd
00000150: 3627 12be b2e3 21bd af67 f8bd a456 05be
00000160: ff1e dabd 8c68 da3c 7a4f 723d 01f5 8c3e
00000170: b14c 1ebd 5e87 e8bd 4a15 9f3e 85bd 91bc
00000180: a845 c9bc 6201 e2bd c041 fd3d 8ac5 7dbd
00000190: 3cad 6b3e 6851 8a3e ff30 893e cecf fe3d
000001a0: 1a5f 6bbe 0c04 2f3d 25c9 09bd d690 debd
000001b0: 538c ebbc 9a10 8f3c dc1c 3ebd 756f 063e
000001c0: 24ac 513e e160 4abd de25 4a3d 440c 0abd
000001d0: bd29 17bc 6f76 babc 7980 583e bf78 ae3d
000001e0: 5450 91bd 0e1c e0bd 972d dcbd 9bf8 0abe
000001f0: b5bb b0bd 82f1 8abd d302 11bd 77e2 42be
-0.14205514 0.28817913 -0.099192165 -0.02242948 -0.1898417 0.46788636 -0.0555404 -0.06216752
-0.11057154 -0.10212138 -0.10132979 -0.042331386 -0.14609717 0.4119663 -0.086419135 -0.043698028
-0.10360528 -0.06609692 -0.1669959 0.039935693 -0.12454452 0.28529045 -0.109655134 0.17010282
0.21944103 -0.075705394 0.013571278 0.0663155 -0.057117164 0.015540271 -0.081204034 0.06630323
0.18547593 -0.07479184 0.01357365 -0.11782872 -0.1438678 -0.068370804 -0.021711959 0.015140278
-0.025038417 -0.053430814 0.10861779 0.07319305 0.016370561 0.5738061 -0.097135946 0.23834577
-0.039991606 0.15195417 -0.0856762 -0.05518938 -0.03840203 0.22103454 -0.08569231 -0.097913355
0.056115516 -0.15686873 -0.10630548 0.067688785 0.021803893 -0.109079145 -0.026252965 -0.077802144
-0.09133548 -0.16512728 0.16451204 -0.15834424 0.043530487 0.06250819 -0.08276201 -0.0756842
0.05546523 -0.08408874 -0.06286999 0.039852623 0.030908702 0.0060019284 0.021069635 -0.04130415
-0.05961409 0.12551872 0.4277998 -0.090907566 -0.1427277 -0.039523788 -0.12129151 -0.13021332
-0.10650443 0.02666118 0.059157826 0.27530673 -0.038647357 -0.11353944 0.3107093 -0.017790565
-0.024569348 -0.1103542 0.123660564 -0.061955966 0.23015302 0.27015233 0.26795194 0.12441979
-0.22985497 0.04272847 -0.033639092 -0.10867469 -0.028753435 0.01746397 -0.04641424 0.13128455
0.20475823 -0.049408797 0.04935252 -0.033703104 -0.00922626 -0.022761552 0.21142758 0.08519124
-0.070953995 -0.10942851 -0.10750883 -0.13571398 -0.08629552 -0.06784345 -0.035403084 -0.19031702

critic.2.weight f4 [128, 128]
00000000: 2592 da3d 767b 463e 0da2 c23e e992 2f3e
00000010: 67d6 f3bd 91b2 27be 27b0 86be 5c8c 35be
00000020: c86a 59be b3b2 66bd c3fc c53c dd26 a33c
00000030: 9221 a1bd 67ad bcbd 9727 fa3d 2288 083e
00000040: b621 8abe 5362 763d 8a58 0b3e 4635 203e
00000050: 20cc 373c bd59 8bbe ad57 f6bd 8052 ac3d
00000060: 82c6 f93d 579a 193e 33fc cbbd d933 cd3d
00000070: 7fbf a3bd 0822 373d 7b03 42b9 6602 833d
00000080: b100 7cbd 67aa d9bd 1e09 aebd 6183 e43d
00000090: f847 373d 7068 9d3d 4184 f53c 374c 0cbc
000000a0: ab7e 8ebe f9c1 dcbd 31ef 203e f9c5 c13d
000000b0: 0c80 793d e217 1fbe f219 b5bd 37d2 063d
000000c0: 4952 3f3c fb05 c43d 59bd 04be 093b 18be
000000d0: aea7 0a3d 5e18 6cbc e465 5dbd a7b2 b53d
000000e0: 8d70 383d d90e 9cbd 84d8 023e 27b1 813d
000000f0: 108b 013e c68f 64bc 9aa4 6c3b 2526 f83b
00000100: dad3 983d 96d5 69be e3ef 09be 57cb 323e
00000110: d070 103e 63cd 05bb abea d3bd 3b73 07be
00000120: b480 1cbb 8365 a53b 53f9 4abe 47bf 133d
00000130: 8f73 fe3c 6fef f8bd 7c94 513d 8e18 8fbd
00000140: fb25 bbbd f4f5 99bd 397a 60be 1a7f 73be
00000150: 2b35 013e 68e2 1bbe 0718 a4bd 00a2 72bb
00000160: dd53 6fbe adeb 01be acee 23be a31c 1cbd
00000170: 4573 bf3d c4c1 4a3e 4b05 943d 6426 15bd
00000180: bc52 da3d 05cf 24be 93c0 ff3b fe09 29bd
00000190: 923c cabd 5fc0 9dbb 3b77 afbd 60ae 2e3d
000001a0: e096 d93d 8588 08be 89b1 debc ace7 213d
000001b0: 356c 64bd 66e7 1bbe 1caf a7bc 7e75 3b3c
000001c0: 8d1c c7bd 447a 0bbe e4d9 8cbc 4163 33be
000001d0: bb58 83be 12f1 33be 0be0 6c3e 1857 35bd
000001e0: 22d2 db3d 270b 50be d8d7 16bd 0623 2d3d
000001f0: b86f cdba c0b6 b8bd dfc1 08be 129d 12be
00000200: 05b5 8aba ab07 37bd 485d ebbc 2119 0e3e
00000210: 6335 3e3d 21e4 30bd 7929 54be c81d a7bd
00000220: 5125 323d 73ed 11bd b655 56bd 4204 45bc
00000230: 20c3 e2bd 872f 823c a419 d7bd 5e0e f7bd
00000240: 1191 273e 9dad 103e 492b 723d 847e 003e
00000250: 8e24 ef3c fd74 0fbe b6f2 333e 77e4 133e
00000260: 793c 16be e598 5a3e 75e6 0abe 8b1a 48be
00000270: c240 883d 6b44 3b3c 6ea7 02be 87c4 883d
00000280: 4b34 213e b5f0 693d 219b b83a 0dcd 763e
00000290: d05b 0e3e 86a8 613e c79a 413e 7ae0 61be
000002a0: 2b07 44be 12ef f83b 89a8 2ebd ff83 c93c
000002b0: e365 57be 64d8 13bd f46f 09bd 5da4 f5bd
000002c0: 8b23 0a3e 3fab 9d3d 2d1b debd 7696 793e
000002d0: 4975 253e aab9 4fbd 29ad 623d 4126 99bd
000002e0: cf16 b43d 9eb7 03bc 80fd 143e e5b8 833d
000002f0: 45ec 2cbc c5ff 30bc 6e08 123c 363b 353d
00000300: 8b78 bb3c 332a 843d 921d 003a 67ba 0abe
00000310: 4a8b 8c3c ecfa 07bd 9ef1 823e 3e2b 9f3d
00000320: 7808 4c3c aff8 8d3c d05f 7d3e 9cd5 313e
00000330: cbf2 b0bd b0ee 693e 0189 30be 044f c9bd
00000340: bb4a 493d b8e5 58bb e490 223d 99cf cc3d
00000350: 1882 503e e4ab f0bc caa8 98bd 6dfb 013d
00000360: 837b 5339 43d3 ffbd c8f8 17be 4a87 dc3d
00000370: 9436 603e 7524 003d 6f15 3e3c 8de1 55be
00000380: 3712 51be 9bfa d13d 9092 b23d 7d00 00bd
00000390: 5978 1ebb 0771 56bc 7456 7c3e 53a0 9f3d
000003a0: 7e1b 6a3e a725 9cbc 3158 0fbe e2e2 e3bd
000003b0: e833 0d3e bc9c 943d 71e3 1c3e 5d8e dabd
000003c0: 27e5 efbb 774f 723e 9d40 87bd 2a28 04be
000003d0: 742c 4b3e 678e dcbd 5659 53bd 7fd6 003d
000003e0: 7c46 34bd 6570 303e b9ef 403d 1bc9 5d3e
000003f0: cd0c 633d 17dc bd3d 7091 80bd 66cc 0abe
0.10672406 0.19383034 0.3801426 0.17145886 -0.119061284 -0.16376711 -0.2630627 -0.17729324
-0.2123214 -0.056322765 0.024168378 0.019915992 -0.07867731 -0.09212761 0.122145824 0.1333318
-0.26978844 0.060152363 0.13607994 0.15645322 0.011218101 -0.27216902 -0.120284416 0.08414173
0.121960655 0.15000282 -0.099602126 0.10019655 -0.07995509 0.04471019 -0.00018502578 0.06396942
-0.061524097 -0.10628205 -0.08497833 0.11157871 0.04474637 0.076859355 0.02997029 -0.008563093
-0.27831015 -0.10779185 0.15716244 0.094615884 0.06091313 -0.15536454 -0.08842839 0.03291532
0.011677333 0.09571453 -0.12962855 -0.1486627 0.033851318 -0.014410106 -0.05405225 0.08871966
0.04502921 -0.076200195 0.12777907 0.06332617 0.12650704 -0.013950294 0.0036108852 0.0075729066
0.074622825 -0.22835383 -0.13470416 0.1746038 0.14105535 -0.002041661 -0.10347494 -0.1322755
-0.0023880424 0.0050475015 -0.19821672 0.03607109 0.031060962 -0.12155043 0.051166996 -0.06987105
-0.091381036 -0.07517615 -0.21921624 -0.23778954 0.12617938 -0.15223086 -0.08012395 -0.003702283
-0.23371835 -0.1268756 -0.16009015 -0.038113248 0.09348158 0.19800478 0.07227572 -0.036413565
0.106603116 -0.16094597 0.007804939 -0.041269295 -0.09874834 -0.004814192 -0.08567663 0.042646766
0.1062448 -0.13333328 -0.027184265 0.03952758 -0.055767257 -0.1522499 -0.02046924 0.011441587
-0.097222425 -0.1362086 -0.017193742 -0.17518331 -0.25653633 -0.1757243 0.2313234 -0.044272512
0.10733439 -0.20316754 -0.03682694 0.04226973 -0.0015673554 -0.09019232 -0.13355206 -0.1431773
-0.0010582512 -0.044685047 -0.028731003 0.13876773 0.046437632 -0.04318631 -0.20718946 -0.08159977
0.04349262 -0.03562684 -0.052327834 -0.012024941 -0.110723734 0.015891803 -0.105029374 -0.12063287
0.16363932 0.14128728 0.05912331 0.12548262 0.029192235 -0.14009471 0.17573056 0.14442621
-0.14671506 0.21347387 -0.13564475 -0.19541375 0.066529766 0.011429886 -0.12759182 0.066781096
0.15742604 0.05711432 0.0014084318 0.24101658 0.13902211 0.22036943 0.18906699 -0.22058287
-0.1914336 0.007596859 -0.042641196 0.024599073 -0.2103496 -0.036095038 -0.033554032 -0.119942404
0.13490121 0.07698678 -0.10845027 0.24373803 0.16158022 -0.050714172 0.05534092 -0.074779995
0.08793413 -0.008039383 0.14549828 0.0643175 -0.010554378 -0.010803168 0.008913143 0.04424592
0.022884628 0.06453361 0.0004887219 -0.1354767 0.017156262 -0.033198282 0.25574964 0.0777192
0.012453191 0.017330496 0.24743581 0.17366642 -0.08640059 0.22844958 -0.17239763 -0.09829524
0.049143534 -0.0033095907 0.03968896 0.100005336 0.20362127 -0.029378839 -0.07454069 0.03173392
0.0002016854 -0.12491467 -0.14840996 0.10767992 0.2189582 0.031284768 0.01160179 -0.20886822
-0.20417105 0.10252877 0.08719361 -0.031250466 -0.002418062 -0.013088471 0.24642354 0.07794251
0.2286205 -0.019060923 -0.13998486 -0.11127259 0.13789332 0.07256457 0.15321137 -0.10671685
-0.0073210183 0.23663126 -0.06604121 -0.12905946 0.19841176 -0.107693486 -0.05159887 0.03145456
-0.04401253 0.17230375 0.047103617 0.21658747 0.05543213 0.092704944 -0.0627774 -0.13554534

critic.2.bias f4 [128]
00000000: eb6e 82bc ae50 4a3e 64de 61be e83c 82bd
00000010: d90a 62bd 190c 49be 95ff f8bc 4b33 e83d
00000020: 0589 373e 7e0b 5abd dff6 57be acb7 95bc
00000030: 2595 3abd f95d 94bd 7abd 003c ab8e b7bd
00000040: cd98 c83e ddea a13d 0f3c 82bd e6e7 0f3c
00000050: 210c 15bd d842 553d b0ac 2a3e b0ee ecbc
00000060: 999a 4c3d ab0f 2bbc abfd 503e 74e0 5dbd
00000070: 443b 38bd 7309 4bbc f30a 083e 4aab 8ebd
00000080: dafc 14bd b59f 973e a0ed 82bd 7ea9 563e
00000090: d0bc 8f3d 5c81 1c3e 6182 383d 3dde 8b3d
000000a0: b0d7 8bbc 0fe4 c33a 970d babc bd6d 123d
000000b0: ee44 28bd 7b5f 703e d560 823e a937 1cbd
000000c0: 1039 4abd e7b0 72bc 7249 423e 5e2b ec3d
000000d0: 7057 7a3c e0e2 91bd c803 18bd fb43 893e
000000e0: 2ab9 143e 8a03 e93d 1133 3cbe fefc 6abd
000000f0: 610d d7bd 3791 68be 5232 43bd 3c73 863e
00000100: abb7 733d ff47 28bd 6d14 69bd 18dc 58bd
00000110: 20f8 38bd 48d2 3abd d63e ce3d b5b2 f0bb
00000120: cd00 76bd ca84 09bd 52ee 61be fb2b e7bc
00000130: 73c3 24bd 795f 05bd 91da 7cbd 8232 88bd
00000140: f663 303e 95f1 c7bd 0568 a53d a7f5 02bc
00000150: 7108 c9bc 571c e43d ee9a ccbc 5d14 95bc
00000160: 68ab 21bd 8429 f8bc 2ece 623e e8d6 3abd
00000170: 775a 4cbe 6e21 08bd c045 43bd 4728 053e
00000180: 162a 1a3e 10ec 74bc e18e d03a 0f6f 94bc
00000190: 2993 dfbc 1fc7 d6bc 0b9f 79bd 9ae8 9fbc
000001a0: 1b50 99be 1014 8abd 5a22 e3bc 33ef 12be
000001b0: f92e c23d 1b6b aa3d f5ca 3cbd 90e5 113e
000001c0: a448 a8bc f082 213e 9cb3 83bd 89dd 47bd
000001d0: 3fee 523b 40c0 77be ea0a df3b 14bf 89bd
000001e0: e984 293e a3c7 d2bd c59c d8bc 3ac3 29bb
000001f0: a079 d43d f756 a23c dc99 4ebd c299 01bd
-0.01592203 0.1975734 -0.22057492 -0.06359273 -0.055186126 -0.19633521 -0.030395309 0.11337908
0.17923363 -0.053233616 -0.21090268 -0.018276058 -0.04555239 -0.07244486 0.007857675 -0.08962759
0.39179078 0.07906125 -0.063591115 0.008783316 -0.03638852 0.0520657 0.16667438 -0.028922409
0.049952123 -0.010440747 0.20409267 -0.054169133 -0.044978395 -0.01239239 0.13285427 -0.069662645
-0.03637395 0.29614034 -0.063929796 0.20963094 0.07018435 0.15283722 0.045046214 0.06829498
-0.017070621 0.0014945286 -0.022711558 0.035749186 -0.04108136 0.23473923 0.25464502 -0.03813902
-0.049370825 -0.014812685 0.1897333 0.11531709 0.015279636 -0.07123351 -0.03711298 0.26809677
0.1452376 0.11377628 -0.18378855 -0.05737018 -0.10500599 -0.22711645 -0.04765541 0.26259792
0.05950133 -0.041084286 -0.056904245 -0.052944273 -0.045158505 -0.045610696 0.10070579 -0.0073455223
-0.060059357 -0.033573903 -0.22063568 -0.028219214 -0.040225457 -0.032561753 -0.06173188 -0.066502586
0.17225632 -0.09762875 0.08076481 -0.007993138 -0.024540158 0.11138218 -0.02497622 -0.018198187
-0.039470106 -0.030293234 0.22148964 -0.045615107 -0.19956385 -0.033235006 -0.04767394 0.13003646
0.15055117 -0.01494886 0.0015911722 -0.018119363 -0.027291851 -0.026217995 -0.06094269 -0.019520093
-0.29943928 -0.06742108 -0.027726341 -0.1434906 0.094816156 0.0832121 -0.046091992 0.14247727
-0.02054245 0.15772605 -0.06430742 -0.048795257 0.0032185463 -0.24194431 0.006806721 -0.067258984
0.16554607 -0.10291984 -0.026441941 -0.0025903718 0.10374761 0.019816859 -0.0504397 -0.031640776

critic.4.weight f4 [1, 128]
00000000: ba6e ecbc 7227 533c f8ba b9bc 86f0 fa3c
00000010: 7a3f 1fbd ed19 8abc bd29 11bd 0f74 313c
00000020: 7c0c eabb c153 84bd e27b febc 2c63 c73c
00000030: 6632 1fbd 98c8 773c 5796 163c bc0d 113e
00000040: ef95 0e3d e519 0c3c 1f50 f63c b39e 8e3c
00000050: 7b42 a43d 4069 19bc 4ee8 3e3d 49ed 24be
00000060: 2188 9d3c 522c afbc 151c 9a3d 7801 f6bd
00000070: d6ff 1bbe 6953 c43a 3291 e43c 847a e9bb
00000080: 2c70 2ebc 8407 a43d ee6b 90bd 41a7 053d
00000090: b17d 30bb 45ee 273d 84c4 d3bc 0796 98bc
000000a0: 3d66 d73d 1e55 fd3c 2c42 febc d165 8d3c
000000b0: 1e59 553d 5156 de3c bde3 233d 923c e83b
000000c0: 2082 b8bb cf23 14bd 64e6 0038 45ae 463d
000000d0: 7c31 643c 1586 debc 8a6a 45be 1174 4a3d
000000e0: fd0a 3f3c a20c 253c eb01 30bd bf50 fbbd
000000f0: 5ab0 33bd ebb3 3ebd 3dff cebc 8931 ad3c
00000100: 46f6 103d 0c85 a4bb 68a0 67bc 97a0 eb3b
00000110: 6c07 a43c a2a4 d9bd 97d0 2a3d 6ba8 98bb
00000120: e153 2abe d761 b9bc b6f7 41bd f76d 09bc
00000130: 297c 1dbd ffd8 90bc 4693 903c 4009 12bd
00000140: 2a9d 3f3c d753 2c3c c749 0c3d 3b28 ff3c
00000150: c85b 513d 296e 833c 397a 363d d919 383d
00000160: b036 33bd eda4 ae3c a63c 093d 1ee1 52bd
00000170: 5c94 dc3c d501 83bd c8ff 48bd 4a32 d33c
00000180: 7450 9f3b 5b54 4f3c 1786 8ebb 2119 8ebc
00000190: 587d 743c a242 223c 1f4d bb3b 6fd1 883d
000001a0: dcad 5ebd 7087 9fbd ba49 52be 228d bcbc
000001b0: b816 94bb 9515 c13b 4324 e13b 7dbc 8d3c
000001c0: 025f a73d 502e d2bd 9314 02bc a570 32bb
000001d0: 5b16 623d 3b12 6bbc 7bdc 063d c6f5 bfbc
000001e0: 56b4 ad3b 820f 12bd 4194 843c 6ba7 153c
000001f0: 9972 a13c 3b20 5b3d 1e75 05bc ade3 283e
-0.028861392 0.012887822 -0.022672161 0.030632269 -0.038878895 -0.016858066 -0.035440195 0.010830893
-0.0071426015 -0.06461287 -0.031064931 0.024339281 -0.038866423 0.015123509 0.009191117 0.14165395
0.034810957 0.008551096 0.030067502 0.017409658 0.08020493 -0.009363472 0.04660826 -0.16106142
0.01922995 -0.021383438 0.075248875 -0.12011999 -0.15234312 0.0014978471 0.027901266 -0.0071252007
-0.010646861 0.08009246 -0.07051836 0.03263021 -0.0026930387 0.040998716 -0.025850542 -0.018626226
0.10517547 0.030924376 -0.031037413 0.017260464 0.052086942 0.027140768 0.04001211 0.0070872987
-0.0056307465 -0.036166962 3.0732146e-05 0.04850604 0.013927814 -0.027163545 -0.19278923 0.049427096
0.011660335 0.010073813 -0.04297058 -0.122712605 -0.043869354 -0.046558302 -0.025268191 0.021141784
0.035391115 -0.0050207432 -0.014137365 0.0071907747 0.02002307 -0.10627104 0.041702833 -0.004658749
-0.1663356 -0.022629661 -0.047355376 -0.008388034 -0.038448486 -0.017681597 0.01764835 -0.035653353
0.011695186 0.010518036 0.034250047 0.031147113 0.05111292 0.01604374 0.044550154 0.044946525
-0.043753326 0.021318877 0.033505104 -0.05148422 0.026926212 -0.06396834 -0.049072057 0.025780816
0.0048618857 0.012654389 -0.004349481 -0.017345967 0.014922462 0.009903582 0.0057159807 0.06680571
-0.054365024 -0.077895045 -0.20535937 -0.023016516 -0.00451931 0.0058924654 0.006870778 0.017301792
0.08172418 -0.1026274 -0.007939476 -0.0027227786 0.0551971 -0.014347608 0.03292511 -0.023432624
0.0053010387 -0.03565932 0.016183974 0.009134154 0.019707965 0.053497534 -0.008145599 0.16493101

actor.0.weight f4 [128, 162]
00000000: e1eb e83d 2f23 2e3e 69ba 93bc 7757 b3bb
00000010: 8a74 dbbd 036e de3d 462e 393c 2f70 203d
00000020: 669f 8fbd 331e 06bd de21 2a3e 70db adbd
00000030: 1736 79be f709 f9bd d7ec 9cbe f242 c33e
00000040: f88f 903d ddb1 1d3e bc12 a73e ef5b 503d
00000050: 553c 9bbc 3ab0 ca3d 4f61 78be 0ac8 0e3e
00000060: 27a6 843e 804c 3fbd ec6f 78bc 2317 1b3e
00000070: dcb3 c6be c229 4cbe a66e 05bf e373 63bc
00000080: 4e6a d1be c467 ab3d fc90 f7bd 447c 9dbc
00000090: 695f 58bd 844e afbd ec84 56be 7e0a d4bc
000000a0: 75b6 1e3e 9cfb 44bd 3b7d f9be 2d26 ce3e
000000b0: 853a 33be 94e5 883e 2d81 5e3e f21b 173d
000000c0: decb bdbd 8276 15be c695 a8bc f2eb c63d
000000d0: ad1d c4bd 27c8 03be 1a84 383e 0f22 873e
000000e0: bcc5 1c3d bf85 343d f746 a8be 38ab d3bd
000000f0: d5cf b0bd a65d c13d fda2 2b3e ffb2 1ebd
00000100: a08f 8cbc dc39 74be fe76 d8bd b34d 923e
00000110: 7bdd 593e 1b8c 40be 861d 64be 6c95 063f
00000120: 91f5 2bbe a1cb e7bd ee49 963e cfc8 5dbd
00000130: 10ac 2c3d 7822 733d 73b8 373e 1030 1dbe
00000140: c21e ff3e 0499 69be 92cb 2c3d b381 51bf
00000150: ab5f 6dbe fde6 a7be f3f1 4abe fd19 48bc
00000160: f56c 80bf f0e4 32bf de7f 35be 5685 a23e
00000170: db72 26be 18b9 063f d4c1 efbe b884 2f3b
00000180: 8a3b 773d 54f2 c9be ee5d 81be a2f5 64be
00000190: 4907 cfbd 6817 073e ad06 96be fe5c 8fbd
000001a0: 5b84 b1be 7118 eebd 0260 cf3d c8e3 023e
000001b0: 9712 98be 8b4f 6cbe 28ed c83f a637 8e3e
000001c0: d2c7 0940 1551 1d3e 8595 193e d48c 463f
000001d0: 8726 863f 1c8a da3d 722e d43f 0111 db3f
000001e0: dfb5 6a3e fcd1 a3be 6d36 103e b5a4 98be
000001f0: d74b 24be 3465 c93d 1e2d f9bc 6890 903d
00000200: 4f8a a5be 6c22 133d 17f6 cabe b10c 5a3e
00000210: 1ee3 fbbd 8728 863d ec45 033f ca64 15be
00000220: 3b4f 453e 0cc6 863e 907d abbe 38a5 4e3d
00000230: e3bb 713e 2943 c73d e3ef 183e a60b 953d
00000240: 95d3 b83d 9642 b8be 0d3f 70be fc77 76be
00000250: a1a0 8fbe d809 d7bd b975 883d ddc1 cb3e
00000260: 2a46 133f a76f d5bd 9d7f a4bd aa86 733e
00000270: a3a0 2e3e 206c 7e3e 48b2 09bd 483b 46be
00000280: 29c2 97be c49b ed3e abe7 8abd 3224 4dbe
00000290: 1eff 6abc 20e9 8a3e b336 8c3e 02b4 853e
000002a0: 5043 6bbe 524d 3dbf f5af d2be df4b 2dbe
000002b0: 9300 08bd 7930 b6be acac 33bb d855 7ebe
000002c0: 54e5 06be 6d4d debe 3504 afbd 7fe7 013e
000002d0: fa57 073e 9070 8abe 595f c03e 84dd 03be
000002e0: a574 2ebf 5a4b 083f 327a 51be ae3b 133f
000002f0: a86c a2be 8985 aabe 47f9 4d3d 2954 58be
00000300: 6f08 cb3d 2df2 683d 734f e33c ce0e e13d
00000310: 1217 643e 82ea a6be 954a c3be ceb6 b3bd
00000320: 7294 4dbe 8959 b93e 2050 a6be 32d1 4f3c
00000330: bea5 d0bc 64e9 4ebe b881 c53e 3b8c d03e
00000340: 0ba8 71be 50b6 8c3e 56df a33e 041d d53d
00000350: a820 b3be 656b a53e 7ff9 863d ecec 443d
00000360: df9b 5a3e 8e9e b5bb 23c6 e9bc 93b8 57be
00000370: d5ed 8cbe 2c6c fe3d 803f 8abe e993 0dbe
00000380: 9028 633e 440e 8d3e eca4 243e 689b 163f
00000390: eba5 79be c2ce a1be 3a46 99be a17f 6b3f
000003a0: 0a6c 2bbf 2cb8 eabc fe1f debd efc1 82bd
000003b0: e93e 6dbb be59 d73e 034e b8be 6989 0fbf
000003c0: 2a96 47be 5991 d5bd 4319 923e 1bf5 a43d
000003d0: 50b4 cebd 70b1 fb3e 7109 77bd f278 9fbe
000003e0: 229c 913d b8d3 e83c 6a92 c3be d30e 093e
000003f0: 55f8 d2be d537 1cbe 44c6 713e 3e1f f2be
0.11373115 0.17005609 -0.018033223 -0.005473073 -0.107155874 0.10860827 0.011302536 0.039169487
-0.07012825 -0.032743644 0.16614482 -0.0848912 -0.2433704 -0.12160104 -0.30649444 0.38137013
0.0705871 0.1539988 0.3263148 0.050868925 -0.018949667 0.09896894 -0.2425587 0.13943496
0.25908014 -0.046703815 -0.015163403 0.15145545 -0.38809097 -0.19937804 -0.5212196 -0.01388261
-0.40901417 0.08369401 -0.120882004 -0.019224294 -0.052825365 -0.085598975 -0.20949143 -0.02588391
0.1549929 -0.048091516 -0.48728356 0.402635 -0.17502792 0.26737654 0.21728964 0.036891885
-0.092674 -0.14595988 -0.02057923 0.09712972 -0.09575973 -0.12869321 0.18019143 0.26393172
0.03827451 0.044072863 -0.32866642 -0.10335392 -0.08633391 0.0944169 0.16761394 -0.038744923
-0.01715833 -0.23850197 -0.10569571 0.28574905 0.21275894 -0.18803446 -0.22276887 0.5257175
-0.16792895 -0.11318136 0.2935328 -0.054146584 0.04215628 0.059359044 0.17941456 -0.15350366
0.49828154 -0.22812277 0.042186327 -0.8183853 -0.23181026 -0.32793418 -0.19818859 -0.012213227
-1.0033251 -0.6988058 -0.17724559 0.31742352 -0.16254751 0.5262618 -0.46827567 0.0026781987
0.060359515 -0.39442694 -0.25266975 -0.22359326 -0.101088114 0.13192523 -0.29301968 -0.07000159
-0.34671292 -0.116257556 0.10125734 0.12782204 -0.29701683 -0.23077218 1.5697374 0.2777683
2.152821 0.15362962 0.14998443 0.77558637 1.0480508 0.106708735 1.6576674 1.7114564
0.22920941 -0.31996143 0.14083262 -0.29813161 -0.16044556 0.09833756 -0.030417021 0.07058793
-0.32332084 0.0359215 -0.39640877 0.21293904 -0.122991785 0.06550699 0.5127857 -0.14589229
0.19268505 0.26322973 -0.33494234 0.050450534 0.2360683 0.09729607 0.1493526 0.072776124
0.09024731 -0.359883 -0.23461552 -0.24069208 -0.28052238 -0.104999244 0.06663079 0.39796343
0.57528937 -0.104216866 -0.08032153 0.23781839 0.17053466 0.24845934 -0.033617288 -0.19358552
-0.2964032 0.46407902 -0.067824684 -0.20033339 -0.014343051 0.27130985 0.27385482 0.26113898
-0.22974896 -0.73946106 -0.4114987 -0.16923474 -0.033203673 -0.35583857 -0.0027416153 -0.24837434
-0.13173419 -0.43418446 -0.08545724 0.12685965 0.13217154 -0.27039003 0.37572744 -0.1287747
-0.68146735 0.5323998 -0.2045677 0.5751294 -0.31723523 -0.33305004 0.050286558 -0.21125855
0.09913718 0.05687158 0.027747845 0.10989152 0.22274426 -0.3260079 -0.3814284 -0.087751016
-0.20076159 0.36201122 -0.32483006 0.012684153 -0.025469657 -0.20206219 0.3857553 0.40731987
-0.2359926 0.27482843 0.3200633 0.10405925 -0.34985852 0.32308498 0.06590556 0.04807751
0.21348523 -0.005542583 -0.028536862 -0.21066503 -0.275252 0.12422976 -0.27001572 -0.13825954
0.22183442 0.27549946 0.16078538 0.5883088 -0.24379699 -0.31603056 -0.2993639 0.9199162
-0.6696173 -0.028652273 -0.10845946 -0.06384646 -0.0036200827 0.42060655 -0.35997018 -0.56069046
-0.19490877 -0.104281135 0.28534898 0.08054563 -0.10092986 0.49158812 -0.06031174 -0.3114696
0.07109858 0.028421268 -0.38197643 0.13384561 -0.41205087 -0.15255673 0.23610789 -0.4728946

actor.0.bias f4 [128]
00000000: c0e3 a8bb dc4b 14be b7f7 703d 61aa 23be
00000010: ec00 c33c 66b1 2cbc 1467 88bc 1555 5a3c
00000020: 9df6 4bbe fa81 c4bc 8135 c3bc b0da 833d
00000030: 75dc c9bd 8a17 00be ef92 cfbd ffc6 0cbd
00000040: 1ed0 b3bd 3861 e1ba 205d cc3d d644 703e
00000050: 5bf1 99bd 7fe6 0abe 3f92 67bd e334 07bd
00000060: 067f 423d ff04 5f3d 5c6e 3abe 1ccb 6bbe
00000070: 17c7 903d 425e 613c 159b 993c b245 4e3e
00000080: 9314 09be ca23 7cbe e881 693e 8d25 e9bd
00000090: 412f 8cbe 1b79 153e 9631 633c 181f a53b
000000a0: a6be aa3c c4fd aabd 94d1 13be d839 7c3d
000000b0: 54fb 3e3d 14b5 12bd 671c 31bd eb4c ea3b
000000c0: 4ec4 9abc 5f6d 32be 95a4 973b 4998 753d
000000d0: 7696 b43c a976 d9bd 72ed 3ebd 0518 86bd
000000e0: fbb2 aabc cbdd 613e fa82 51be 9e81 1c3d
000000f0: 7c99 9cbc 2d3e 803d 80fa 84be 836e 04be
00000100: c118 14be c4ac 1dbd aa16 053d 1868 ba3d
00000110: b360 1bbd 5927 0dbe ec3a 78be d9ee 15be
00000120: 6e0e 6f3d b565 083d aa95 d7bd 54d8 9abd
00000130: cfe0 133e e576 e13c bd5c 22bc 8373 e63b
00000140: 9796 c43d 0ffc a6bc 4b26 febd cab8 443d
00000150: 11ce 91be 8b78 cdbd 9168 8abe dc08 63be
00000160: 76a4 563d cba6 25bd 64f8 a8bd efa2 e83c
00000170: dcb7 853d 5dbf 35be 97fb 913d 2a95 cfbd
00000180: 3f6e 87bd 28ca 82bd 2e17 1d3d 04e1 04bd
00000190: 2e6e b0bc 1e82 4b3c 7aa8 99bb 3d88 8a3d
000001a0: 91c1 2bbd dd69 adbd cb57 a4bd f4a1 bcbc
000001b0: 00f4 fa3c 284b 7bbd 79c0 b5bd e1e9 b83a
000001c0: 68cb 57be 175d cfbd c39b 5ebe c1c5 4bbe
000001d0: a493 043c 0ddd 393b e24d fcbd dc80 1c3e
000001e0: 69aa 433d 4f91 29be 9d09 b33d d2fa f0bd
000001f0: 879b debd 3ac1 cabd 4604 59be 84c0 25be
-0.005154103 -0.14482063 0.05882999 -0.15982963 0.02380415 -0.010540342 -0.016650714 0.013325949
-0.19918294 -0.023987759 -0.023829224 0.06438196 -0.09856502 -0.1250898 -0.10135447 -0.034369465
-0.087799296 -0.0017195111 0.099787 0.23463759 -0.07516738 -0.1356449 -0.056535956 -0.03300942
0.04748442 0.054448124 -0.18206161 -0.23026699 0.070692234 0.013755383 0.018750707 0.20143774
-0.13386755 -0.24623027 0.22803462 -0.11384115 -0.27379802 0.1459698 0.013866803 0.005039107
0.020842861 -0.08349183 -0.14435416 0.0615786 0.046626404 -0.03581722 -0.043239977 0.0071502826
-0.018892433 -0.17424534 0.004627774 0.059959684 0.022044402 -0.10618336 -0.046613164 -0.0654755
-0.020837298 0.22057264 -0.2046012 0.03820955 -0.019116156 0.06261859 -0.25972366 -0.12932782
-0.14462568 -0.03849484 0.032492317 0.091018856 -0.037934016 -0.13784541 -0.24241227 -0.14641894
0.05836337 0.03330012 -0.10526593 -0.075607926 0.14441226 0.027522514 -0.009909806 0.007032813
0.09599035 -0.020383863 -0.124096476 0.04802779 -0.2847753 -0.10032757 -0.27032903 -0.22171348
0.052402936 -0.04044227 -0.08250502 0.028398005 0.06529209 -0.1774878 0.07128065 -0.10135873
-0.06612825 -0.063862145 0.038352184 -0.032441154 -0.021536913 0.012421159 -0.0046892734 0.06764267
-0.041932646 -0.084674574 -0.08024558 -0.023026444 0.030633926 -0.06135097 -0.08874602 0.0014107787
-0.21073687 -0.10125177 -0.21739106 -0.19899656 0.008091841 0.0028360516 -0.123195425 0.15283531
0.047769938 -0.16559337 0.08742068 -0.1176659 -0.10869508 -0.09900136 -0.21193036 -0.1618672

actor.2.weight f4 [128, 128]
00000000: 027e e1bc 4e43 f63e 3ca4 f1bd bf22 083e
00000010: 3322 b93e f37c acbe 7491 f43d bd9d 823b
00000020: 832a 183b fcd9 d1be de1b 88bd 852c c13d
00000030: 911b 483d 0996 5a3e 8a63 883e dad3 143e
00000040: 8ab3 623e 36ca 36bd c2d1 23be 0261 d5be
00000050: 593b 4dbe 473d 41be e2c6 bb3e 3d93 19be
00000060: 41aa a6be 5b12 3abe d011 d83e 032b df3e
00000070: 607f f8be 3e38 1bbe b794 683c 7249 933e
00000080: c164 debe 4e29 f0be c043 88be 5fa7 113e
00000090: 86c7 8a3e 046e 0c3f ff52 373e 641b babd
000000a0: 59a6 cc3d b00c 04be 8767 d0bd 7dde f9be
000000b0: 9907 9dbe c3cb 84be 8bb3 313c 04fa 01bf
000000c0: 197f 2fbf d2c8 32bd c48b 13bf 30ae c3be
000000d0: 3d04 d6bc 52ca e2be 5e27 3d3e 59da abbe
000000e0: 9667 eabe 15e9 efbe 931c a4be cbed b8be
000000f0: 7c23 5d3e 068c 06bf d9f7 b0bd fd56 1dbe
00000100: 9749 f93e c7c2 0fbf 2637 193c ffd5 103d
00000110: 1d6e 9ebe 850e 06bd f80b 2b3e e699 063f
00000120: 3742 9cbe 5ac4 a9bd 1f25 02bf e4ad 363f
00000130: 2458 0ebf 31d4 45be 2141 703e a844 603e
00000140: 7628 6fbe 9fc7 09bf b2cb 12be 6fd7 993e
00000150: 2fea ea3e 038f c9be f395 5ebe fb41 9c3e
00000160: b44a 86be bb13 43be b8dc 38bf b648 89bd
00000170: 45e5 6fbd f24b d4be d91a e0be 3a49 663d
00000180: 606e 563e fb50 7ebd 21d2 b2be d01a 7c3b
00000190: 0403 cf3e f9f2 6f3e 72a1 c4be 6472 553e
000001a0: be42 a03d cece 06be e833 8cbe b5a5 38bd
000001b0: ea71 a13e 75be 7fbe 7d52 873e 8cf3 413e
000001c0: 4245 15bd 7a16 b53e 3cae 523e 4960 3a3f
000001d0: f729 253e 30c7 0c3e aa83 af3e d475 84bc
000001e0: 54be 70bc 17d6 ca3e 5727 81be bf06 1b3e
000001f0: f1a6 0f3c 3f92 36be d34c 1fbf a80d 1e3e
00000200: 4fdf 56be b1cd aabe b970 4cbe ae0a 0bbe
00000210: 8c55 97bc 4527 8c3e 425d 16be 055b 303e
00000220: 570a 70bc bb0a 19be 1464 4d3d 81d1 323e
00000230: 127d 38bf 4d41 b73e 84e7 abbe 9348 36bf
00000240: d258 54be d3ca 2fbe e765 c7be f54e ebbe
00000250: 4356 82be 5371 be3e 8ac6 293d 0852 95be
00000260: ffc4 57be a039 d7bd a464 efbc 6016 64be
00000270: 11e9 5d3e c343 f6bd da56 33bf fa85 b2be
00000280: f7a5 833e c43f 103f 89ca febd bbb4 d13e
00000290: af32 ed3d fdf7 a9bd fa8e 29be a465 08bd
000002a0: 35bf b2bc bed6 91bd 6bd3 d03d fa24 19bf
000002b0: 6149 b5be b1e2 72bf 9c96 3e3d bd88 923d
000002c0: 1669 153d a2c7 b5bd 62a6 5a3e 6825 123f
000002d0: 6037 82be 1e44 34be 3d46 60be 4030 4b3e
000002e0: 8137 3cbe aeb6 963e b758 70bc be0a 5dbd
000002f0: a91c 003d 0ba9 4f3f 2566 d7be 82f7 1a3e
00000300: 4150 653d 631d 833e 971a b6be 8dda 603e
00000310: 1305 a23e 44d2 133e 3067 793e c1a8 6bbe
00000320: 4c84 253d 6646 79be 630a 9b3e c12a 503d
00000330: cc2d e8be 49e7 38bf ab88 8cbd 16fc acbd
00000340: 0ea6 6dbe bfeb c1bd d5e0 abbe 16a0 72be
00000350: 10d3 cbbe b0d0 d4be 45ae 42be 7c9b 1fbe
00000360: d526 4e3c 19f2 11be 6223 823f c500 323d
00000370: 756d ecbe 50ca 223e efdd ff3d c0af 443e
00000380: a39d c8be c712 0b3f 638f 753e f7f9 aabd
00000390: 36a8 8cbe 5ac9 8dbd 47c2 af3e db29 63bf
000003a0: 8e6d 11bf cc7b e73e 1b70 a13e d947 c23e
000003b0: 89ef 3ebe 96bf a63d f454 5dbe cdd0 4abe
000003c0: cd6f 5dbe 3bf4 9a3e bab9 0f3e 26ba 42bb
000003d0: 5bcc bebc 3a94 9fbd 6035 5a3e 69d9 6fbe
000003e0: 91e6 2f3d 2b57 0fbf 1f8e 603e ff09 3e3d
000003f0: 236c c9be 0507 233f 51f1 923e c739 60be
-0.027525906 0.48098224 -0.11798903 0.13294505 0.36158904 -0.3368908 0.119418055 0.003986089
0.0023218698 -0.4098662 -0.0664594 0.094323196 0.048854414 0.21346296 0.26638442 0.1453394
0.22138801 -0.044626437 -0.15997985 -0.41675574 -0.2004217 -0.18871032 0.36675173 -0.14997573
-0.32551768 -0.18171065 0.4220109 0.43587503 -0.4853468 -0.15158173 0.014195613 0.28766972
-0.43436244 -0.46906513 -0.2661419 0.14224003 0.2710535 0.5485537 0.17902754 -0.090872556
0.09992666 -0.12895465 -0.10175996 -0.48802558 -0.3066986 -0.25936708 0.010846029 -0.5077212
-0.6855331 -0.04364855 -0.5763514 -0.38218832 -0.026125068 -0.44294983 0.18472049 -0.33565024
-0.45782155 -0.46857515 -0.3205305 -0.36118922 0.21595567 -0.5255741 -0.08641023 -0.15365215
0.48688957 -0.5615658 0.009351527 0.035360333 -0.30943385 -0.03272869 0.16703784 0.5257858
-0.30519268 -0.08289404 -0.5083789 0.71359086 -0.5560324 -0.19319226 0.23462345 0.2190119
-0.23355278 -0.5382022 -0.14335516 0.30047175 0.45881793 -0.39366922 -0.21736889 0.3051909
-0.2622887 -0.19050495 -0.7221179 -0.06703322 -0.058568258 -0.41464192 -0.43770483 0.056222178
0.20940542 -0.062088948 -0.3492594 0.003846813 0.40431988 0.2343253 -0.38404423 0.20844418
0.0782523 -0.13164827 -0.2738335 -0.045079906 0.31532222 -0.24974997 0.2643012 0.18940562
-0.036443003 0.3536871 0.20574278 0.7280317 0.1612929 0.13747859 0.3428014 -0.016169466
-0.014693815 0.39616463 -0.25225326 0.15139292 0.008767829 -0.17829226 -0.622266 0.15434897
-0.20983623 -0.33360055 -0.19964875 -0.13578293 -0.01847341 0.2737371 -0.14684013 0.17222221
-0.014650903 -0.149455 0.05014427 0.17462732 -0.7206584 0.35792008 -0.3357507 -0.7120449
-0.20737007 -0.17167215 -0.38944933 -0.45958677 -0.25456437 0.37195835 0.041449107 -0.29164147
-0.21071242 -0.10509038 -0.029222794 -0.2227416 0.21670939 -0.12024643 -0.700544 -0.3486784
0.2571256 0.563473 -0.12440974 0.409582 0.11581933 -0.08299253 -0.16558447 -0.033300057
-0.02181969 -0.07121037 0.10196575 -0.59822047 -0.35407546 -0.94877154 0.04653035 0.07154987
0.03647717 -0.088759676 0.21352533 0.5708833 -0.25432873 -0.1760411 -0.21901794 0.19842625
-0.18380548 0.2943625 -0.014669589 -0.053965323 0.031277332 0.81117314 -0.42070118 0.15133479
0.05598474 0.25608358 -0.3556716 0.2195837 0.31644496 0.14435679 0.24355769 -0.23013593
0.04040937 -0.24343261 0.30281362 0.050822023 -0.4534744 -0.72227913 -0.06862005 -0.08446519
-0.23207876 -0.09468793 -0.3356997 -0.2369388 -0.39809465 -0.41565466 -0.19011791 -0.15586656
0.0125825 -0.14252509 1.0167048 0.043457765 -0.4617726 0.15897489 0.12493502 0.19207668
-0.39182767 0.54325527 0.23980479 -0.08348458 -0.27472085 -0.069231704 0.3432791 -0.8873574
-0.5680779 0.45211637 0.31530842 0.3794544 -0.18646063 0.08142011 -0.21614438 -0.19806214
-0.2162468 0.30264458 0.14035693 -0.0029713004 -0.023290804 -0.07791944 0.21309423 -0.23422779
0.042944495 -0.5599238 0.21929215 0.04639625 -0.39340314 0.63682586 0.28699735 -0.2189704

actor.2.bias f4 [128]
00000000: 2425 a2bc 2105 61be 455b e5bd 063e 87be
00000010: 0c9f aa3d 4608 7bbd aa34 a5be fee6 a0bd
00000020: 1245 04be 60f3 393d 454f ce3d 8b5a 8c3d
00000030: 47d2 8abd 2d01 c73d 2049 c23d 2ef3 40bb
00000040: cc5d c03d 3f3f 1ebe 007d 0cbe d6df 87be
00000050: 6ba4 303d d1c8 473d 4841 9e3d 7c66 53be
00000060: df0f e1bd 281e 123d 4179 933d 8c27 b2bc
00000070: 483d d1bc 6675 84bc 8f57 21be 5508 9ebd
00000080: d688 0e3d 20fb 98bd 1ae6 683d d4c7 f3bd
00000090: 48a9 dcbd d628 bc3d 29d7 00bd d3a4 253e
000000a0: 547e 11be 28b6 763d 5919 b4bd 8ac6 b43a
000000b0: 617f ee3d 909d 5dbe aadb bdbd 95e2 28be
000000c0: 5eec 2c3d 7509 d2bc 6305 03be a0d7 17be
000000d0: cdbc 27be 56a8 b53c bc7f 1d3d f436 303d
000000e0: cc18 dfbd d6c2 bcbd 9cc4 803c 6d1f 9a3d
000000f0: 23d7 5f3c a040 d03b 9aad 27be 8fa0 093a
00000100: 7bf7 2fbe 303e 203d 25b1 d7bc 6c02 6a3d
00000110: b685 3cbc 9265 3cbe ce3b b93c 8ebe 46bd
00000120: 7d1b 5b3e 9e13 81bd 78e7 0fbd c6db 923d
00000130: b6e1 d2bd 9d27 c8bd a8ff 323b adfd 913d
00000140: 9bce 9abb 27e9 20be 0727 4fbe 8e39 153e
00000150: 3fed 49be 17a9 01be dd72 7ebd a67b 21be
00000160: fc0a 33be 55ca 47bc 6bd2 49be 2e6b 313e
00000170: 7d88 64bd 8ff3 74be d331 babd 0a50 8ebc
00000180: b7df eb3c cc57 4abe bc3f f0bd 3d14 efbd
00000190: f581 4cbd affb 59be 4651 46be d346 a43d
000001a0: 383c 3bbe 6923 99bd 8ed0 c6bc 8f19 073e
000001b0: 65fb c83d ac8d 453d 19b5 943d a0d5 ccbc
000001c0: d189 233e 4eac 8b3d 03f9 12be 1b22 dcbd
000001d0: 8912 15be 97bb e43d ba99 6fbe 96ff 01bb
000001e0: 2e1d 6ebe a1d8 253c e018 e7bc a057 efbd
000001f0: 4714 84be ef12 edbc 4ae5 95be 24f8 b53d
-0.0197931 -0.21974613 -0.11199049 -0.26414508 0.08331117 -0.061287187 -0.32266742 -0.07856558
-0.12916973 0.045398116 0.10073713 0.06853207 -0.067783885 0.09717021 0.09486604 -0.0029441821
0.0939289 -0.15453814 -0.13719559 -0.2653796 0.04312555 0.048775498 0.07727295 -0.20644563
-0.10989355 0.03567329 0.07200862 -0.021747373 -0.025541916 -0.016169261 -0.15756057 -0.07716433
0.034798466 -0.07469773 0.056860067 -0.119033486 -0.10774475 0.09187476 -0.031455193 0.16176157
-0.14208347 0.06023231 -0.08793897 0.0013792079 0.11645389 -0.21642137 -0.09270413 -0.16492684
0.042217605 -0.025639275 -0.12795024 -0.14828348 -0.16380616 0.022174995 0.038451895 0.043021157
-0.108934015 -0.092168495 0.01571875 0.07525525 0.013662132 0.00635536 -0.16374817 0.00052500603
-0.1718425 0.039121807 -0.026329586 0.057131216 -0.011506489 -0.18398121 0.022611525 -0.04852157
0.21397205 -0.0630257 -0.035132855 0.07170825 -0.10296957 -0.09773181 0.0027313028 0.07128463
-0.0047243363 -0.1571394 -0.20229732 0.14572737 -0.19719408 -0.12662159 -0.06212126 -0.15769824
-0.17484659 -0.012194236 -0.19709174 0.17326042 -0.055794228 -0.23921035 -0.090915345 -0.01737215
0.028793199 -0.19760054 -0.11730906 -0.11673782 -0.049928624 -0.21287416 -0.19366941 0.08021321
-0.1828469 -0.07477457 -0.024269368 0.13193344 0.09813575 0.048230812 0.07261104 -0.025004208
0.15970542 0.06819974 -0.14352803 -0.107486926 -0.14557852 0.111685924 -0.23398486 -0.001983618
-0.23253319 0.010122449 -0.028210104 -0.11686635 -0.2579672 -0.028939692 -0.29276496 0.0888522

actor.4.weight f4 [40, 128]
00000000: 98f3 8fbe 4f35 3abf f379 663e 9e53 ad3d
00000010: 763b 993e 4eb6 85bf 6b33 51bf 1300 c6be
00000020: 0735 8d3d 25cb c5be f4d0 04be 7b0e 1fbd
00000030: 2351 f6be deae c93c 55cf a5be 2aa9 c9bd
00000040: 68b0 c93d b3d8 00bf e2e2 09bf 4ba0 8cbe
00000050: 9606 5c3f 95aa 083f babf 003e d8ce bfbc
00000060: 0c96 963e 0c32 d0be c16e 96be 0540 023e
00000070: 3484 9abe 54c9 80bd a2ff 3a3f 8362 20bd
00000080: 0605 44be b64d c13d 5927 f63d 9b37 44bd
00000090: af64 e0bd b4a5 e23d 7346 92be f7dd 51bf
000000a0: 1684 a9be 4b86 a8bd 6274 9ebe 79bd 38be
000000b0: f4de e93e a159 17be 721d ee3e fd3c ad3e
000000c0: a6c7 2cbe 42a3 c43d 1e4a b8bd a827 81be
000000d0: e8d1 933e 7d04 8bbe 030a 11be f5a2 debd
000000e0: 807c b4bd 5c69 8a3e 384d 173f 81a5 1ebe
000000f0: 7971 d9be e632 973e 3b50 a4bd c554 833e
00000100: 5d67 f23e e8b4 1bbe 4593 ca3e ca39 2f3e
00000110: 28df 8d3e 72fd 14bd 6a60 3abd 811a 05bf
00000120: d150 9c3d b4bf 013f 6b56 f1be 46ad a2be
00000130: 5587 c2be 620c d53e 854e f23e 9840 64be
00000140: 66dc 21be 3154 e33f c771 b33e 9847 803e
00000150: 732f 6fbf 17e8 d73e d1bb 4cbd 7fca 1c3f
00000160: 22d7 3abf 7dfb 29bf b203 883f 3768 d33d
00000170: e1f0 fabd 0545 16bf 7351 d1be 9107 34bf
00000180: ed33 5abe 75ad 9e3d 6d85 ac3d 7605 06be
00000190: 4d62 ad3d 0ee9 24bf 5b7b 723d dd56 973e
000001a0: 1eac 51bf 48ac 38bf bbf5 c23e f8ac c73c
000001b0: 7a0c d7be 69d5 1d3d 85d7 3abd 3f23 92bd
000001c0: e197 8bbe 709c cabe ddb2 e73e 5148 c5be
000001d0: 5958 fe3b 3ecb 723b ad7e fcbd 824d 063e
000001e0: cf5a abbe 4734 d8bb b103 5cbe 673d 5a3f
000001f0: 8c32 f3be b730 3d3e 13a1 0b3f 772f 66bc
00000200: acc2 23be 775e a53e 0fd1 143d ca8b 913d
00000210: faf4 a53d 42d5 ed3d 424c a8bc 8034 dbbc
00000220: 441c 0c3e 5712 0b3e 341f 13bf f7dc 5bbc
00000230: a0d6 a23e 797d 5b3e 9e27 e7bd 456f 8f3e
00000240: 2ff2 f3bd 228e 683c 8c5a fe3d 74b1 7f3d
00000250: 9e71 393e cd1f 90be 1612 8fbe d930 c2bd
00000260: 60b3 75be 7eb5 6ebe 7cd0 80bb 92ec fdbc
00000270: 41c8 45be 5891 4a3d 9855 8abd 22c5 8a3e
00000280: 1f91 453e 7347 adbe 5943 023e bcab 403e
00000290: cc72 3abe 291f 793c 6dcb e03c 5243 10be
000002a0: 840c 47be b271 b03e 81b5 e83e 43b7 dd3e
000002b0: e035 d0bc cdea 98be e84f a93e 52dd dbbe
000002c0: 9ec4 efbe 73ff d63d 44dc bbbe 713e 5e3d
000002d0: f24c 8d3d 9b78 83be 5b61 42be c293 15bf
000002e0: 253b 4a3e b504 63be 419c b0bd b74e a93e
000002f0: bb4f 103e 1fba 89bd 2b49 a23c f3fe 083e
00000300: 93fd 94bd 921e c23d 571b 0f3e e70e 8bbc
00000310: 897c 89bd 10e4 f4bd 9215 81be 8791 d03d
00000320: fc45 46bf 93b1 103f 4d76 85bd dd99 fdbd
00000330: fe97 27bd 8fcb 3a3f e950 b5be b759 24bd
00000340: 810f 3b3e 77e5 e1bd 24da 4fbe 0b74 883d
00000350: ed71 933e bedb ebbd e1a8 ffbd 653e 953d
00000360: 3a4f cc3d a2fa a4be 1690 db3e f2bb 18be
00000370: 0b30 3cbd 2d1a aabd 846e b73e 3199 42bd
00000380: 5dbd 853e 1106 1f3e a90d 903e 62bd 253e
00000390: 7f30 c63c e785 433e 624c b43d 9597 7abe
000003a0: 3b67 6e3e 17f0 86be 3253 52bd 0f3f 063d
000003b0: f3c1 17bd 39ad 5e3e 838a 943d 5ec0 14bd
000003c0: a9a2 65be 879d 66bd 0f12 4d3e 756f df3d
000003d0: 10e9 4c3e c134 063d 1e1c ad3e dde8 493e
000003e0: 5160 e5bc b1bc c7be 3b0e acbd 993b c63e
000003f0: 704a 9c3e f15b 3cbe 9db9 08be f179 9bbe
-0.28115535 -0.7273759 0.22507457 0.08463214 0.29928178 -1.044626 -0.8171908 -0.38671932
0.0689488 -0.3863155 -0.12970334 -0.03883217 -0.48108777 0.024619516 -0.32384744 -0.098467186
0.098481 -0.50330657 -0.5386182 -0.27466044 0.8594755 0.5338529 0.12573138 -0.02341406
0.29411352 -0.40663183 -0.29381374 0.12719734 -0.30178988 -0.062884 0.73046315 -0.039156448
-0.19142541 0.0943865 0.12019224 -0.047904592 -0.10956704 0.110667616 -0.28569373 -0.81979316
-0.33108586 -0.08228739 -0.30948168 -0.18041028 0.45677912 -0.14780284 0.4650684 0.33835593
-0.16873035 0.096014515 -0.08998512 -0.25225568 0.28871083 -0.27151862 -0.14163975 -0.10870925
-0.08812809 0.27033508 0.591022 -0.15492822 -0.42469385 0.2953102 -0.08023115 0.25650612
0.47344485 -0.15205729 0.39565483 0.17111889 0.27709317 -0.036374517 -0.045502104 -0.51993567
0.07632602 0.5068314 -0.47136244 -0.31772822 -0.37993875 0.4161101 0.4732553 -0.22290266
-0.15806732 1.7760068 0.35047743 0.25054622 -0.93431777 0.42169258 -0.049983803 0.61246485
-0.72984517 -0.66399366 1.0626128 0.10322612 -0.12252975 -0.58699065 -0.40882453 -0.70324045
-0.2130887 0.07747928 0.084238864 -0.1308802 0.08466015 -0.64418113 0.059199672 0.2955846
-0.81903255 -0.7213788 0.38078102 0.02437447 -0.42001706 0.038533602 -0.04561569 -0.07135629
-0.27264312 -0.39572477 0.4525365 -0.38531736 0.0077619967 0.0037047411 -0.12328849 0.13115504
-0.3346772 -0.006598029 -0.21485783 0.8524994 -0.47499502 0.18475614 0.54542655 -0.014049402
-0.1599223 0.32298633 0.036332186 0.07106741 0.08103366 0.11612941 -0.020544175 -0.026758432
0.13682657 0.13581215 -0.5746949 -0.013419381 0.3180437 0.21434583 -0.11286853 0.2801458
-0.11911427 0.014194043 0.12419614 0.062425092 0.18109748 -0.28149262 -0.27943486 -0.09481973
-0.23994207 -0.23311421 -0.0039311033 -0.030996595 -0.19314672 0.049455017 -0.06754607 0.27103525
0.1929364 -0.33843574 0.12721004 0.18815511 -0.18207854 0.015205183 0.027440751 -0.1408818
-0.19438368 0.34461743 0.45450976 0.4330388 -0.025416315 -0.2986664 0.33068776 -0.42942291
-0.46829695 0.10497942 -0.36691487 0.054258768 0.06899442 -0.25677952 -0.1898245 -0.58428586
0.19749124 -0.22169764 -0.08623553 0.33067867 0.14092915 -0.06724953 0.01981028 0.13378505
-0.07274928 0.09478487 0.13975273 -0.01697488 -0.06713206 -0.11957562 -0.2521177 0.10184007
-0.7745054 0.56520957 -0.06516705 -0.12382863 -0.040916435 0.72966856 -0.35413292 -0.04012462
0.18267633 -0.11030095 -0.20298058 0.066627584 0.28797856 -0.11516522 -0.12483383 0.072872914
0.09976049 -0.32222468 0.42883366 -0.14915445 -0.045944255 -0.08305774 0.35826504 -0.047509376
0.26121035 0.15529658 0.28135422 0.16185525 0.024193047 0.19094048 0.08803631 -0.24471886
0.23281567 -0.2635505 -0.051348872 0.03277498 -0.0370502 0.21745767 0.072529815 -0.03631627
-0.22425331 -0.056302574 0.2002642 0.109099306 0.20010781 0.032765154 0.33810514 0.19717737
-0.028000029 -0.39011148 -0.08401152 0.38717344 0.3052554 -0.18394448 -0.13352056 -0.3036647

actor.4.bias f4 [40]
00000000: d3f0 06be 6243 59be cdde 56be 25b2 abbd
00000010: 8593 8cbe 7c3f 1dbe c306 9abd 8db3 4c3e
00000020: 3b5c dd3d 4c20 273e 133f 2fbd dc82 773d
00000030: 25f2 58be e779 eabd 0a70 9a3d bc11 75bd
00000040: 84b8 693d b253 003e dc29 663e 76b0 c83e
00000050: e583 1ebe 1ae3 523b 5b55 8e3d 249f e0bd
00000060: 7b39 33be 8c1a 8abe 1702 e6bd 052a 713e
00000070: 492d 873e b24f 0b3e 6e7f 67be 63a7 02bb
00000080: 8e46 72bd 12e2 23bc ac56 22be 7e30 35bc
00000090: a9fc a0bc 7bd4 b83e 86ca 9b3d c58c 9d3e
-0.13177805 -0.21217111 -0.20983429 -0.08383588 -0.27456298 -0.15356249 -0.07520821 0.19990368
0.10808607 0.16320914 -0.04278476 0.06042753 -0.21186121 -0.11449032 0.07540901 -0.059831366
0.057060733 0.12531927 0.22476906 0.3919713 -0.15480001 0.003217882 0.06949874 -0.10967854
-0.17502396 -0.2697338 -0.11230867 0.23551185 0.26401737 0.1360462 -0.22607204 -0.0019936196
-0.059149317 -0.01000263 -0.15853375 -0.011058925 -0.019651728 0.3609961 0.07606988 0.3077146
