src/ui/resources/agent.pt (torch, 323429 bytes, 11 tensors)

critic.0.weight f4 [128, 162]
0.019768039 -0.23323275 -0.09102865 0.120929085 -0.34099412 -0.25295588 -0.0011731536 0.051459905
-0.06758872 0.023680972 -0.0029580805 -0.19982068 -0.00065345404 -0.025405288 0.15733056 -0.060102962
-0.12015768 -0.13790369 -0.30698296 -0.041311014 0.11169411 0.06254298 0.022848548 0.0055257156
-0.035835784 -0.019034568 -0.1484662 -0.1687612 0.021262782 0.026740644 -0.055737678 -0.1851013
-0.08763682 -0.007626094 0.13278425 -0.009817353 0.0071194093 -0.044765778 -0.10817736 -0.18625736
0.035847686 0.026279151 0.13645604 -0.10548895 -0.051766127 -0.13277628 0.044073317 -0.03868904
-0.0058059236 0.056442484 -0.064664066 -0.074818894 -0.13305566 -0.032492284 -0.010743719 0.09132685
0.03279054 0.026851533 0.10873525 -0.13996127 0.063074164 -0.00718252 -0.086342536 -0.06667928
-0.04519843 -0.15015036 0.12603909 0.100339614 0.030338578 -0.041186236 -0.11496205 -0.19175945
0.04535312 0.051614903 -0.05674537 -0.06997256 -0.14313753 0.008014487 -0.022042558 0.23409502
-0.01816793 0.14136146 0.12727442 0.033576347 0.06816685 0.07224616 -0.10501826 0.054839574
0.16111574 -0.17703284 -0.20280237 -0.111784704 0.10928581 0.10198429 0.08203775 -0.10275936
-0.019508595 -0.091627285 0.15109713 0.08585611 0.0025270523 -0.19418006 0.10409337 -0.03197799
0.050720043 -0.03938571 0.052779917 0.05285185 -0.04693418 0.13626005 -0.08899608 0.10269701
0.015670085 0.11085441 0.17379878 -0.21030416 0.15396826 0.073223785 0.011219543 -0.05553079
-0.043060433 0.0110805025 -0.16174252 -0.054839928 0.16315614 0.024101838 0.1391895 -0.15806192
-0.02357071 0.08657598 -0.060524136 0.058488563 0.06921949 -0.1379329 0.06742008 -0.05529812
-0.10108609 -0.066015616 0.04260895 -0.035441622 0.07419688 -0.16793387 -0.12439682 -0.013131686
-0.09546003 0.06526852 -0.24138516 -0.008378692 0.009041748 -0.110465206 0.028173996 0.017066313
0.14453606 -0.05400673 -0.1139867 -0.05146242 -0.17112096 -0.07938646 -0.09277036 -0.07405015
-0.23821893 0.040685285 0.0321613 -0.15053494 0.03328575 -0.041854654 -0.0556651 -0.17443669
-0.08140961 -0.054407824 -0.069405384 0.17511898 -0.035845548 -0.12349918 -0.12786229 0.001319732
0.01541867 -0.024814032 -0.13241605 0.0804986 -0.05300313 0.05574353 0.18474805 -0.06722037
-0.21713378 0.11106017 0.12722431 0.07017169 -0.007883918 -0.009799178 0.02928106 -0.07564834
-0.20895453 -0.1125092 -0.08372875 -0.025699383 -0.23081136 -0.033637673 0.049330834 -0.1235043
0.022245666 -0.06583674 -0.006937388 -0.010709125 -0.09104468 -0.12665576 0.05558907 -0.13618344
-0.06691163 0.109696485 0.061251625 0.16315454 -0.046823155 0.10477019 -0.0883608 -0.04305184
-0.020897014 -0.06624401 0.13642283 0.102350235 -0.1035245 0.16005038 -0.19751425 0.042614244
0.15030879 -0.057542022 -0.21319842 0.021255331 -0.13249491 -0.047663976 0.0959422 0.1673892
-0.12931034 -0.04140796 -0.19966823 -0.1204912 0.045675434 -0.04792335 0.10903552 0.00046460427
-0.023210552 -0.06330721 0.207081 0.105197854 0.02806718 0.04886089 -0.06299513 0.023308702
-0.09367764 0.05060365 -0.2110957 0.12348378 -0.03551171 -0.12912731 -0.046697658 0.010849128
00000000: 95f0 a13c 91d4 6ebe 3b6d babd aba9 f73d
00000010: c896 aebe 6f83 81be 81c4 99ba 9fc7 523d
00000020: f46b 8abd 99fe c13c 5bdc 41bb cb9d 4cbe
00000030: 8f4c 2bba c01e d0bc 431b 213e 862e 76bd
00000040: 3b15 f6bd a036 0dbe df2c 9dbe bd35 29bd
00000050: e2bf e43d 8916 803d e12c bb3c 1011 b53b
00000060: 8bc8 12bd 62ee 9bbc 8607 18be bccf 2cbe
00000070: 492f ae3c 320f db3c 314d 64bd 328b 3dbe
00000080: ef7a b3bd 50e4 f9bb 98f8 073e f7d8 20bc
00000090: ef49 e93b 525c 37bd 178c ddbd 40ba 3ebe
000000a0: 06d5 123d 6047 d73c 22bb 0b3e 970a d8bd
000000b0: b808 54bd 81f6 07be 3986 343d 6678 1ebd
000000c0: 9e3f bebb 3c30 673d 986e 84bd a63a 99bd
000000d0: be3f 08be a116 05bd 6c06 30bc 9209 bb3d
000000e0: 604f 063d bff7 db3c 96b0 de3d 0252 0fbe
000000f0: 072d 813d 585b ebbb 5bd4 b0bd 258f 88bd
00000100: fd21 39bd 04c1 19be 6410 013e db7e cd3d
00000110: 9c88 f83c e6b2 28bd 3971 ebbd 975c 44be
00000120: 31c4 393d 266a 533d d56d 68bd c64d 8fbd
00000130: a592 12be 324f 033c 9892 b4bc 9bb6 6f3e
00000140: e9d4 94bc 0fc1 103e 3a54 023e 5a87 093d
00000150: 109b 8b3d cbf5 933d d013 d7bd 769f 603d
00000160: 86fb 243e 1948 35be 6dab 4fbe 61ef e4bd
00000170: 3dd1 df3d 24dd d03d 6803 a83d 8073 d2bd
00000180: 7dd0 9fbc 16a7 bbbd 35b9 1a3e 54d5 af3d
00000190: e79c 253b 23d7 46be e82e d53d 5afb 02bd
000001a0: d2bf 4f3d e952 21bd c12f 583d 2e7b 583d
000001b0: 0e3e 40bd c187 0b3e 9443 b6bd cf52 d23d
000001c0: 8d5e 803c a307 e33d 4ff8 313e f959 57be
000001d0: dba9 1d3e 5af6 953d 2dd2 373c 4174 63bd
000001e0: 2360 30bd ff8a 353c d59f 25be d59f 60bd
000001f0: 6712 273e 3871 c53c b187 0e3e fcda 21be
00000200: 5d17 c1bc bf4e b13d 28e8 77bd b491 6f3d
00000210: f3c2 8d3d 483e 0dbe 8a13 8a3d 4880 62bd
00000220: 3906 cfbd 3233 87bd b986 2e3d 3c2b 11bd
00000230: 89f4 973d dbf6 2bbe c3c3 febd 4826 57bc
00000240: 8c80 c3bd 80ab 853d ac2d 77be c846 09bc
00000250: d723 143c 953b e2bd 27cd e63c a7ce 8b3c
00000260: 4301 143e 2936 5dbd dc71 e9bd 42ca 52bd
00000270: 553a 2fbe 5e95 a2bd 63fe bdbd 9ba7 97bd
00000280: aaef 73be 9da5 263d 91bb 033d d525 1abe
00000290: a356 083d c96f 2bbd 1701 64bd 889f 32be
000002a0: 15ba a6bd bdda 5ebd 6924 8ebd 6452 333e
000002b0: c8d2 12bd 23ed fcbd 55ee 02be dcfa ac3a
000002c0: 979e 7c3c cc46 cbbc 1398 07be 73dc a43d
000002d0: cf19 59bd 5453 643d 982e 3d3e d5aa 89bd
000002e0: 5158 5ebe 8473 e33d 1747 023e 2db6 8f3d
000002f0: 8c2b 01bc bb8c 20bc d5de ef3c 84ed 9abd
00000300: 2df8 55be 396b e6bd fb79 abbd 8387 d2bc
00000310: d059 6cbe a8c7 09bd 210f 4a3d d3ef fcbd
00000320: 8b3c b63c 6ad5 86bd 0753 e3bb 5375 2fbc
00000330: a275 babd 0cb2 01be 5db1 633d ac73 0bbe
00000340: f708 89bd 8da8 e03d fce2 7a3d fc11 273e
00000350: a3c9 3fbd c191 d63d 82f6 b4bd 2057 30bd
00000360: 3730 abbc f1aa 87bd 6db2 0b3e 009d d13d
00000370: a704 d4bd 3fe4 233e 2d41 4abe 468c 2e3d
00000380: 8cea 193e 2fb1 6bbd b050 5abe a91f ae3c
00000390: bfac 07be 4d3b 43bd 587d c43d 1368 2b3e
000003a0: ee69 04be 659b 29bd d475 4cbe 17c4 f6bd
000003b0: 2a16 3b3d 464b 44bd 044e df3d 2196 f339
000003c0: 0e24 bebc 36a7 81bd 0b0d 543e f971 d73d
000003d0: 25ed e53c 5b22 483d 9703 81bd e4f1 be3c
000003e0: 10da bfbd c645 4f3d 7929 58be 10e5 fc3d
000003f0: ba74 11bd f339 04be 0b46 3fbd 8ac0 313c

critic.0.bias f4 [128]
-0.10971413 -0.051168043 -0.14061722 -0.09138227 -0.09048364 -0.103836335 -0.081608206 -0.013339401
-0.04402218 -0.08709818 -0.054867312 -0.051608507 -0.08033237 -0.12992583 -0.054324683 -0.009447502
-0.03785765 -0.13442504 -0.08875326 -0.08752825 -0.13151042 -0.08977889 -0.060996413 -0.07562571
-0.13683991 -0.0904054 0.13415685 -0.021807631 -0.09274966 -0.08162001 -0.12263981 -0.09403236
-0.07131192 -0.14096251 -0.14964388 -0.12332244 -0.15402533 -0.0902956 -0.15901202 -0.088893674
-0.051083777 -0.09679652 -0.13185027 -0.06749884 -0.09333352 -0.11335296 -0.09877258 -0.121256806
-0.11383489 -0.051080987 -0.07951589 -0.060087945 -0.08876391 -0.07151519 -0.10604887 -0.05639107
-0.082817085 -0.064231366 -0.08928665 -0.10414593 -0.10951019 -0.15066369 -0.09994694 -0.0857968
-0.07542216 -0.18189217 -0.07982597 -0.08362662 -0.07278347 -0.108278975 -0.056175437 -0.11771842
0.061416052 -0.10087412 -0.08866324 -0.06415952 -0.04117752 0.20126519 -0.14495766 -0.06378359
-0.10898738 0.13907255 -0.0627587 -0.05023571 -0.16204481 -0.0650545 -0.1274258 -0.07083606
-0.08731812 -0.08039785 -0.0778687 -0.07633284 -0.10326593 -0.057173327 0.034472298 -0.10580927
-0.10495806 -0.1481638 -0.10679433 -0.050209016 -0.07130267 -0.055819403 -0.08438022 -0.10454788
-0.117065206 -0.104233384 -0.17938784 -0.07664664 -0.09197093 -0.110603414 -0.038452107 -0.100148395
-0.108801566 0.19830005 -0.1130328 -0.04083619 -0.09531116 -0.061139453 0.102163106 -0.075788125
-0.021939164 -0.0987588 -0.13289772 -0.07243551 0.34872746 -0.14451788 0.05935924 -0.03964622
00000000: cdb1 e0bd 9595 51bd f6fd 0fbe a126 bbbd
00000010: 7d4f b9bd 25a8 d4bd 3422 a7bd 818d 5abc
00000020: 9a50 34bd 8860 b2bd 8cbc 60bd 7163 53bd
00000030: 4c85 a4bd 470b 05be 8f83 5ebd b2c9 1abc
00000040: a010 1bbd b8a6 09be 45c4 b5bd 0342 b3bd
00000050: abaa 06be ffdd b7bd 60d7 79bd a7e1 9abd
00000060: c31f 0cbe 7726 b9bd 6a60 093e eba5 b2bc
00000070: 89f3 bdbd 6428 a7bd 952a fbbd 0a94 c0bd
00000080: fc0b 92bd 7a58 10be 3f3c 19be 7a90 fcbd
00000090: d1b8 1dbe e6ec b8bd 0cd4 22be e30d b6bd
000000a0: 393d 51bd 413d c6bd c203 07be d53c 8abd
000000b0: a525 bfbd 9925 e8bd 4749 cabd 7d55 f8bd
000000c0: 4422 e9bd 4c3a 51bd 3ad9 a2bd c71e 76bd
000000d0: dac9 b5bd 8e76 92bd 2630 d9bd 53fa 66bd
000000e0: 019c a9bd bc8b 83bd ebdb b6bd 764a d5bd
000000f0: e146 e0bd 9547 1abe fbb0 ccbd 3cb6 afbd
00000100: ef76 9abd f141 3abe cc7b a3bd 6f44 abbd
00000110: 800f 95bd 5ec1 ddbd 3718 66bd 5b16 f1bd
00000120: 668f 7b3d 1797 cebd 1395 b5bd 1166 83bd
00000130: c2a9 28bd 7618 4e3e c86f 14be f9a0 82bd
00000140: c734 dfbd 0969 0e3e a287 80bd f6c3 4dbd
00000150: 13ef 25be 4b3b 85bd e97b 02be 7f12 91bd
00000160: d8d3 b2bd a1a7 a4bd a079 9fbd 6454 9cbd
00000170: 177d d3bd 942e 6abd d332 0d3d 88b2 d8bd
00000180: 40f4 d6bd 40b8 17be fcb6 dabd f8a7 4dbd
00000190: 2207 92bd e3a2 64bd 89cf acbd 331d d6bd
000001a0: e2bf efbd 5078 d5bd 72b1 37be eaf8 9cbd
000001b0: 415b bcbd 0b84 e2bd f57f 1dbd 9a1a cdbd
000001c0: 5bd3 debd 2b0f 4b3e be7d e7bd d943 27bd
000001d0: 7f32 c3bd 5d6d 7abd e43a d13d ce36 9bbd
000001e0: c3b9 b3bc 0e42 cabd 5716 08be 1259 94bd
000001f0: 688c b23e 7ffc 13be ad22 733d 1364 22bd

critic.2.weight f4 [128, 128]
0.010310398 0.06079794 0.18882535 0.076073065 -0.03760232 0.21488951 0.19577515 0.054473195
0.03547197 -0.078645416 0.17912428 0.05062733 -0.16524175 0.0128893135 0.29072362 -0.15644787
0.08438767 -0.43888044 -0.048075404 -0.023148468 0.04828022 0.049319915 0.009057581 0.06750142
-0.0026136928 -0.13282157 0.116943985 0.16180827 -0.028514503 -0.021065205 0.18452467 -0.079165764
-0.10160307 -0.021793302 -0.05842333 -0.009695349 -0.009979437 0.01733821 0.016286332 -0.25493437
-0.0023892175 -0.058046278 -0.123668276 -0.0058215624 0.010379463 0.27441585 0.013901886 -0.0921954
-0.1678278 0.021348547 0.04490594 -0.13856056 -0.32080278 0.20484622 0.2154003 -0.026225861
0.07990167 -0.1398429 -0.0446417 0.015722224 0.0011966993 -0.10455974 0.13706145 0.029308593
-0.07682583 -0.047127586 -0.091816515 -0.050140355 -0.13536592 -0.009473518 0.13470049 -0.005301025
0.13110827 -0.12764905 0.029558813 0.079663284 -0.06938944 -0.15829307 -0.07777155 0.028685553
0.006595203 -0.17941095 0.07095976 -0.09568873 -0.062110335 -0.35213405 -0.00041531003 0.07855796
0.27168295 -0.0144153815 0.038480394 -0.25603804 -0.072061166 -0.08126509 -0.013116526 0.03063655
0.020920737 -0.052496843 -0.02522984 -0.05576196 0.095297046 0.12537743 0.02253284 -0.05414189
-0.0059452215 0.26850733 0.19611584 0.01824669 -0.039060008 -0.16465607 0.18820383 0.10626995
0.07997317 -0.10864381 0.06974479 0.053071585 -0.14464793 -0.0853739 0.050531317 0.20465061
-0.052524105 -0.010311126 -0.08702746 -0.23992684 -0.09627139 -0.04360162 -0.20513901 0.0028766047
-0.0053277705 0.009266108 0.1607253 0.054419868 0.01161714 0.100674525 -0.016031481 -0.1957654
-0.019415429 0.018291587 -0.21474683 -0.013881478 -0.011694874 -0.03444704 -0.028662639 0.06221455
-0.17259821 -0.05616797 -0.044896066 0.08565039 0.11421867 0.04255602 0.00522639 0.10533491
0.08193286 -0.07804581 -0.057331447 -0.29677978 0.05104609 -0.16993752 -0.2055524 -0.3142155
-0.038365304 0.20062569 0.01098872 -0.15398192 -0.12093097 0.029180929 0.054781523 -0.041575883
0.08761398 -0.08770847 0.08440084 -0.11049633 -0.114939265 -0.095201105 -0.19622488 -0.012753597
-0.056453522 -0.066703655 -0.15021144 -0.094865054 0.039233707 -0.03652356 0.069210075 -0.046161935
0.0020134759 0.14240237 0.03145024 -0.06837844 0.06486251 0.030548234 0.19750056 -0.066417344
0.051926307 0.17485072 -0.039835684 -0.015602676 -0.06327215 -0.0033623825 0.08043127 -0.092079885
-0.06916565 -0.100242995 0.08086969 0.11284742 0.033279847 -0.51864547 -0.13216276 -0.05550991
-0.3903902 0.2004344 0.032954298 0.029433938 -0.029062446 -0.11056498 -0.23047768 -0.03316691
0.068505056 -0.0017484333 0.015533652 0.017065272 -0.112335324 -0.06125071 0.08222686 -0.0965401
0.04666996 -0.071533 -0.29401058 -0.12844244 -0.028828332 0.0076017366 -0.045285422 -0.024729827
-0.028933903 -0.08249691 0.0007251874 -0.035342813 -0.026023848 -0.18048964 -0.00467209 0.0587635
0.027255572 -0.26046646 0.04551293 -0.078540444 -0.03608509 -0.05598119 -0.0058311336 -0.08509169
-0.025846796 0.056977097 0.23184723 -0.014502783 -0.14948858 0.063766934 0.36940885 -0.046990644
00000000: f2ec 283c 4307 793d 6f5b 413e 32cc 9b3d
00000010: e404 1abd ff0b 5c3e 4879 483e 491f 5f3d
00000020: 0e4b 113d d910 a1bd 5b6c 373e 9a5e 4f3d
00000030: 2235 29be b32d 533c bad9 943e df33 20be
00000040: 71d3 ac3d f0b4 e0be b7ea 44bd dba1 bdbc
00000050: 7bc1 453d ae03 4a3d 4066 143c 2f3e 8a3d
00000060: 7d4a 2bbb 6102 08be 5480 ef3d 11b1 253e
00000070: 3f97 e9bc f090 acbc 09f4 3c3e a921 a2bd
00000080: 4515 d0bd de87 b2bc 4d4d 6fbd 3ed9 1ebc
00000090: cb80 23bc dd08 8e3c ea6a 853c c286 82be
000000a0: 6b94 1cbb efc1 6dbd cb45 fdbd cec2 bebb
000000b0: a00e 2a3c 3c80 8c3e bcc4 633c f1d0 bcbd
000000c0: 0ddb 2bbe 26e3 ae3c 4aef 373d d2e2 0dbe
000000d0: 4340 a4be 35c3 513e e591 5c3e 9ed7 d6bc
000000e0: 7da3 a33d fa32 0fbe 37da 36bd e5cb 803c
000000f0: 91da 9c3a 6b23 d6bd d659 0c3e 9318 f03c
00000100: dc56 9dbd db08 41bd 4c0a bcbd f95f 4dbd
00000110: 5d9d 0abe d036 1bbc edee 093e 39b4 adbb
00000120: 3f41 063e 6fb6 02be 5325 f23c 8126 a33d
00000130: 0d1c 8ebd 9417 22be b146 9fbd f7fd ea3c
00000140: 931c d83b 81b7 37be 5a53 913d 74f8 c3bd
00000150: 6867 7ebd ea4a b4be f8bd d9b9 ffe2 a03d
00000160: 071a 8b3e 7e2e 6cbc 9e9d 1d3d 6b17 83be
00000170: ce94 93bd 506e a6bd b3e6 56bc 81f9 fa3c
00000180: f761 ab3c ee06 57bd cfae cebc a766 64bd
00000190: 192b c33d f162 003e ca96 b83c e3c3 5dbd
000001a0: 22d0 c2bb cb79 893e 97d2 483e 157a 953c
000001b0: 63fd 1fbd 9a9b 28be 81b8 403e 0fa4 d93d
000001c0: f9c8 a33d a580 debd 5bd6 8e3d 9761 593d
000001d0: 961e 14be 83d8 aebd edf9 4e3d ee8f 513e
000001e0: 8423 57bd ffef 28bc 743b b2bd 62af 75be
000001f0: ef29 c5bd 9d97 32bd f60f 52be 6b85 3c3b
00000200: 9494 aebb e0d0 173c 2c95 243e 5ee7 5e3d
00000210: d155 3e3c 722e ce3d 7454 83bc ba76 48be
00000220: 1b0d 9fbc 3dd8 953c 98e6 5bbe 246f 63bc
00000230: db9b 3fbc 5718 0dbd e9cd eabc afd4 7e3d
00000240: 96bd 30be 6310 66bd f0e4 37bd 7969 af3d
00000250: 7aeb e93d 394f 2e3d 2342 ab3b d4b9 d73d
00000260: 6acc a73d 7bd6 9fbd 61d4 6abd 85f3 97be
00000270: b415 513d 1a04 2ebe 547c 52be dbe0 a0be
00000280: f024 1dbd d270 4d3e 080a 343c 70ad 1dbe
00000290: a8aa f7bd d80c ef3c 9762 603d 794b 2abd
000002a0: f56e b33d 80a0 b3bd 59da ac3d e64b e2bd
000002b0: 4765 ebbd ccf8 c2bd 2def 48be 77f4 50bc
000002c0: cf3b 67bd ed9b 88bd 07d1 19be 9c48 c2bd
000002d0: 86b3 203d ba99 15bd 03be 8d3d 4c14 3dbd
000002e0: 85f4 033b edd1 113e f8d1 003d ff09 8cbd
000002f0: a3d6 843d 4a40 fa3c 963d 4a3e d105 88bd
00000300: aeb0 543d 110c 333e be2a 23bd 5ea2 7fbc
00000310: d494 81bd 6b5b 5cbb 26b9 a43d 6194 bcbd
00000320: b8a6 8dbd 334c cdbd 029f a53d 8c1c e73d
00000330: 7350 083d f3c5 04bf ad55 07be 5c5e 63bd
00000340: 39e1 c7be ad3e 4d3e 16fb 063d 711f f13c
00000350: 5e14 eebc e46f e2bd 5702 6cbe 07da 07bd
00000360: 614c 8c3d b02b e5ba dc80 7e3c 78cc 8b3c
00000370: 1010 e6bd 06e2 7abd 8e66 a83d d1b6 c5bd
00000380: 0029 3f3d e57f 92bd 8e88 96be 6a86 03be
00000390: 6529 ecbc fd17 f93b 357d 39bd 3596 cabc
000003a0: cb06 edbc 24f4 a8bd 811a 3e3a a0c3 10bd
000003b0: f72f d5bc 47d2 38be 5518 99bb ffb1 703d
000003c0: 1447 df3c dc5b 85be c46b 3a3d d0d9 a0bd
000003d0: f6cd 13bd 884c 65bd 1813 bfbb 8d44 aebd
000003e0: a9bc d3bc d160 693d 5c69 6d3e 159d 6dbc
000003f0: 8913 19be 3d98 823d 2823 bd3e 4379 40bd

critic.2.bias f4 [128]
-0.01029696 -0.42930102 -0.0497975 -0.036119804 -0.04625984 -0.05223601 -0.02764943 -0.011651367
-0.02817149 -0.035106752 -0.021774868 -0.05343865 -0.053271584 -0.06540113 -0.01292324 -0.069103
-0.013076488 -0.03214234 -0.038769037 -0.07188935 -0.018566636 -0.05610567 -0.063208185 -0.012179942
-0.019567143 -0.053578336 -0.03965682 -0.06490452 -0.052001886 -0.033569455 -0.058289565 -0.028100371
-0.046870958 -0.03157218 -0.005255628 -0.045787178 -0.14298709 -0.027912127 -0.045736182 -0.035260886
-0.039986882 -0.023698628 -0.025780572 -0.012920472 -0.031237025 -0.051264893 -0.03165838 -0.024942134
-0.03124557 -0.021311123 -0.06166812 0.034962427 -0.034662407 -0.06294756 -0.018149894 -0.05860964
-0.04150759 -0.066939756 -0.04860389 -0.021856766 -0.07148507 -0.32563236 -0.03196377 -0.019881465
-0.040693983 -0.057115566 -0.031476647 -0.05149622 -0.009232184 -0.010482758 -0.03704451 -0.028650116
-0.015561985 -0.042782653 -0.0483995 -0.039611436 -0.042086933 -0.052323397 -0.009158064 -0.038185462
-0.19436643 -0.018322706 -0.03924699 -0.021692764 -0.3242594 -0.038250513 -0.033258267 -0.044681944
-0.3826894 -0.058094 -0.023006022 -0.013764069 -0.008262356 -0.037427284 -0.06046031 -0.02259408
-0.07448998 -0.03214439 -0.053773295 0.06886681 -0.029666629 -0.03450427 -0.028598132 -0.07899811
-0.051383253 -0.109250456 -0.015168167 -0.06667833 -0.050864328 -0.06314101 -0.01003344 -0.028182968
-0.04469273 -0.031009253 -0.05231762 -0.02432111 -0.008547718 -0.049952466 -0.0036452177 -0.012202772
-0.05790947 -0.050952215 -0.08367299 -0.028729688 -0.07209374 -0.029127376 -0.049340352 -0.06547146
00000000: 95b4 28bc 58cd dbbe 77f8 4bbd 5cf2 13bd
00000010: f57a 3dbd 6df5 55bd 0f81 e2bc 60e5 3ebc
00000020: e6c7 e6bc 19cc 0fbd 3561 b2bc 7ce2 5abd
00000030: 4e33 5abd 07f1 85bd ffbb 53bc e085 8dbd
00000040: c43e 56bc b0a7 03bd 48cc 1ebd b93a 93bd
00000050: 0f19 98bc 0fcf 65bd 4b73 81bd 618e 47bc
00000060: 464b a0bc f574 5bbd 316f 22bd a9ec 84bd
00000070: eeff 54bd 2080 09bd 0ac1 6ebd c032 e6bc
00000080: c3fb 3fbd d551 01bd 6737 acbb 568b 3bbd
00000090: 356b 12be f9a7 e4bc dd55 3bbd b86d 10bd
000000a0: 49c9 23bd a023 c2bc c731 d3bc 63b0 53bc
000000b0: cae4 ffbc 23fb 51bd 38ac 01bd 7253 ccbc
000000c0: b6f6 ffbc aa94 aebc b697 7cbd c334 0f3d
000000d0: 2bfa 0dbd a6ea 80bd 16af 94bc a910 70bd
000000e0: dd03 2abd b617 89bd df14 47bd f60c b3bc
000000f0: c466 92bd 49b9 a6be 71ec 02bd 74de a2bc
00000100: bcae 26bd 03f2 69bd a8ed 00bd b3ed 52bd
00000110: 9642 17bc e0bf 2bbc fcbb 17bd a6b3 eabc
00000120: b2f7 7ebc dd3c 2fbd 8e3e 46bd 9a3f 22bd
00000130: 5963 2cbd 0f51 56bd b40b 16bc 5c68 1cbd
00000140: fe07 47be 8019 96bc 74c1 20bd 06b5 b1bc
00000150: 5405 a6be 92ac 1cbd d239 08bd 6a04 37bd
00000160: ddef c3be f9f3 6dbd 2077 bcbc b182 61bc
00000170: d55e 07bc 5a4d 19bd 3ba5 77bd 3817 b9bc
00000180: 348e 98bd d6a9 03bd 6341 5cbd 0b0a 8d3d
00000190: 6e07 f3bc 5954 0dbd a146 eabc c3c9 a1bd
000001a0: 3f77 52bd b4be dfbd e783 78bc a68e 88bd
000001b0: 1d57 50bd 1350 81bd 4c63 24bc f8df e6bc
000001c0: b90f 37bd 1e07 febc 004b 56bd 113d c7bc
000001d0: ba0b 0cbc f59a 4cbd 9be4 6ebb 23ee 47bc
000001e0: 7b32 6dbd 45b3 50bd bf5c abbd 865a ebbc
000001f0: e2a5 93bd 899c eebc 1c19 4abd e715 86bd

critic.4.weight f4 [1, 128]
0.0011294119 -0.38044563 -0.03390083 -0.056748785 0.0073462664 0.0012262538 0.08398245 -0.0034982737
0.066125676 0.17469613 -0.05050383 -0.009023255 -0.0092392145 0.008573638 0.0022393859 0.0110470755
-0.009874268 -0.057646893 -0.17405032 0.11473053 -0.0051496183 0.06926912 -0.004022641 0.0017310688
-0.0052084234 0.016942654 -0.10592704 0.064965814 -0.0036593413 -0.0032215978 -0.006060589 0.063647464
0.11053436 0.10993605 9.277292e-05 -0.006028939 -0.04879771 -0.004457224 -0.010721968 0.045686938
0.13958575 0.013502446 0.011515255 0.0035877526 0.0032831586 -0.05239359 -0.011604683 -0.00752126
0.058793228 0.00040436615 0.085503645 -0.008633932 -0.0023287982 0.07218817 0.04093924 -0.15068185
-0.053092632 -0.0683969 0.06327798 -0.007753279 -0.07439903 -0.271191 -0.01607452 0.01930525
0.0020720335 0.00032781018 0.09983102 -0.00061681675 0.0032300553 -0.0033831168 0.09672649 0.003183174
-0.003245126 0.070276454 0.0019036761 -0.0035919417 -0.02402736 -0.0106215235 0.0015857422 -0.106596276
-0.046656534 -0.016460191 -0.0013219267 0.0037994564 0.3571241 0.006964986 0.005190013 0.09498129
0.30728653 -0.006464984 -0.0030195927 0.0056485184 -0.0057053952 0.0036130156 -0.15472104 0.04247795
-0.0064495923 0.031606715 0.06442541 -0.04568628 -0.05420627 0.07273156 0.032475557 -0.0028985136
-0.09588422 -0.006852352 -0.00914631 0.025075395 0.020325107 -0.024185613 0.0015892136 0.005073889
-0.037261397 -0.01057199 -0.0041729743 0.008355204 -0.0047325226 -0.050887965 -0.0007726549 0.004530726
-0.004586143 -0.00033097336 -0.038066722 -0.012178206 0.011279475 -0.026896069 0.07804649 0.0013391745
00000000: c608 943a c5c9 c2be 99db 0abd 6a71 68bd
00000010: f3b8 f03b 40ba a03a fefe ab3d 4b43 65bb
00000020: e66c 873d 8be3 323e 1bdd 4ebd 46d6 13bc
00000030: 1360 17bc 7278 0c3c a9c2 123b cbfe 343c
00000040: afc7 21bc 261f 6cbd 3f3a 32be d7f7 ea3d
00000050: 21be a8bb f8dc 8d3d 5cd0 83bb 08e5 e23a
00000060: 6cab aabb 52cb 8a3c 47f0 d8bd cc0c 853d
00000070: 8fd1 6fbb 7121 53bb e897 c6bb 9a59 823d
00000080: d75f e23d 2726 e13d 158f c238 688e c5bb
00000090: 1ce0 47bd e80d 92bb 31ab 2fbc 3a22 3b3d
000000a0: 91ef 0e3e 5d39 5d3c 7baa 3c3c 8020 6b3b
000000b0: 432a 573b a99a 56bd 9121 3ebc e774 f6bb
000000c0: 2bd1 703d 1b01 d439 891c af3d 5675 0dbc
000000d0: c09e 18bb 64d7 933d e8af 273d 584c 1abe
000000e0: a977 59bd ad13 8cbd e397 813d 380f febb
000000f0: 855e 98bd 8cd9 8abe b6ae 83bc 0b26 9e3c
00000100: f4ca 073b f0dd ab39 3574 cc3d dfb1 21ba
00000110: 56af 533b 48b7 5dbb 8a18 c63d cc9c 503b
00000120: 2eac 54bb 1aed 8f3d c584 f93a c866 6bbb
00000130: 07d5 c4bc e605 2ebc aed8 cf3a 264f dabd
00000140: ec1a 3fbd 86d7 86bc 8044 adba 4d00 793b
00000150: f8d8 b63e 8a3a e43b fc10 aa3b 8d85 c23d
00000160: a954 9d3e 37d8 d3bb 5ce4 45bb 3517 b93b
00000170: 53f4 babb 58c8 6c3b 316f 1ebe 5cfd 2d3d
00000180: 1a57 d3bb 0b76 013d 78f1 833d 8921 3bbd
00000190: 6507 5ebd 49f4 943d 1705 053d fdf4 3dbb
000001a0: f25e c4bd b289 e0bb 68da 15bc ea6a cd3c
000001b0: d780 a63c e820 c6bc 294d d03a de42 a63b
000001c0: 689f 18bd 2436 2dbc 72bd 88bb 44e4 083c
000001d0: 4713 9bbb e66f 50bd fe8b 4aba 7c76 943b
000001e0: 5b47 96bb 7e86 adb9 daeb 1bbd 1987 47bc
000001f0: 8ccd 383c 2555 dcbc d7d6 9f3d 3d87 af3a

actor.0.weight f4 [128, 162]
0.36792526 -0.3102679 -0.16245237 0.042398043 -0.0924119 0.1898255 -0.09777668 -0.15653352
-0.15775411 0.11469556 0.008791343 -0.25532982 -0.03310256 0.101809904 -0.13349672 -0.39710417
-0.38558564 -0.30856213 0.046033878 0.12339643 -0.20570128 0.3228334 0.190902 -0.19734776
0.07591089 0.124615416 0.2084386 -0.35562924 -0.4583564 6.5072218e-06 0.22518624 0.090404
-0.47725937 -0.015482313 0.28901932 -0.10929171 0.23330441 -0.16442573 0.17068271 -0.13078651
-0.5198189 0.16667853 -0.12844126 0.31167653 0.2682212 -0.33511308 -0.40196216 -0.36585262
-0.03750795 0.5987738 -0.2560382 -0.15788801 -0.4600697 0.13444534 -0.24536468 0.6415343
0.5561628 0.40018174 -0.111426726 0.061720513 0.58592117 0.06002179 -0.43187708 0.012243545
-0.40138134 -0.27364385 0.15029405 0.52651656 -0.05706427 -0.11297507 -0.1466731 0.26341885
-0.15493114 -0.22844443 -0.05079506 -0.23965575 -0.12536629 -0.26192608 -0.27545035 0.6312975
-0.78645074 -0.22160107 -0.5431204 -0.6500955 0.37735903 0.34703773 -0.18900098 -0.16837311
0.15953451 -0.13663445 -0.39029184 0.44734883 -0.18903534 0.2757081 -0.35638943 -0.25844237
0.42596155 0.2131537 -0.4865013 0.6896625 -0.23126669 0.20685606 0.68307686 -0.024570877
-0.013715043 -0.22667491 -0.13036542 0.6175467 0.39083388 0.35909516 -0.75605005 0.044629294
0.11398087 -0.62588793 0.041653242 -0.18752186 -0.12640464 -0.12914874 -0.33824047 -0.14236052
-0.60503286 0.13315505 0.38938573 0.3198557 0.013937011 0.12123722 0.57721907 0.11582503
-0.41078225 -0.38153622 0.43431038 0.15139812 0.17709823 -0.6900644 0.67333704 -0.047714688
0.06415357 -0.14292476 -0.49710026 -0.12486135 0.35569355 -0.80664057 0.0062348205 -0.45940816
0.49408117 0.47705445 0.0020351869 -0.03463815 -0.68435884 -0.51140887 -0.18765137 0.24077974
-0.17536326 0.08076384 -0.2755648 -0.60197765 -0.018567888 -0.30959648 -0.038390767 -0.04701067
0.09163032 -0.16114062 0.007839712 -0.04693797 0.008938107 -0.26308838 -0.06867366 -0.17793617
-0.19298871 0.020961227 -0.34688854 -0.26520592 -0.3276984 -0.00919105 -0.2212881 -0.094390616
0.13080522 -0.49734968 0.35868764 0.36205173 0.20690878 -0.13603984 -0.01787861 -0.18684024
-0.42564806 0.09246839 0.24861091 -0.11663664 0.015257761 -0.23031113 -0.20831694 0.07657826
0.10121221 -0.16671713 0.07737397 0.3853904 0.0002546782 -0.13339387 -0.10303348 -0.4699773
0.20847476 -0.45746645 -0.40368953 -0.6477163 -0.5822675 -0.36983728 -0.42005867 0.04522419
0.32327673 -0.6872314 0.00012596858 -0.8225965 0.89297146 -0.2600376 -0.1076499 0.931727
0.39614105 0.21712135 0.1130573 -0.1134435 -0.6649074 -0.011127101 0.7719177 -0.25386053
0.3341957 0.14527239 0.48103672 -0.2957023 -0.26868182 -0.5046401 0.32410473 -0.06989917
0.076401636 -0.061188586 0.017007383 0.24001877 0.41252697 0.36334622 -0.115099564 0.41537306
0.13203624 -0.07577411 -0.23248695 -0.61589515 -0.96380323 -0.5677141 -0.89536 -0.4190889
-0.8040654 -0.3107089 -0.49950454 -0.3539782 0.32552555 0.34087753 0.37013274 0.47813055
00000000: b360 bc3e 6fdb 9ebe ea59 26be 92a9 2d3d
00000010: 7342 bdbd 9e61 423e 243f c8bd 534a 20be
00000020: 4b8a 21be 81e5 ea3d 9109 103c 97ba 82be
00000030: 8d96 07bd b681 d03d 5db3 08be 3d51 cbbe
00000040: 7b6b c5be dbfb 9dbe 058e 3c3d 44b7 fc3d
00000050: 5ba3 52be 6b4a a53e d07b 433e 8815 4abe
00000060: 2b77 9b3d 5e36 ff3d ee70 553e 0915 b6be
00000070: b1ad eabe 9c58 da36 3997 663e bb25 b93d
00000080: 575b f4be 87a9 7dbc 57fa 933e 55d4 dfbd
00000090: 5ae7 6e3e 385f 28be 73c7 2e3e e6ec 05be
000000a0: da12 05bf c7ad 2a3e 1b86 03be 1194 9f3e
000000b0: 4a54 893e f193 abbe fccd cdbe 0951 bbbe
000000c0: f0a1 19bd 3d49 193f 7017 83be 65ad 21be
000000d0: 418e ebbe 0aac 093e e140 7bbe 983b 243f
000000e0: af60 0e3f 9fe4 cc3e b233 e4bd a6ce 7c3d
000000f0: eefe 153f 69d9 753d fe1e ddbe 2699 483c
00000100: db81 cdbe 0c1b 8cbe afe6 193e cac9 063f
00000110: 39bc 69bd 795f e7bd 7931 16be d6de 863e
00000120: 45a6 1ebe 56ed 69be 7b0e 50bd 5168 75be
00000130: 0560 00be 2d1b 86be d407 8dbe b79c 213f
00000140: d654 49bf 64eb 62be f009 0bbf a96c 26bf
00000150: 3435 c13e eeae b13e 7989 41be 006a 2cbe
00000160: 045d 233e e7e9 0bbe 55d4 c7be e80a e53e
00000170: 7b92 41be 9d29 8d3e ad78 b6be 8f52 84be
00000180: a217 da3e f744 5a3e b316 f9be b98d 303f
00000190: 2dd1 6cbe 13d2 533e 20de 2e3f dd48 c9bc
000001a0: 0fb5 60bc 781d 68be 837e 05be 8a17 1e3f
000001b0: 611b c83e 52db b73e 7f8c 41bf 35cd 363d
000001c0: cd6e e93d 313a 20bf 979c 2a3d bb05 40be
000001d0: 3870 01be 913f 04be db2d adbe f5c6 11be
000001e0: 6fe3 1abf cc59 083e 915d c73e 20c4 a33e
000001f0: 1058 643c 384b f83d a1c4 133f ac35 ed3d
00000200: 0d52 d2be b758 c3be ee5d de3e 1c08 1b3e
00000210: 3d59 353e 0fa8 30bf d15f 2c3f 7a70 43bd
00000220: f262 833d de5a 12be ed83 febe 4fb7 ffbd
00000230: 771d b63e ff7f 4ebf 774d cc3b 8c37 ebbe
00000240: 35f8 fc3e 7b40 f43e c560 053b bce0 0dbd
00000250: 2432 2fbf b1eb 02bf ae27 40be f78e 763e
00000260: 6d92 33be 8367 a53d d416 8dbe 351b 1abf
00000270: af1b 98bc 6e83 9ebe a33f 1dbd 438e 40bd
00000280: ada8 bb3d 0c02 25be 2372 003c 0742 40bd
00000290: 2371 123c 85b3 86be c7a4 8cbd e634 36be
000002a0: d59e 45be e1b6 ab3c 609b b1be 12c9 87be
000002b0: 16c8 a7be 0f96 16bc 5999 62be de4f c1bd
000002c0: cef1 053e 9ea4 febe e8a5 b73e d85e b93e
000002d0: e5df 533e 074e 0bbe 2a76 92bc 0c53 3fbe
000002e0: 8bee d9be 1160 bd3d dc93 7e3e 31df eebd
000002f0: b0fb 793c aed6 6bbe 0951 55be 10d5 9c3d
00000300: 5948 cf3d e5b7 2abe 3e76 9e3d e451 c53e
00000310: 5486 8539 6798 08be 3803 d3bd dda0 f0be
00000320: 687a 553e 0b39 eabe 65b0 cebe bcd0 25bf
00000330: 7c0f 15bf 505b bdbe ee11 d7be 003d 393d
00000340: 8784 a53e 66ee 2fbf 6f16 0439 af95 52bf
00000350: c799 643f a623 85be 8d77 dcbd a985 6e3f
00000360: 00d3 ca3e 0f55 5e3e 968a e73d 1155 e8bd
00000370: 5f37 2abf 724e 36bc 669c 453f 02fa 81be
00000380: b31b ab3e 49c2 143e 724a f63e 4b66 97be
00000390: aa90 89be 1830 01bf 0ef1 a53e 4c27 8fbd
000003a0: 7678 9c3d e2a0 7abd 1153 8b3c 7bc7 753e
000003b0: bc36 d33e 8408 ba3e 52b9 ebbd c7ab d43e
000003c0: 8234 073e 752f 9bbd 0f11 6ebe 4eab 1dbf
000003d0: cfbb 76bf b655 11bf 5036 65bf d292 d6be
000003e0: 3bd7 4dbf 3d15 9fbe 0fbf ffbe a13c b5be
000003f0: 49ab a63e 8087 ae3e 0a82 bd3e 87cd f43e

actor.0.bias f4 [128]
-0.106002025 0.060647216 -0.10810172 -0.028943537 0.27497712 0.22833012 0.0126210535 -0.047497988
-0.09371116 -0.009080005 -0.2086722 -0.017259462 0.2027532 -0.05458525 -0.00445911 0.04781428
-0.03533979 0.06253152 -0.105814874 0.045766387 0.00071143534 -0.026363337 -0.11345886 -0.039280113
0.049098566 -0.10035621 -0.09455738 0.01600201 0.22685024 -0.08889213 0.10679564 -0.19271988
-0.03853134 0.09617981 -0.048364405 0.056668505 -0.060556464 0.0038282552 0.2883983 0.10107481
0.020394715 -0.17468591 0.0050238213 0.06672545 -0.10037564 0.05464727 0.10791687 0.1338571
0.058758132 0.03518121 0.075517766 -0.09283536 -0.02029999 0.07425739 -0.057635073 0.04217263
0.0796213 0.0048416643 -0.15530969 0.012331214 0.11853227 -0.028950937 -0.0151740275 -0.031518176
0.22405449 0.004750343 0.09149259 -0.016477961 0.012125909 0.1521764 0.006767562 -0.002763232
-0.009217024 0.05614443 -0.11272327 -0.08616546 -0.02200729 -0.20803477 -0.1252317 0.057795364
-0.05108222 -0.019497368 -0.028590806 -0.14574818 0.03705694 -0.09251022 -0.24316508 0.1282031
0.0897379 -0.09950899 -0.023191564 -0.14293611 0.023676585 -0.13997021 -0.08227555 -0.13317068
-0.28941667 -0.01370555 0.08940462 0.027838215 0.12017946 -0.043646622 -0.08458055 0.035889875
-0.13606526 -0.12640695 -0.010710335 -0.16942747 0.14596072 0.040509805 -0.012913835 -0.00258462
-0.013077634 0.04849478 -0.087046646 0.082963735 0.07511408 0.11244299 0.02659839 0.057340384
-0.10391487 -0.03191054 0.007742719 -0.083593376 0.066049196 0.15035437 0.16149463 0.13857107
00000000: 9717 d9bd 3769 783d 6f64 ddbd ff1a edbc
00000010: cdc9 8c3e 5fcf 693e 89c8 4e3c 408d 42bd
00000020: a3eb bfbd 4dc4 14bc 2aae 55be b763 8dbc
00000030: 899e 4f3e c894 5fbd ba1d 92bb e8d8 433d
00000040: 75c0 10bd 8710 803d 78b5 d8bd 8975 3b3d
00000050: 9e7f 3a3a edf7 d7bc 1e5d e8bd 2fe4 20bd
00000060: 941b 493d 8e87 cdbd 4da7 c1bd a616 833c
00000070: 6e4b 683e 140d b6bd acb7 da3d 5c58 45be
00000080: 0ad3 1dbd ecf9 c43d c119 46bd 3c1d 683d
00000090: 0e0a 78bd 77e3 7a3b f1a8 933e 4f00 cf3d
000000a0: d112 a73c dde0 32be de9e a43b 5aa7 883d
000000b0: be91 cdbd d1d5 5f3d 8503 dd3d d611 093e
000000c0: 5eac 703d 2c1a 103d 0fa9 9a3d 7720 bebd
000000d0: 2a4c a6bc 4214 983d c112 6cbd 35bd 2c3d
000000e0: 7e10 a33d d3a6 9e3b 8109 1fbe dc08 4a3c
000000f0: 0cc1 f23d 842a edbc 7c9c 78bc 3419 01bd
00000100: 8a6e 653e c4a8 9b3b 7860 bb3d cafc 86bc
00000110: c0ab 463c 21d4 1b3e 6dc2 dd3b 5717 35bb
00000120: 0003 17bc b4f7 653d 75db e6bd 8477 b0bd
00000130: a248 b4bc 1107 55be bd3c 00be d5ba 6c3d
00000140: 973b 51bd f2b8 9fbc 4437 eabc 033f 15be
00000150: 05c9 173d 0076 bdbd 4400 79be ac47 033e
00000160: 81c8 b73d 5fcb cbbd 3cfc bdbc d85d 12be
00000170: 66f5 c13c 5a54 0fbe 1580 a8bd e55d 08be
00000180: 6c2e 94be 3e8d 60bc c519 b73d f80c e43c
00000190: a620 f63d cdc6 32bd 9138 adbd 4301 133d
000001a0: b154 0bbe d370 01be 677a 2fbc 657e 2dbe
000001b0: ba76 153e 9ced 253d 8d94 53bc ba62 29bb
000001c0: 9343 56bc 76a2 463d 8345 b2bd e4e8 a93d
000001d0: 69d5 993d 8348 e63d dee4 d93c c0dd 6a3d
000001e0: 52d1 d4bd a0b4 02bd a2b6 fd3b 0133 abbd
000001f0: cd44 873d 7ff6 193e d95e 253e 93e5 0d3e

actor.2.weight f4 [128, 128]
0.020389177 -0.25634718 -0.3152089 -0.24613321 -0.25784454 -0.09056947 0.3640375 -0.097894646
-0.09249399 0.1799282 -0.09064424 -0.2176638 0.07694511 -0.48465806 0.19820465 -0.5425149
0.5063509 0.42162725 0.4302042 0.1361499 0.33094722 -0.30866906 -0.4219053 -0.56000674
-0.4760867 -0.3074927 0.18796477 0.048293713 0.30246022 0.09134478 0.34629107 0.045182806
0.45886943 0.5199304 0.49906278 -0.03187168 0.2756147 0.060233444 0.036879886 -0.32567745
0.1495414 0.122525714 0.14798708 0.37544805 0.11758949 0.5922622 0.003208661 -0.32156166
-0.2547837 0.11507946 0.095011234 -0.3912509 -0.24993697 -0.21469375 0.24827603 0.45583412
-0.44537875 -0.44521216 0.3638091 -0.15891176 0.5546184 -0.85249346 -0.21961099 0.48529118
-0.45186946 0.3351635 -0.034843694 -0.3626051 -0.17349952 0.026933089 -0.43729547 -0.0029854532
0.15103653 0.2486567 0.023715323 0.3612416 0.5057673 -0.37841573 0.24418153 -0.17990486
-0.0030532863 -0.01589615 0.22661316 -0.034761652 -0.1790732 0.11980405 -0.28952545 -0.13089778
-0.4415235 -0.27711108 -0.18476127 -0.39591867 0.22725004 -0.15329795 -0.2423227 -0.161941
-0.0010174221 0.523664 -0.14424476 0.5573765 0.17188634 0.30810627 -0.065567546 -0.23783056
-0.22327885 0.0049677817 0.014408485 -0.32957304 0.38832363 0.57062304 -0.49949947 -0.23997611
-0.9995822 -0.45569402 -0.06790966 0.12197134 -0.12766516 -1.0519216 -0.2978971 -0.42938247
0.4200202 0.2842601 0.14397173 -0.07580907 -0.3620779 -0.39904904 -0.31710696 -0.028958214
0.088912174 -0.39496619 -0.5612451 -0.23207268 -0.14639181 0.14478573 0.11625963 -0.08924062
-0.25128558 -0.047364406 0.05354834 -0.7848272 -0.33103606 0.37819642 -0.28424048 0.3737835
0.1108538 -0.019183908 -0.38964418 -0.2629694 -0.12701587 0.09383619 0.32107133 0.20772521
0.07063995 -0.5684538 0.42906436 -0.20566073 0.53467804 0.5830365 0.03550096 0.3133249
-0.13350055 0.07651072 -0.19929239 0.55774945 0.02164471 -0.3574687 0.6684824 0.406756
-0.2099189 0.14700651 -0.0133616505 0.31456068 0.10608599 0.1886179 -0.07775268 -0.61968744
-0.038871747 -0.29601994 0.02832249 0.32089865 -0.55083907 -0.420039 -0.29422233 -0.24045688
0.27788556 -0.34616998 0.10441183 0.45392984 -0.15193026 -0.10163031 0.26637593 -0.7276823
-0.24857676 -0.83876693 -0.043361086 0.7227042 0.33696502 -0.22328857 0.34891555 -0.41286138
-0.2216415 0.35274833 0.03654549 0.03971792 -0.9495569 0.39156985 -0.60474116 -0.50500214
0.021451661 0.14618547 0.05464375 -0.14655977 -0.19324705 0.1669118 0.13058211 -0.58848196
0.06562613 0.37829483 -0.62071776 -0.07701718 0.15838662 0.38540524 -0.68964005 -0.17018212
0.13874522 -0.10057252 -0.42392436 0.11564257 0.39773208 0.17031364 0.26997066 0.18864927
-0.24778898 -0.18835342 -0.1970837 -0.14902948 -0.52815396 -0.33317855 -0.31857008 0.0053899926
0.039689146 0.17258029 0.5088062 -0.4041577 -0.45816255 -0.7756771 0.43238515 -0.014174122
-0.13002485 0.11175615 -0.4178077 0.058852952 -0.3594388 -0.19725274 0.1080263 0.21384446
00000000: 3407 a73c f03f 83be 1063 a1be 580a 7cbe
00000010: 3304 84be 7c7c b9bd 2063 ba3e fd7c c8bd
00000020: 7d6d bdbd 193f 383e b0a3 b9bd 42e3 5ebe
00000030: 6695 9d3d 1a25 f8be 29f6 4a3e 42e2 0abf
00000040: 36a0 013f 87df d73e ba43 dc3e e16a 0b3e
00000050: ea71 a93e df09 9ebe f903 d8be 9a5c 0fbf
00000060: a3c1 f3be af6f 9dbe d679 403e a1cf 453d
00000070: 11dc 9a3e f912 bb3d 104d b13e 9b11 393d
00000080: eff0 ea3e 291a 053f 2885 ff3e e18b 02bd
00000090: 5f1d 8d3e 58b7 763d 5d0f 173d 32bf a6be
000000a0: 6121 193e c3ee fa3d ed89 173e ba3a c03e
000000b0: c2d2 f03d 7f9e 173f 6648 523b bba3 a4be
000000c0: 0273 82be c8ae eb3d 4095 c23d 0a52 c8be
000000d0: 7aef 7fbe aed8 5bbe 123c 7e3e 1763 e93e
000000e0: af08 e4be d9f2 e3be 3045 ba3e c4b9 22be
000000f0: 79fb 0d3f 033d 5abf b4e1 60be 1678 f83e
00000100: 6f5b e7be 8d9a ab3e 43b8 0ebd 60a7 b9be
00000110: dca9 31be c8a2 dc3c 31e5 dfbe 98a7 43bb
00000120: 52a9 1a3e dd9f 7e3e a346 c23c a9f4 b83e
00000130: f779 013f b5bf c1be b90a 7a3e fb38 38be
00000140: a519 48bb a538 82bc 480d 683e 3c62 0ebd
00000150: f75e 37be d35b f53d ae3c 94be 110a 06be
00000160: 5e0f e2be 81e1 8dbe 0f32 3dbe dab5 cabe
00000170: 3cb4 683e 23fa 1cbe 7123 78be ddd3 25be
00000180: 055b 85ba d80e 063f e6b4 13be 3ab0 0e3f
00000190: f902 303e 1bc0 9d3e 4748 86bd db89 73be
000001a0: 36a3 64be c6c8 a23b 9111 6c3c ccbd a8be
000001b0: 5bd2 c63e 5a14 123f 65be ffbe 4cbc 75be
000001c0: 9ee4 7fbf ba50 e9be 3814 8bbd 1ccc f93d
000001d0: a8ba 02be 5ea5 86bf f885 98be 05d8 dbbe
000001e0: e30c d73e 8a8a 913e 536d 133e c941 9bbd
000001f0: 4662 b9be 2850 ccbe d85b a2be c739 edbc
00000200: 9617 b63d 0239 cabe c2ad 0fbf 76a4 6dbe
00000210: bce7 15be b642 143e 8719 ee3d c9c3 b6bd
00000220: 81a8 80be 2e01 42bd 8155 5b3d 6fea 48bf
00000230: 8f7d a9be f6a2 c13e f887 91be 8d60 bf3e
00000240: 5107 e33d 9227 9dbc 717f c7be eda3 86be
00000250: 7310 02be 302d c03d 7663 a43e ebb5 543e
00000260: aeab 903d 3086 11bf 53ae db3e ba98 52be
00000270: a9e0 083f e141 153f 7469 113d 1f6c a03e
00000280: 5eb4 08be a7b1 9c3d 4e13 4cbe abc8 0e3f
00000290: 3f50 b13c 2306 b7be aa21 2b3f 5342 d03e
000002a0: fbf4 56be e088 163e d3ea 5abc 190e a13e
000002b0: 9d43 d93d 0d25 413e cc3c 9fbd d6a3 1ebf
000002c0: fb37 1fbd ed8f 97be 9104 e83c d44c a43e
000002d0: ca03 0dbf 5a0f d7be 4fa4 96be 543a 76be
000002e0: 0447 8e3e 313d b1be dfd5 d53d 7e69 e83e
000002f0: 9b93 1bbe 8d23 d0bd 6d62 883e 6349 3abf
00000300: e88a 7ebe 6eb9 56bf 659b 31bd 2403 393f
00000310: ae86 ac3e c2a5 64be 0fa5 b23e 9162 d3be
00000320: fdf5 62be 6e9b b43e b9b0 153d 42af 223d
00000330: 2916 73bf d87b c83e 51d0 1abf d247 01bf
00000340: 65bb af3c a5b1 153e 20d2 5f3d c413 16be
00000350: 8ee2 45be edea 2a3e 51b7 053e c1a6 16bf
00000360: fe66 863d dcaf c13e 5ce7 1ebf 2fbb 9dbd
00000370: 1a30 223e d653 c53e 408c 30bf 3944 2ebe
00000380: 3a13 0e3e f7f8 cdbd 9d0c d9be 03d6 ec3d
00000390: 8aa3 cb3e b366 2e3e 9839 8a3e 462d 413e
000003a0: 65bc 7dbe b8df 40be 4fd0 49be 2f9b 18be
000003b0: 1935 07bf 6196 aabe 9e1b a3be 899e b03b
000003c0: 1691 223d e3b8 303e 2041 023f c2ed cebe
000003d0: 4894 eabe c692 46bf 9661 dd3e 943a 68bc
000003e0: 3c25 05be 69e0 e43d e4ea d5be cb0f 713d
000003f0: 5d08 b8be 9ffc 49be e53c dd3d 0bfa 5a3e

actor.2.bias f4 [128]
0.031006822 -0.009145719 0.010840865 -0.15277492 -0.08322255 0.015769629 0.033443023 0.053836018
-0.103847265 0.054209914 -0.024505084 -0.110662185 -0.04058006 0.06183487 -0.15033457 -0.1124177
0.06671363 -0.061228175 -0.06378663 -0.03507186 -0.17340219 -0.15488173 0.06708191 -0.133598
0.008154405 0.0034289183 -0.18753971 -0.10449054 -0.0061000013 -0.041730978 -0.096036084 0.06858775
-0.20675318 0.1935478 -0.03518226 0.019635906 -0.095370814 -0.032742698 -0.051850855 -0.016046377
0.043975636 -0.08829079 -0.019088756 0.04913354 -0.040790282 0.010581903 0.04121887 -0.13423282
-0.045373816 -0.15307648 0.032365214 -0.031881627 0.026689153 -0.16816656 -0.05471408 -0.122766785
-0.06392149 -0.045833565 0.16263103 -0.076766655 -0.06635961 -0.047844835 -0.045980036 -0.024452375
0.22684415 0.0910683 -0.031605247 -0.16237222 -0.081313275 -0.13671286 -0.25519973 -0.1543197
-0.20050158 -0.14549479 -0.05663892 0.070332125 -0.15661351 -0.07465565 0.23240091 0.094331525
-0.06315239 0.049174115 0.060433093 -0.036896475 0.008269479 -0.018710256 -0.0129533 0.0021236166
0.23136868 -0.07305275 -0.10675722 -0.021253403 0.040419072 -0.020360941 -0.05148235 -0.020065157
-0.13855447 0.025089033 -0.061424058 0.0066110427 0.1049375 -0.059302792 -0.104614794 -0.1002135
0.0006967895 0.0463478 -0.10519275 0.18350746 -0.12390758 -0.17699282 -0.113682926 0.011172531
0.038836077 0.025047494 -0.10303675 0.07265357 0.024814883 0.05527779 0.074901566 -0.25456777
0.09960372 0.0022908808 0.00028139414 0.06975071 0.096124604 -0.1052877 -0.031302214 -0.04732914
00000000: 0502 fe3c edd7 15bc e29d 313c 0771 1cbe
00000010: 9670 aabd 4f2f 813c 8dfb 083d 2883 5c3d
00000020: e0ad d4bd 370b 5e3d e3be c8bc dba2 e2bd
00000030: 4737 26bd 9046 7d3d 4ef1 19be 403b e6bd
00000040: 28a1 883d 65ca 7abd 91a2 82bd 83a7 0fbd
00000050: 5890 31be 5199 1ebe 3e62 893d eacd 08be
00000060: 0e9a 053c b4b7 603b 690a 40be 23ff d5bd
00000070: 85e2 c7bb 1aee 2abd 91ae c4bd bc77 8c3d
00000080: 1bb7 53be 6531 463e 461b 10bd 7bdb a03c
00000090: c651 c3bd 351d 06bd 9061 54bd b173 83bc
000000a0: cc1f 343d cdd1 b4bd 0660 9cbc 4040 493d
000000b0: b613 27bd b85f 2d3c 1ed5 283d 5474 09be
000000c0: e5d9 39bd 15c0 1cbe 6391 043d 4f96 02bd
000000d0: 36a3 da3c db33 2cbe df1b 60bd 276d fbbd
000000e0: 45e9 82bd fabb 3bbd c088 263e d637 9dbd
000000f0: 8ce7 87bd f2f8 43bd 9055 3cbd 5950 c8bc
00000100: d549 683e 0482 ba3d 8174 01bd e744 26be
00000110: 9387 a6bd 75fe 0bbe 8aa9 82be fc05 1ebe
00000120: 4950 4dbe 96fc 14be 36fe 67bd 4a0a 903d
00000130: 4b5f 20be 10e5 98bd 81fa 6d3e e330 c13d
00000140: 0a56 81bd cc6a 493d b188 773d c220 17bd
00000150: b57c 073c 4046 99bc 143a 54bc 602c 0b3b
00000160: e9eb 6c3e ae9c 95bd 88a3 dabd 9e1b aebc
00000170: 788e 253d fdcb a6bc 28df 52bd af5f a4bc
00000180: 39e1 0dbe 8487 cd3c cb97 7bbd 72a1 d83b
00000190: 79e9 d63d 7ce7 72bd 4840 d6bd bc3c cdbd
000001a0: c0a8 363a 31d7 3d3d 4c6f d7bd 61e9 3b3e
000001b0: 42c3 fdbd 9b3d 35be 98d2 e8bd fe0c 373c
000001c0: 9412 1f3d 6730 cd3c ee04 d3bd 65cb 943d
000001d0: 9548 cb3c f76a 623d fe65 993d b556 82be
000001e0: 09fd cb3d 9a22 163b 1588 9339 76d9 8e3d
000001f0: fadc c43d 14a1 d7bd c036 00bd 33dc 41bd

actor.4.weight f4 [40, 128]
0.66102767 -0.19510439 0.15647413 -0.03600134 0.06302329 0.04854812 -0.41787738 0.008747162
1.0358031 -0.13797793 -0.25284657 0.18097019 -0.27862522 0.35524818 0.89731205 -0.3188188
-0.073453754 0.674153 -0.7233811 -0.0047968193 0.18957475 -0.33062315 -0.2993145 -0.15735087
-0.3258154 0.34963426 0.87338483 0.39643332 -0.54227406 -0.13715711 -0.15508993 0.63882816
0.31180692 -0.11581405 0.16402918 -0.18319525 -0.18407513 -0.50308454 0.58904225 -0.20449945
-0.14004003 0.6192896 0.18044254 -0.17436866 0.54260004 0.31699282 -0.16158621 -0.16882886
-0.16915984 -0.10067333 0.0073031033 -0.36011475 -0.08116519 -0.27495167 -0.30661914 -0.15417784
-0.14416796 -0.338965 -0.6745433 0.63876754 -0.48055616 0.7217463 -0.75797117 0.657176
-0.28306627 -0.22527306 -0.16412799 0.11710009 -0.3072344 0.24293935 -0.1234024 -0.6046747
1.0232221 0.51399714 -0.3055959 -0.5661397 0.24168909 -0.32611373 -0.5839594 -0.46170664
0.20460252 -0.13258946 -0.3443938 -0.5407982 -0.0017843307 -0.05779503 -0.15782177 -0.36977637
0.07602382 -0.34276107 0.071983725 -0.34087455 0.45726222 -0.69687116 -0.5292706 -0.24918753
0.8457469 0.48064438 -0.5190027 -0.30211845 -0.8374306 -0.4006924 -0.60818875 -0.43200025
0.10372338 0.342631 -0.45239228 -0.22355808 -0.5293628 0.3061567 0.74640256 0.75032896
-0.25588113 -0.22209802 -0.89845586 0.08726086 -0.9536096 -0.16441526 -0.11113339 0.54153836
-0.17229052 0.18857436 -0.32536528 -0.21543823 0.35108382 -0.7030865 -0.45960838 -0.019714488
-0.33989662 0.13004456 0.35438633 -0.23909566 0.1307067 0.18978992 -0.24280354 0.31621101
-0.38342115 0.5782419 0.13961774 0.5414501 0.019660192 -0.4840955 -0.1856906 0.11773077
0.123771 -0.14961107 0.23832768 -0.4622938 0.18898775 0.21879224 0.1836163 0.43649986
0.047159657 -0.18674135 0.059067424 0.18968348 0.5373909 -0.11661207 -0.26333556 0.04784339
-0.31982416 0.07467954 0.28073138 -0.3080001 0.15709664 -0.09830152 0.2801575 0.2213329
-0.27666998 0.084620744 0.18948619 -0.054170087 -0.17082573 -0.0115373535 0.09766358 0.0039647985
0.07459514 -0.1705512 -0.012059408 -0.18354881 -0.5630218 -0.08305408 0.2967402 0.1296
0.29191878 0.026430419 -0.19253533 -0.106067285 -0.04658897 0.46184453 0.058836713 0.21530864
0.21883605 -0.05239696 0.17271188 -0.021375317 0.124118194 0.0060751126 0.03275841 -0.10786331
0.5273888 -0.56194043 0.020441622 -0.0744499 0.19382486 0.031159446 -0.22026469 -0.38054988
0.02828956 -0.2745024 -0.13332614 -0.5072925 -0.11751974 -0.5659706 0.45616075 -0.020281252
0.10502389 0.33823332 -0.03410344 -0.25807285 0.280913 0.59955704 -0.0111753745 0.08436436
0.5717486 0.14710994 0.2750937 0.20249559 0.619337 0.27423 -0.15759018 0.21742117
-0.46116424 -0.083958186 0.06517579 0.25049827 0.027770838 -0.5330294 -0.54400283 -0.115163594
-0.13722898 -0.17465712 0.026481057 -0.1880219 0.107716575 -0.18839346 0.15306862 -0.47520548
-0.35883996 -0.08545816 0.020167736 -0.752931 0.07016751 0.063472874 -0.09886279 0.080596186
00000000: 1c39 293f 72c9 47be c13a 203e 2476 13bd
00000010: 5b12 813d 65da 463d 06f4 d5be 4250 0f3c
00000020: 3295 843f 164a 0dbe 1b75 81be 4050 393e
00000030: f7a7 8ebe 17e3 b53e 3eb6 653f 383c a3be
00000040: ec6e 96bd 4a95 2c3f 812f 39bf a32e 9dbb
00000050: e21f 423e 7047 a9be c03f 99be 9620 21be
00000060: 47d1 a6be 4303 b33e 2696 5f3f 4ff9 ca3e
00000070: 79d2 0abf ea72 0cbe e5cf 1ebe 3e8a 233f
00000080: 28a5 9f3e eb2f edbd 44f7 273e 8997 3bbe
00000090: 317e 3cbe 26ca 00bf 79cb 163f 4e68 51be
000000a0: a766 0fbe c389 1e3f eec5 383e b38d 32be
000000b0: d6e7 0a3f e24c a23e db76 25be 79e1 2cbe
000000c0: 3d38 2dbe d22d cebd df4e ef3b f660 b8be
000000d0: ef39 a6bd 77c6 8cbe 2ffd 9cbe cce0 1dbe
000000e0: c4a0 13be d28c adbe dfae 2cbf 4586 233f
000000f0: 750b f6be 5ec4 383f 660a 42bf b03c 283f
00000100: 10ee 90be fbad 66be 2b11 28be 2cd2 ef3d
00000110: d44d 9dbe 18c5 783e 66ba fcbd f6cb 1abf
00000120: f1f8 823f 5195 033f 1177 9cbe 88ee 10bf
00000130: 587d 773e 61f8 a6be 5d7e 15bf d064 ecbe
00000140: 5383 513e 88c5 07be 6254 b0be c071 0abf
00000150: 34e0 e9ba 7bba 6cbd 089c 21be 5453 bdbe
00000160: 60b2 9b3d 617e afbe 346c 933d 1c87 aebe
00000170: 461e ea3e 2666 32bf 477e 07bf 042b 7fbe
00000180: de82 583f 0517 f63e 5cdd 04bf 45af 9abe
00000190: da61 56bf 8e27 cdbe 42b2 1bbf 232f ddbe
000001a0: ec6c d43d 556d af3e f69f e7be 69ec 64be
000001b0: 5284 07bf 92c0 9c3e 3d14 3f3f 8f15 403f
000001c0: da02 83be aa6d 63be 3401 66bf d2b5 b23d
000001d0: c21f 74bf 795c 28be e799 e3bd 42a2 0a3f
000001e0: ed6c 30be a319 413e 4796 a6be d79b 5cbe
000001f0: 42c1 b33e 7afd 33bf ca51 ebbe 4780 a1bc
00000200: ee06 aebe 672a 053e 2072 b53e 7ed5 74be
00000210: fad7 053e 4a58 423e 7ea1 78be 69e6 a13e
00000220: c74f c4be a907 143f f4f7 0e3e 799c 0a3f
00000230: 690e a13c 5edb f7be ad25 3ebe d41c f13d
00000240: a67b fd3d a533 19be 2c0c 743e c6b1 ecbe
00000250: 0186 413e 130b 603e e905 3c3e e97c df3e
00000260: 7c2a 413d 2039 3fbe aff0 713d 633c 423e
00000270: 7392 093f 4fd2 eebd ebd3 86be 6ef7 433d
00000280: febf a3be 96f1 983d 06bc 8f3e 30b2 9dbe
00000290: f1dd 203e 4f52 c9bd ce70 8f3e 17a5 623e
000002a0: b0a7 8dbe a44d ad3d ab08 423e 74e1 5dbd
000002b0: f1ec 2ebe 2b07 3dbc d803 c83d 24eb 813b
000002c0: 56c5 983d f9a4 2ebe d394 45bc 38f4 3bbe
000002d0: 3222 10bf 4218 aabd 55ee 973e ddb5 043e
000002e0: 6176 953e 9b84 d83c fb27 45be ce39 d9bd
000002f0: 13d4 3ebd e376 ec3e c4fe 703d de79 5c3e
00000300: 8f16 603e 329e 56bd 62db 303e 4a1b afbc
00000310: ae31 fe3d bd11 c73b af2d 063d 70e7 dcbd
00000320: f402 073f 54db 0fbf 3075 a73c 3079 98bd
00000330: 067a 463e 1842 ff3c 118d 61be 6fd7 c2be
00000340: 82bf e73c 948b 8cbe a686 08be ecdd 01bf
00000350: 30ae f0bd 73e3 10bf e78d e93e de24 a6bc
00000360: c416 d73d eb2c ad3e 0cb0 0bbd 2022 84be
00000370: d4d3 8f3e 927c 193f eb18 37bc 39c7 ac3d
00000380: 1e5e 123f fda3 163e 15d9 8c3e 015b 4f3e
00000390: df8c 1e3f e067 8c3e 525f 21be a8a3 5e3e
000003a0: b81d ecbe 45f2 abbd e27a 853d 4f41 803e
000003b0: ab7f e33c 9d74 08bf c543 0bbf e4da ebbd
000003c0: c185 0cbe 51d9 32be cdee d83c d088 40be
000003d0: 829a dc3d 37ea 40be 05be 1c3e 224e f3be
000003e0: dfb9 b7be b004 afbd cf36 a53c 16c0 40bf
000003f0: fcb3 8f3d 11fe 813d 9378 cabd 9d0f a53d

actor.4.bias f4 [40]
-0.3431344 -0.1372581 -0.03343004 0.0005122137 -0.032818392 0.034005783 -0.1389243 0.22871774
0.17872232 0.28350416 -0.0787575 -0.1059351 0.034326684 -0.08818308 0.013242347 -0.03583768
0.016945524 0.2853858 0.2041717 0.29522607 -0.11219018 -0.13719776 0.030021759 -0.15179478
-0.2284507 -0.13060899 -0.1092111 0.16500859 0.34599805 0.03592484 -0.136082 0.03947786
0.06525027 -0.16902858 -0.28922597 -0.124968894 -0.27530292 0.21851368 0.11993853 0.1710579
00000000: 50af afbe 638d 0cbe f0ed 08bd 1446 063a
00000010: 946c 06bd a649 0b3d 2c42 0ebe fc34 6a3e
00000020: fc02 373e 7527 913e 9d4b a1bd 80f4 d8bd
00000030: 239a 0c3d 5599 b4bd 6ef6 583c 88ca 12bd
00000040: 57d1 8a3c 161e 923e 6312 513e df27 973e
00000050: f7c3 e5bd 927d 0cbe 31f0 f53c 1770 1bbe
00000060: fbee 69be 5dbe 05be 12aa dfbd 03f8 283e
00000070: a826 b13e ed25 133d 1459 0bbe 89b3 213d
00000080: efa1 853d d415 2dbe 6d15 94be b1ef ffbd
00000090: 81f4 8cbe 0dc2 5f3e 55a2 f53d cd29 2f3e
