pretrained_models/agent.onnx (onnx, 474612 bytes, 6 tensors)

actor.0.weight f4 [256, 162]
000000 08 a8 8c bd 4d d8 0a 3e 76 58 ca be 52 1a f9 bb
       -0.06867987 0.13559075 -0.39520615 -0.0076020146
000010 e2 4f a1 be 22 66 10 3f 7e 47 84 be 21 be da be
       -0.31506258 0.5640584 -0.25835794 -0.42723182
000020 0d 8f c8 bd 8b 6b 31 bf a5 55 23 be d2 51 82 be
       -0.0979291 -0.6930472 -0.1595064 -0.2545305
000030 2a ba db bd 7e 45 c3 be f0 0b b8 be 42 78 2d 3b
       -0.10728867 -0.38138956 -0.35946608 0.0026469384
000040 6b e0 a0 3b 2d f8 15 bf 71 a9 ee 3d fe 5c 35 be
       0.004909565 -0.5858181 0.11653412 -0.17711255
000050 ec ac 9a be e0 4f 03 bf c5 49 03 bc ba 99 16 3e
       -0.30210054 -0.51293755 -0.0080131935 0.1470708
000060 4a 6d bb be 62 8b 81 be 1f 49 19 bf f1 56 82 be
       -0.36606818 -0.25301653 -0.598772 -0.25456956
000070 81 ce 66 be 57 4a 25 bf 9f 9e 15 3f 6e 4c 42 3d
       -0.22539712 -0.6456656 0.5844516 0.04743617
000080 31 24 00 bf 37 40 05 bf be 7b ba be c4 49 2d bf
       -0.50055224 -0.5205111 -0.36422533 -0.6769068
000090 b8 c7 0d 3e e6 38 b1 bd 7e 8c 64 be 65 41 30 3d
       0.13845718 -0.08653431 -0.22319219 0.043031115
0000a0 6f 35 52 bf af 23 41 bf 14 77 2d bf ab a8 34 bf
       -0.82112783 -0.75445074 -0.67759824 -0.70569867
0000b0 7b 08 0a bf 6d 1c 31 be 01 9a 1e bf ac 4a 18 bf
       -0.5391919 -0.17296 -0.6195374 -0.5948894
0000c0 a1 d5 77 be d7 bf c0 be 3c 5e c5 3e 76 62 94 be
       -0.24202587 -0.37646362 0.38548458 -0.2898137
0000d0 81 de e7 be 73 d4 31 be 80 c8 ce 3d 98 2d 8f 3c
       -0.45286945 -0.17366199 0.10096836 0.017477795
0000e0 1d a5 8a be d3 84 a4 bd 3e e6 ea be 90 8b fb be
       -0.27079096 -0.08033147 -0.45878786 -0.49129915
0000f0 3e 72 19 3f f8 fa 62 3f 6f 61 38 be 0d 40 dc 3e
       0.59939945 0.886642 -0.18005918 0.43017617
000100 c1 39 a9 3f 4a 70 7f 3e c8 70 48 3f c9 58 4f 3f
       1.322075 0.24945179 0.7829709 0.8099485
000110 37 47 a6 bc ae c0 b6 3e 73 2a b1 be 67 46 af 3e
       -0.02029763 0.35693878 -0.346027 0.342334
000120 3c 80 56 bc 4b 81 f8 be 02 9e 82 3d a5 b6 17 be
       -0.013092097 -0.48536143 0.06377794 -0.14815767
000130 7c 49 32 3e e8 64 e1 bd fc c4 bb 3d f6 c1 aa be
       0.17410845 -0.110055745 0.09168431 -0.33351105
000140 98 3d 4a 3f 26 dd 17 bf 33 d1 5e be 21 86 63 be
       0.79000235 -0.5932182 -0.2175949 -0.22219135
000150 14 14 88 bf 85 bc 05 bf f3 6a 2e be d5 d3 9a be
       -1.0631127 -0.5224078 -0.17032985 -0.3023974
000160 cb 4d 02 3f 7a 26 40 3e a0 03 4c 3f 1d c1 e0 3d
       0.5089995 0.18764678 0.7969303 0.109743334
000170 59 ed d4 3d af 5f e3 3e 5a e0 11 bf c1 a7 28 be
       0.10396833 0.44408938 -0.5698296 -0.16470243
000180 f8 1b f0 be d9 f2 9f 3e 27 ae ef 3e 19 2b a7 3e
       -0.46896338 0.31239966 0.46812555 0.32650068
000190 67 2c 09 bf d6 64 a8 bd 3d 35 68 be 29 0e 39 bf
       -0.5358338 -0.08222358 -0.22676559 -0.7228723
0001a0 11 2c dd be 93 3a 5f be 29 53 85 be 2d ca 53 bd
       -0.43197682 -0.21799688 -0.2604001 -0.05170648
0001b0 09 39 b7 be f0 0b 32 be dc 9a 9a 3d d4 0c 46 be
       -0.35785702 -0.17387366 0.07549068 -0.19340831
0001c0 a3 dd 7e 3f 28 b5 0b bf db 56 e9 3d 37 37 00 bf
       0.9955694 -0.545733 0.113935195 -0.5008425
0001d0 f3 34 be 3e 5f e9 b2 be ff 86 44 bd 98 8a 01 3f
       0.37149772 -0.34943673 -0.047980305 0.506021
0001e0 53 14 c1 bb 25 4c 5e bd 3e 37 68 bf c6 1b 87 3e
       -0.0058923154 -0.054271836 -0.9070929 0.26388377
0001f0 69 25 3b 3b 04 8c 86 3e 58 e7 cd 3e d4 53 3e bf
       0.0028556234 0.26278698 0.40215564 -0.7434666
000200 b9 0c b4 3e 93 c4 0e 3e 7d 44 c0 be 73 ce a6 3e
       0.35165957 0.13942175 -0.37552252 0.32579383
000210 a5 c3 f5 be 8e 0c a0 be 8d 58 28 bd cd 18 1e be
       -0.48000827 -0.31259578 -0.041100074 -0.15439148
000220 4c 2e d6 3e 44 04 09 bf 8a 6d 3c be 40 e7 ec be
       0.41832197 -0.53522134 -0.18401161 -0.4627018
000230 01 df bd bd b4 90 2a 3e b7 7c 8c be 95 ef d1 3e
       -0.0927105 0.16656762 -0.274389 0.410031
000240 a5 08 d1 3e dd 17 05 3f cb b7 e5 bd 8b ee 41 be
       0.40826908 0.5198954 -0.11216696 -0.18938653
000250 dd a9 da be d2 10 5c be ef f7 14 bf 33 4c 82 3d
       -0.4270772 -0.21490791 -0.58190817 0.0636219
000260 b5 1d af be ea b4 99 be d3 20 11 3f c2 f0 e4 be
       -0.34202352 -0.3002084 0.5669071 -0.44714934
000270 a2 3f dc 3b f2 e8 84 3e 8f b4 88 be ea 43 b0 3e
       0.006721453 0.25958973 -0.26700255 0.34426814
000280 e7 f2 14 bc 0b f9 bd be 3b 87 59 3e 96 d3 9f bd
       -0.009091116 -0.37104067 0.21242993 -0.07804029
000290 4b 4c 0d 3e e7 06 28 3e dc d2 0f 3e e6 50 1a be
       0.13798635 0.16408883 0.1404528 -0.15069923
0002a0 28 77 03 be da 3e c3 3d 4d 4d 99 bd c8 06 1a 3e
       -0.12838423 0.09533472 -0.07485447 0.1504165
0002b0 fe 04 74 bd 7c a3 d9 3c 48 d7 28 3a d0 09 1c be
       -0.059575073 0.026567213 0.0006440771 -0.15238118
0002c0 33 ff c3 bd 29 7c 84 bc 58 22 5e be 8c 7e e8 bd
       -0.0957016 -0.016172485 -0.21692789 -0.11352262
0002d0 c5 a4 6d bd 79 8f 5f 3e 7d 08 cb 3d 57 29 01 3e
       -0.058018465 0.21832074 0.099137284 0.12613426
0002e0 ac 02 23 be 1a 15 82 3e 63 88 fe 3d 36 a5 86 3d
       -0.15918988 0.25406724 0.124283575 0.0657448
0002f0 a6 1f ee bc 4f ff 03 bd 9e e8 07 3c 3c 54 4d bd
       -0.029067826 -0.032225903 0.008295206 -0.05012916
000300 70 f2 9c be 38 b5 37 3e be 86 fa bc 47 21 fe 3d
       -0.30653715 0.17940223 -0.030581828 0.12408691
000310 03 46 97 3d dd 7d 11 3e 7f 10 56 3e 01 11 e9 bd
       0.073864006 0.1420817 0.2090473 -0.11380196
000320 15 99 02 be 84 3b a3 bd 4b fe 03 3f d8 82 be 3e
       -0.12753709 -0.07970336 0.51559895 0.372092
000330 e6 a8 06 3f 68 75 e8 3e 6f 16 18 3e 08 60 f3 bd
       0.5260147 0.45402074 0.14852308 -0.11883551
000340 db bd df 3e 3e ae ec bd 74 96 06 bd dd 76 56 3e
       0.43699536 -0.115566716 -0.032858327 0.2094378
000350 84 81 91 3d 9e 5f f3 3e 36 51 08 3f 1f 53 b7 3e
       0.07104781 0.47533888 0.5324892 0.35805604
000360 ef d1 19 bd 40 d2 01 3f 46 11 34 3f 46 58 46 3e
       -0.037553724 0.5071144 0.7033886 0.19369611
000370 5a f5 99 bc 6f 3a fb 3d e6 87 9c bf 22 a1 50 bf
       -0.01879375 0.12267005 -1.2228973 -0.8149587
000380 91 78 27 bf 5e bb 8a bf 41 75 1c bf 3a 99 81 bf
       -0.65418345 -1.083843 -0.61116415 -1.0124886
000390 26 55 4e bf a8 e1 80 bf ff 7e 33 bf cd de 4e bf
       -0.80598676 -1.0068865 -0.70115656 -0.80808717
0003a0 9e be c9 bd 1f c5 07 bd 34 3d c9 3c 4c 16 0a 3f
       -0.098508105 -0.033146974 0.024565317 0.5394027
0003b0 04 11 03 3f 6d b9 c9 3e 9a eb 90 3e d9 6e 06 3d
       0.5119784 0.3939928 0.2830475 0.032820556
0003c0 a0 47 b5 3d 7e 68 27 bd 94 41 16 3f 32 14 28 3f
       0.08851552 -0.040871136 0.58693814 0.65655816
0003d0 53 e7 d2 3e 46 47 61 3f cb 90 34 3f 71 c0 2f 3f
       0.4119211 0.8799938 0.70533437 0.6865302
0003e0 36 17 91 3f 29 86 f7 3e bd 0b 6e 3f 63 b6 e7 3e
       1.1335208 0.48344544 0.9298666 0.45256338
0003f0 01 35 c9 3e 7f 74 22 40 da 23 90 3f 57 17 12 40
       0.3929825 2.5383604 1.1260941 2.2826746

actor.0.bias f4 [256]
000000 72 b9 c6 be a0 73 77 bd 52 04 da be 35 23 4b be
       -0.3881336 -0.060413003 -0.4258142 -0.19837649
000010 a8 81 a0 3c 04 b5 2e 3e 9a 67 4f 3e 6d e9 da 3d
       0.019593075 0.1706124 0.20254365 0.10689054
000020 44 28 0c 3d 40 48 a6 3d a9 60 3f bd 18 28 0e bd
       0.034218088 0.08119249 -0.04672304 -0.034706205
000030 a4 e6 10 be af e0 6c 3e 19 1b ef be 94 2f a2 3c
       -0.14150482 0.23132585 -0.4670036 0.019798078
000040 e3 8f ec ba ab c9 3f 3e ce a9 19 bf a5 69 94 be
       -0.0018048253 0.18729274 -0.60024726 -0.2898685
000050 86 60 72 be 52 93 d4 bd 86 99 58 be 47 36 1e be
       -0.23669633 -0.103796616 -0.21152315 -0.15450393
000060 30 e3 88 3e 90 7b e4 3d 56 26 0d 3e 3e c7 d2 bd
       0.2673583 0.1115638 0.13784155 -0.10291909
000070 f8 2e 5f 3e 08 2a 8c bd 2c a7 0a 3d 41 ad 05 be
       0.21795261 -0.06843954 0.033850834 -0.13054372
000080 91 b7 46 be 23 77 88 bc e1 b2 08 bf d2 d2 25 be
       -0.19405963 -0.016658371 -0.5339795 -0.16193703
000090 50 d0 25 be 3b 56 c0 be 7b 6e 3a 3d a3 b8 8a be
       -0.16192746 -0.3756579 0.04551552 -0.27093992
0000a0 7b 18 0e bf 5c 10 c4 bd 7c bf 6d bc b6 f5 69 bc
       -0.55506104 -0.09573433 -0.014510985 -0.014279773
0000b0 06 8c b8 3d 90 50 d2 be 8c a3 13 bf 41 4a b0 3d
       0.09011082 -0.4107709 -0.5767143 0.08607913
0000c0 2d f7 8c be da e6 35 bd 10 b2 d7 bd 0b f9 45 bc
       -0.2753233 -0.04440961 -0.105320096 -0.012083302
0000d0 99 ec 11 be e5 cf 9f bd a8 03 51 3d 0d 7d 2b 3e
       -0.14250411 -0.078033246 0.051028877 0.16746922
0000e0 1c f2 4b 3e 47 a0 24 3e e4 ca 53 be 3d c3 6c be
       0.19916576 0.16076766 -0.20682865 -0.23121352
0000f0 44 68 38 3e 52 92 a4 bd 0f 62 e5 3d 6e 74 8a be
       0.18008524 -0.08035721 0.11200344 -0.27041954
000100 65 f3 e5 3d cd 40 b3 3e 2b 25 85 be ba 2f 46 be
       0.112280644 0.35010377 -0.2600492 -0.19354144
000110 37 64 d5 3d ef 1e f2 be 07 28 31 3e 78 e1 89 be
       0.10419505 -0.47289225 0.17300425 -0.26929832
000120 64 5f 44 be d0 c5 57 be cf 88 36 bd 61 9d 00 be
       -0.19177014 -0.21071553 -0.044564065 -0.12560035
000130 91 9f 97 3d 51 19 1d 3d d5 bb d2 3b 65 ae 9d ba
       0.07403482 0.03835422 0.0064310827 -0.0012030123
000140 f4 fe 0d bd 89 24 86 3d ec c8 bf be 73 67 24 bf
       -0.03466697 0.06549937 -0.3745798 -0.6422035
000150 9e 9a 56 bd 23 75 9e be 05 61 b3 be 66 7d 0f bf
       -0.05239355 -0.30948743 -0.35034958 -0.5605072
000160 0b e2 b3 be 8a 93 ce bd 08 46 12 bf bd d7 06 3e
       -0.35133395 -0.100867346 -0.5713811 0.13168235
000170 e5 9a 25 bf 02 f9 bc bd 16 3d d3 bd da f9 86 be
       -0.64689475 -0.09227182 -0.103143856 -0.26362497
000180 70 aa 94 be 7a ac 72 3e a5 41 ca be f6 c8 43 3e
       -0.29036283 0.23698607 -0.39503208 0.1911963
000190 87 df 54 bd 20 22 0f 3e b9 8f a4 be cb 54 e2 be
       -0.051970985 0.13977861 -0.32140902 -0.44205317
0001a0 bf 47 c4 3d 87 b4 ca bd e4 fe b4 be b2 bf f0 be
       0.09583997 -0.09897714 -0.35350716 -0.47021252
0001b0 26 52 47 bd fc bc 83 be d7 52 04 bf 91 9f 42 be
       -0.048662327 -0.2573012 -0.51688904 -0.19006182
0001c0 ca e3 68 3d cc a6 89 be ef be 00 bf 13 d9 6f bd
       0.05685786 -0.26885068 -0.5029134 -0.058556627
0001d0 34 3a 45 bf 3a 8c 84 be 5c fd 81 bd 3f af 43 be
       -0.77041936 -0.25888234 -0.063471526 -0.1910982
0001e0 7f 73 c6 be d9 a0 0e bf 87 66 d0 be 0d 94 86 3d
       -0.38759992 -0.55714184 -0.40703222 0.06571207
0001f0 45 1d 67 bd c3 a4 82 be e5 a9 13 bf cf 6f 8b 3e
       -0.056424398 -0.25516328 -0.57681113 0.2723374
000200 3f 68 aa bd b3 fa 73 be bd df 2b 3e 38 6d cd bd
       -0.083206646 -0.23826103 0.16784568 -0.100305974
000210 b4 ac af be 4a 99 7a 3e 7a 68 1e 3d e1 54 77 3d
       -0.3431145 0.24472538 0.038673855 0.06038368
000220 b0 76 43 be 25 f6 4c be ca a5 af bd f1 46 cd 3e
       -0.19088244 -0.20015772 -0.08576544 0.40093186
000230 13 b3 22 bf 6d 1a 6a be 55 97 84 be c0 f0 ca 3d
       -0.63554496 -0.22861643 -0.25896707 0.09909201
000240 12 94 16 be f2 3d 99 bd 99 6c 68 be 1b 8d 61 be
       -0.14704922 -0.07482518 -0.22697677 -0.22026484
000250 db f6 91 bd 30 de e1 be e3 f4 3c bf 60 de 69 bd
       -0.07127162 -0.44114828 -0.7381117 -0.05709684
000260 24 4d c1 be 9a 72 9d be 69 f1 06 3e 6c 9b c7 3c
       -0.37754166 -0.30751497 0.13178028 0.024366103
000270 7f 43 f9 3d c2 4f 85 3e 84 14 8e be 0b a9 31 be
       0.12171077 0.26037413 -0.27750027 -0.17349641
000280 c2 44 d2 3d ae 7d d7 bc b6 f0 85 be 97 0e a6 bc
       0.10267021 -0.026305046 -0.2616021 -0.020270629
000290 f1 75 38 be 95 cd ab bd af fe 57 bd 80 a9 b4 bd
       -0.18013741 -0.08388821 -0.05273312 -0.08821392
0002a0 f0 e4 5d be 86 e6 ac 3c e0 f6 0e 3d 19 4c ef bd
       -0.21669364 0.021106016 0.034903407 -0.11684436
0002b0 c8 4b 74 be 32 d0 39 3b 6f d3 5a be 57 62 3f 3e
       -0.23857033 0.0028352854 -0.21369718 0.18689857
0002c0 90 18 24 be 95 0d 5f be 8e ab 2e bf f5 86 41 be
       -0.16024995 -0.21782525 -0.6823052 -0.18899138
0002d0 e1 25 72 3e ff 6d dd 3c 40 a9 05 bf 01 ec 34 be
       0.23647262 0.02702999 -0.5221138 -0.17668153
0002e0 8c f3 8b be 79 97 b2 bd b8 cb 15 bf 81 43 41 bd
       -0.2733425 -0.08720297 -0.58513975 -0.047183517
0002f0 4b b0 77 3e 25 22 33 3e f2 7f 85 be 94 65 90 be
       0.24188344 0.17493494 -0.26074177 -0.28202498
000300 51 13 e4 be fa b2 c0 be cb 32 c6 be 30 09 b6 bd
       -0.44545987 -0.37636548 -0.38710627 -0.08888471
000310 eb 2d bf be 92 e6 47 be ff 47 4d 3d eb 3c 04 be
       -0.3733972 -0.1952155 0.05011749 -0.12913863
000320 eb c4 26 bd d4 b3 fc bc a2 3c 6c 3e 34 57 64 be
       -0.04071514 -0.030847467 0.23070005 -0.2229889
000330 29 02 55 3e 14 c6 f2 be e5 4f f4 be 73 7f 16 bd
       0.20801605 -0.47416747 -0.47717205 -0.03674264
000340 8d f8 45 be 79 2c bc bc 20 b8 41 be 10 87 c8 bd
       -0.19333096 -0.022970425 -0.18917894 -0.09791386
000350 91 03 b2 bd 27 d6 fe 3d b3 55 e2 be 89 8a 54 be
       -0.086920865 0.1244319 -0.44206008 -0.20755972
000360 30 4c d6 3d 30 cd 06 bf 89 27 39 bd 0e 03 6c 3e
       0.1046375 -0.5265684 -0.04520372 0.2304804
000370 47 45 44 be c4 51 0e 3e 16 a6 bc be 3d 8c 14 bf
       -0.19167052 0.13898379 -0.36845464 -0.58026487
000380 99 87 41 be 23 7f f3 bd 43 de 06 3d c5 98 81 be
       -0.18899383 -0.11889484 0.03292681 -0.25311866
000390 80 b6 6b bd 1e 5b 22 bd 7e d0 d7 be a9 37 97 3d
       -0.057547092 -0.039637677 -0.42151254 0.07383663
0003a0 11 0e 4b 3d 8a b3 8a 3e e5 ac cb be af 56 9f bd
       0.04957396 0.27090102 -0.39780346 -0.077802055
0003b0 97 34 03 bf f2 da d6 bd b4 63 0f 3e c2 ef c8 be
       -0.5125212 -0.10490979 0.14002877 -0.3924542
0003c0 08 3c b7 3e 4b 61 bf be 48 43 6a be 7c 6b 56 3d
       0.35787988 -0.37378916 -0.22877228 0.0523486
0003d0 b1 d2 91 be ca 52 ed be 81 51 9f be 7a 8b 90 3e
       -0.28481057 -0.46352226 -0.3111687 0.28231412
0003e0 2e 75 6e be 83 be 8f be ca f9 ae 3d 82 da f9 3c
       -0.23286888 -0.28075036 0.08543737 0.0304997
0003f0 da 44 8d 3e 42 57 52 3e ca 38 54 be cf c4 8c bc
       0.27591592 0.20541099 -0.20724788 -0.01718369

actor.2.weight f4 [256, 256]
000000 91 e4 6b be 9f 22 be be 44 5e b3 bd 45 b0 8e 3e
       -0.2303641 -0.3713579 -0.08758214 0.27868858
000010 d2 46 93 bc 88 c5 4a bf 8d a1 b3 be 4c da f4 be
       -0.017978106 -0.7920766 -0.3508419 -0.47822797
000020 37 c2 68 3d e5 fe 8d 3d 9c cd 75 be 40 a1 82 be
       0.056825843 0.06933383 -0.24004215 -0.2551365
000030 f4 a0 3d 3e 09 f1 c3 be cf 51 47 3e 15 7d cd 3b
       0.1851843 -0.38269833 0.19464801 0.0062710145
000040 65 7e 7c be d2 52 40 bf 23 48 18 3e 3e 01 2f 3e
       -0.2465759 -0.75126374 0.14871268 0.17090318
000050 d5 2f 1c 3f 63 22 09 3e 04 69 3f 3e 13 00 0b bf
       0.61010486 0.13392024 0.18692404 -0.5429699
000060 b0 d8 98 3d 6d 03 c5 3d 27 3c ce bd e0 3a 6d be
       0.07463205 0.09619794 -0.10070067 -0.2316699
000070 d8 c9 7e bd 40 53 e3 3d dd 31 55 be cf 11 28 be
       -0.062204212 0.11099863 -0.20819803 -0.16413043
000080 9b d0 13 be 38 a4 47 be e9 1e c2 3e 4e 4c 20 3e
       -0.14435045 -0.19496238 0.37914208 0.15654108
000090 a2 cc 2b 3f 51 fb aa 3e 05 d8 69 bb e6 68 35 3f
       0.6710912 0.33394864 -0.0035681736 0.7086319
0000a0 5a b8 df 3e d2 06 66 be 9b aa ef bd 01 07 00 3d
       0.43695337 -0.22463539 -0.11702462 0.03125668
0000b0 61 e7 b0 be f5 24 cc 3d 6a f5 2a be 99 87 d0 be
       -0.34551528 0.099679865 -0.1669518 -0.40728453
0000c0 05 e2 fa 3e 7e e0 4e be 69 1c 84 3d 9e 1f 14 3e
       0.49000564 -0.20202824 0.06450731 0.14465186
0000d0 40 38 a0 3c 12 86 39 3e 09 6e c3 be 99 c3 b0 be
       0.019558072 0.1811755 -0.38169888 -0.3452423
0000e0 9a 63 a7 be 72 fc d1 be 32 8b 03 3e 44 72 bc 3e
       -0.32693177 -0.41012913 0.12846068 0.36805928
0000f0 87 c6 0a bf 1f ca f9 3d c4 0c a7 be b4 38 be be
       -0.5420918 0.12196755 -0.32626927 -0.37152636
000100 fa 69 79 3e f9 2f 41 bf e5 2a e6 3d b2 1e 39 3e
       0.24356833 -0.75463825 0.1123865 0.18078116
000110 54 53 bd be 40 05 c3 3e e4 da a5 be 81 7d 9a 3e
       -0.36977637 0.38089943 -0.32393563 0.30173877
000120 f2 35 e5 bc db 73 a6 3e 61 02 4a bd 7d 77 d6 be
       -0.027979825 0.32510266 -0.049318675 -0.41888037
000130 92 11 02 bf 2a 69 07 bf 1f b2 0a bf 2a 33 2d 3e
       -0.5080806 -0.5289484 -0.5417804 0.16914049
000140 c5 ba 17 bf 29 da 35 bd 97 60 4b 3e 02 cf fc 3d
       -0.5926936 -0.044397507 0.19861065 0.12344171
000150 70 84 75 be 6d 71 41 bd b1 7c 10 3d 91 39 45 3d
       -0.23976302 -0.047227312 0.035275165 0.048150603
000160 66 cd 26 3f c2 fa 23 be bf be d6 3c e6 a9 41 be
       0.65157163 -0.16013625 0.026214002 -0.18912467
000170 3f e7 8a be 80 02 1c be 57 1d 17 3f 46 dd 59 bd
       -0.27129552 -0.15235329 0.59029144 -0.05318954
000180 c8 c8 f0 3e 0c 59 cd 3d cf ba 61 3e b6 f4 b3 3e
       0.47028184 0.1002675 0.22043918 0.35147637
000190 41 46 0d 3d e9 09 22 bc 52 c3 0d bf a5 8e 76 be
       0.034490827 -0.009890058 -0.5537616 -0.24077852
0001a0 0f 2d 7e bd e9 df 75 3d 89 59 48 3f 17 9e e4 bd
       -0.06205469 0.06002799 0.7826162 -0.11162966
0001b0 b1 9f f2 3d 53 b0 a1 3e b9 0f 94 3e d5 07 a9 be
       0.11846865 0.31579837 0.28918245 -0.33013788
0001c0 30 fa 07 be ae 4d a5 be 3d 4a 4c 3f 4f 18 21 be
       -0.13279033 -0.32285827 0.7980078 -0.15731929
0001d0 4b 2a 1a 3f f5 3d 02 bf 0f 73 e0 3e d9 3c 2b be
       0.60220784 -0.5087579 0.43837783 -0.1672243
0001e0 07 6d 8a 3e 4a 33 8e bd 84 3a 77 3e 75 1d 7f 3b
       0.27036306 -0.06943376 0.24143416 0.003892747
0001f0 8a 3e 8d be 83 2c fb 3d 74 b1 ca 3e 8c 47 82 be
       -0.27586776 0.12264349 0.3958851 -0.2544521
000200 18 39 41 3e e4 ee eb be e7 4e 20 be 31 2c e9 bd
       0.18869436 -0.46080697 -0.15655099 -0.11385382
000210 91 f1 eb 3d ba a6 44 3e f3 85 65 be 05 cd ff bd
       0.115206845 0.19204226 -0.22414379 -0.12490276
000220 b2 f4 e2 3d 33 db 8d be 47 cd 9f bd ac f7 8e 3d
       0.11081828 -0.27706298 -0.078028254 0.069808334
000230 ee 1c c3 3e c0 cd ab 3d 15 6d ac 3d 5c 7a 5b be
       0.3810801 0.08388853 0.08419243 -0.21433395
000240 9b 5d 87 3e 6f f7 63 3d fb 82 03 3e 71 96 80 be
       0.26438603 0.055655893 0.12842934 -0.25114778
000250 37 ee 4f 3e f4 9c f9 3e 61 5e 71 3e 38 77 01 bf
       0.20305716 0.48752558 0.23571159 -0.5057254
000260 ea ad 45 be 54 f0 24 bc 4c e7 e3 be a1 ed da bc
       -0.19304624 -0.010067064 -0.44512403 -0.026724638
000270 e3 6c 88 be 6c 79 6d 3d 49 09 81 be 3a 06 c3 be
       -0.26645574 0.057977125 -0.25202397 -0.38090688
000280 05 3e 53 be fb 82 ac 3e 2c 05 3f 3f 3e 35 52 3d
       -0.20629127 0.3369368 0.74617267 0.051320307
000290 6a d1 d8 bc 23 2f b1 be 3a 73 32 3e be 54 9c 3e
       -0.026467044 -0.34606275 0.17426768 0.30533403
0002a0 77 34 4b bd db 27 3b 3e 03 b1 03 bf 53 27 47 3e
       -0.04961058 0.18276922 -0.51441973 0.19448595
0002b0 a4 c2 83 be 61 49 f8 be df 91 6f 3e 37 fb f2 be
       -0.25734437 -0.48493484 0.23395489 -0.47457287
0002c0 01 42 d8 be c6 13 1c 3f 7c 23 fe bd d1 c8 3c 3f
       -0.42237857 0.6096767 -0.12409112 0.7374392
0002d0 22 3c 68 be 75 f8 a7 be a8 50 70 be 97 1a 0a 3e
       -0.22679189 -0.32806745 -0.23468268 0.13486706
0002e0 70 2d 81 3f 14 e8 1f 3f 38 82 c3 3e d0 7f 89 3e
       1.0091991 0.624635 0.38185287 0.26855326
0002f0 40 2f dd bd 5e fb 81 be 89 88 64 3f c3 ed 22 3e
       -0.10800028 -0.2538709 0.89270836 0.15911011
000300 1a 9c c1 3d 47 3e 62 3d 21 5c 5f 3e c4 3e 10 3f
       0.09453602 0.055235174 0.21812488 0.5634577
000310 a0 57 98 3e fc 9e a2 3e 34 98 21 be 08 54 e5 be
       0.29754353 0.3176192 -0.15780717 -0.44790673
000320 8e ad f3 be 44 eb 64 bf 3c 0f 54 be 25 a5 ea 3e
       -0.4759335 -0.89421487 -0.20708936 0.4582912
000330 f3 c9 a3 bd 09 36 32 3e 59 cf 01 3e 4f 49 b2 be
       -0.07997503 0.17403425 0.12676753 -0.34821555
000340 5d 24 98 be 1a e0 bd 3c ae a5 26 3f c6 01 36 be
       -0.29715243 0.023178149 0.6509656 -0.17774114
000350 48 16 be be 54 99 38 bf 95 79 82 bd e4 36 7c be
       -0.37126374 -0.7210896 -0.06370846 -0.24630314
000360 47 02 4d bf 3e 80 03 bd 08 9a 8e bd 04 b7 35 bd
       -0.800816 -0.032104723 -0.06962973 -0.04436399
000370 c9 4a 27 3f 6a 89 71 bd 13 3d 19 3f 3a 19 2c 3e
       0.6534849 -0.05896894 0.59858817 0.16806498
000380 de 36 f2 be 82 96 82 3e 53 ea 8c be 95 eb 5b be
       -0.47307485 0.25505453 -0.27522525 -0.21476586
000390 d3 45 b6 3b d5 31 92 be fc 80 74 3c 96 96 1c bd
       0.005562523 -0.28553644 0.01492333 -0.038229547
0003a0 ac f7 f7 be 8c ba 78 bf 63 ed d2 3d ec ec 9d 3d
       -0.48431146 -0.9715965 0.10299184 0.07711205
0003b0 ab 55 60 3e 0b 20 a5 bd 3c 14 36 be a1 9c 14 be
       0.2190768 -0.08062752 -0.17781156 -0.14512874
0003c0 61 18 c0 bc c2 40 95 bd fb cc 66 3e f1 d4 db be
       -0.023449125 -0.07287742 0.22539131 -0.429359
0003d0 67 78 ad 3e 75 49 65 3d 16 60 69 3e 00 61 c3 be
       0.33880922 0.055978257 0.2279056 -0.38159943
0003e0 2a 6a 05 bf 9a 2f b3 bd c3 21 8f bd 7d 77 54 bd
       -0.5211512 -0.08749314 -0.069888614 -0.051871765
0003f0 50 93 c0 bd 5a f3 02 bf bc 1a 23 be 29 78 2b be
       -0.09403098 -0.51152575 -0.15928167 -0.16745056

actor.2.bias f4 [256]
000000 01 99 3b bf ae 76 37 bf a0 ba 83 be ff 3a 41 be
       -0.7328034 -0.71665466 -0.2572832 -0.18870161
000010 d4 87 fe bd ce 97 09 bf 8c 0e e3 be 4d 30 a4 be
       -0.12428251 -0.5374726 -0.44347036 -0.320681
000020 a0 fa ee be 64 a4 62 be 61 ae 17 be f9 90 24 bf
       -0.46675587 -0.22133023 -0.14812614 -0.6428371
000030 e2 ca 96 be 85 37 50 be 29 88 d7 be 81 16 ac be
       -0.29451662 -0.20333679 -0.4209607 -0.3361092
000040 8c e5 91 be 66 71 97 be bf b2 8f be f6 2e de be
       -0.28495443 -0.29578704 -0.2806606 -0.43395203
000050 6e 04 93 be df 28 9e be 97 c7 57 be c1 9b a8 be
       -0.28714317 -0.30890557 -0.21072231 -0.3293133
000060 01 5f 9b be 69 86 fd be 65 df ed be e5 3e 20 bf
       -0.3034592 -0.4951661 -0.464595 -0.6259597
000070 33 47 05 bf ed b2 34 bf d1 2d ea be 0e 7b 18 bf
       -0.52061766 -0.7058552 -0.4573808 -0.59562767
000080 38 d4 41 be b1 23 e7 be 82 2d 0f bf 7d a4 15 bf
       -0.18928611 -0.45144418 -0.55928814 -0.58454114
000090 f9 e0 f3 be 81 3f bb bd c8 fe 12 bf a0 75 12 bf
       -0.47632578 -0.09142972 -0.57420015 -0.5721073
0000a0 b7 79 cb bc 15 53 83 be 83 0e a9 be 28 c9 70 be
       -0.024838312 -0.25649324 -0.33018884 -0.23514235
0000b0 27 f7 a1 be 4a 56 4e be 8b d1 97 be f3 9b d4 be
       -0.31633875 -0.20150104 -0.29652056 -0.4152523
0000c0 94 e3 75 be 59 d8 e4 be 67 88 a6 be 3f 89 da be
       -0.24012595 -0.4469631 -0.32525942 -0.42682835
0000d0 eb 7d d0 be 63 03 b8 be 6b 45 9c be 81 7f 4d be
       -0.40721068 -0.35940084 -0.30521712 -0.2006817
0000e0 10 9b 92 be 21 c6 99 be ec 47 e2 be 40 52 f2 be
       -0.28633928 -0.30033973 -0.44195497 -0.47328377
0000f0 10 46 bf be 8e e9 7f bc 6b 8d 55 be bf ee b0 be
       -0.3735814 -0.015619649 -0.20854728 -0.3455715
000100 a4 21 96 be dc 9c 82 be bb e2 81 be 48 af 38 bd
       -0.2932254 -0.255103 -0.25368294 -0.045089036
000110 4c 1c cd be 94 81 e5 be 32 d0 e7 be f9 30 8b be
       -0.4006065 -0.44825423 -0.45276028 -0.271858
000120 db 95 ec be ec 35 aa bd 17 26 17 bf ef 58 b5 be
       -0.4620808 -0.08311066 -0.59042495 -0.35419413
000130 93 90 15 bf c5 09 bf be 56 d2 03 bf 7e 70 c5 be
       -0.5842373 -0.3731214 -0.5149282 -0.38562387
000140 e9 36 bb 3d f8 78 c0 be a0 12 dc be ed 37 5e be
       0.09141333 -0.37592292 -0.4298296 -0.21701021
000150 7f 2e 07 bf 37 b4 ce 3c 13 80 c9 be 28 bb d7 be
       -0.5280532 0.025232418 -0.39355525 -0.42134976
000160 d9 09 31 bf 17 19 99 be ca 22 d6 be 89 e9 10 bf
       -0.6915565 -0.29901955 -0.41823417 -0.56606346
000170 08 a3 e0 be 59 cf 0f bf d4 cd 8e be 4a 54 bd be
       -0.43874383 -0.5617576 -0.2789141 -0.3697837
000180 d3 dc f6 be df d6 0a bf 21 44 be be 24 5d d2 be
       -0.4821535 -0.5423412 -0.37161353 -0.41086686
000190 3e 7d 0a bf 1e 9e a6 be 7a 42 de be 75 db 32 bf
       -0.54097354 -0.3254251 -0.43410093 -0.69866115
0001a0 22 f1 8e be 70 26 67 bd aa 66 ce be 07 fd ba bd
       -0.27918345 -0.05643314 -0.403127 -0.091302924
0001b0 b0 b2 c7 be 27 6c f6 bd 86 cc 8c be c9 83 b5 be
       -0.39003515 -0.12032347 -0.2749979 -0.35452107
0001c0 7d b9 03 bf c1 3e c5 be e1 82 f3 be 18 8e be be
       -0.5145491 -0.3852444 -0.4756079 -0.37217784
0001d0 68 cb 45 be 94 be 02 bf 40 d1 ec be 84 3c 21 bf
       -0.19315875 -0.5107205 -0.46253395 -0.62982965
0001e0 7f b4 af be 65 17 8a be e1 6e 98 be 6e 21 da be
       -0.34317395 -0.26970974 -0.29772094 -0.4260363
0001f0 cd 80 20 3d 69 a0 a3 be 5d 20 b5 be 25 67 f1 be
       0.039185334 -0.3195832 -0.35376254 -0.47149006
000200 cc cd 1e be 16 ec 26 bf 29 54 99 be 92 99 a9 be
       -0.15508193 -0.6520399 -0.29947022 -0.33124977
000210 9e 4c cf be 3f 3f 39 be 86 91 07 bf ed 78 93 be
       -0.40488142 -0.18090533 -0.52956426 -0.28803197
000220 2c 37 5e 3c bb 4f 64 be 87 dd 9d be 90 1e 98 be
       0.013562959 -0.2229604 -0.30833074 -0.29710817
000230 7e fc b9 be 4c d1 99 be 26 89 06 bf d6 fe 7a be
       -0.3632545 -0.30042493 -0.5255302 -0.24511275
000240 3f 81 ff bd 1d 6c 85 be 1a 20 82 be dd d4 24 be
       -0.124758236 -0.26059046 -0.25415117 -0.16096826
000250 ce 52 c1 be bf 31 95 be b5 5b ab be 6b 46 a0 be
       -0.37758487 -0.29139516 -0.33468404 -0.31303725
000260 95 5e b8 be 8d 21 0e 3c f9 84 c9 be a3 81 46 be
       -0.3600966 0.008674991 -0.39359263 -0.1938539
000270 26 49 11 bf 2f 86 a0 be a6 c1 ec be 67 82 12 bd
       -0.5675224 -0.31352374 -0.46241492 -0.035768893
000280 14 80 e7 be b9 df a9 be ff cf cd be e3 7a 8c be
       -0.45214903 -0.331785 -0.4019775 -0.27437505
000290 ea 81 df be 42 bb e3 be e0 97 3e be 4e 16 89 be
       -0.43653804 -0.44478804 -0.18612623 -0.2677483
0002a0 06 17 c6 be 2e 6d be be fd b5 2c bf ca 92 40 be
       -0.3868944 -0.37192672 -0.6746519 -0.18805996
0002b0 89 0e f1 be 51 b1 bd be c5 7b f9 bd cf e6 6c be
       -0.47081402 -0.37049344 -0.1218181 -0.23134921
0002c0 d4 06 ad bd a6 74 bc be 7d f5 44 be b1 24 c3 be
       -0.08448568 -0.36807746 -0.19234271 -0.3811393
0002d0 05 fe f0 be b8 b6 1e bf d5 b4 3a bf c7 93 d8 be
       -0.47068802 -0.61997557 -0.7293218 -0.42300245
0002e0 32 13 3b be c4 41 c5 be 62 a5 04 bf b4 b8 b5 be
       -0.18269041 -0.38526738 -0.51814854 -0.3549248
0002f0 b3 c2 b5 be bf 93 82 be c9 c1 f4 be cf 0b de be
       -0.35500106 -0.25503346 -0.47804096 -0.43368384
000300 12 10 c2 be 48 35 d4 be 03 89 ab be 34 df 79 be
       -0.37902886 -0.414469 -0.3350297 -0.24401551
000310 69 28 a3 be a6 67 aa be 23 0e 98 be ee 39 39 be
       -0.31866768 -0.33282202 -0.29698285 -0.18088505
000320 71 49 d1 be 3b d9 bd bd bd 2c dc bc 98 75 16 3e
       -0.40876344 -0.09269949 -0.026876802 0.14693296
000330 5f f4 91 be 02 e0 b5 be 72 06 2a bf 16 33 11 bf
       -0.28506753 -0.35522467 -0.66416085 -0.56718576
000340 9b 0a 60 be 4d c8 06 bf 03 2d f1 be ef 8b 11 bf
       -0.21879046 -0.52649385 -0.47104654 -0.56854147
000350 1f a1 12 be 11 9b f7 be dc 6f 70 be 95 04 10 3d
       -0.14319275 -0.48360494 -0.23480171 0.03516062
000360 15 26 a5 be 57 b4 cf be 2b 84 85 be 58 c9 86 be
       -0.32255617 -0.40567276 -0.260774 -0.26325488
000370 45 30 7a 3c df 2a c4 be 42 73 d2 be e1 63 86 bd
       0.015270297 -0.38313958 -0.4110356 -0.06562019
000380 79 ed 8b be 25 b4 cd be e1 9f 90 be eb 3e bc be
       -0.27329615 -0.40176502 -0.28246978 -0.36766753
000390 e8 98 c1 be 19 c6 3f be da 8a de be c2 3b 8c 3d
       -0.3781197 -0.18727912 -0.4346531 0.068473354
0003a0 6d a6 17 be 37 a0 e2 be 5b 8c c5 be c9 d1 e3 be
       -0.1480958 -0.4426286 -0.38583645 -0.4449599
0003b0 62 9b f6 be dc 4a 55 be 0b da 93 be 0f 06 3b bf
       -0.48165423 -0.20829338 -0.2887729 -0.7305612
0003c0 40 64 73 be a5 70 8e be b9 74 8f be 28 19 9d be
       -0.23768711 -0.27820316 -0.2801874 -0.30683255
0003d0 c5 0f fd 3d 02 9e e7 be 59 38 aa be f1 bb ca be
       0.123565234 -0.45237738 -0.33246115 -0.39596513
0003e0 e3 37 bb be 07 cf 05 bf 3f 11 d5 be 64 d5 60 3d
       -0.36566076 -0.52269024 -0.4161472 0.054891005
0003f0 22 07 80 be 87 11 ea bd 07 53 12 bf 56 63 88 be
       -0.25005442 -0.11429124 -0.5715794 -0.26638287

actor.4.weight f4 [40, 256]
000000 a0 91 97 be 2f e9 6a be c5 8d 58 bf 3c 3a 2f bf
       -0.2960329 -0.22940515 -0.84591323 -0.68448234
000010 b0 00 bb be 90 ef 18 3e 30 b0 8e 3d 9b 0f 03 3f
       -0.36523962 0.14935136 0.06967199 0.5119569
000020 0d 29 7d 3e 45 12 71 bf 7b eb d0 3d 3c 22 83 be
       0.24722691 -0.941685 0.10201164 -0.25612056
000030 62 2a 94 be 7e 76 77 3d d0 3e 3b bd 60 fc 19 bf
       -0.28938586 0.060415737 -0.0457142 -0.6015072
000040 7c 44 e7 3d 03 0c b3 3c 4a 24 e5 3e cc 0e 3f be
       0.11292359 0.021856314 0.4475425 -0.18657988
000050 f3 12 e9 3d 09 8f 8e 3e 5f ca ab 3e 08 ab a0 be
       0.113805674 0.27843502 0.33552834 -0.31380486
000060 bb ef 89 3e 0f 04 a5 be 2c 1f bc 3e b0 9a 99 3e
       0.26940712 -0.3222966 0.36742532 0.3000083
000070 e2 10 24 3f 96 7e 27 bf a0 86 df 3e 87 8e 87 3d
       0.6408826 -0.6542753 0.43657398 0.06618982
000080 01 aa 2e 3e db d6 f5 3f d4 e3 ba 3e e0 98 14 bf
       0.17057039 1.9206194 0.36501944 -0.5804577
000090 4e 7f d2 be 0e 47 92 bf 85 ff fa 3e bf 24 b2 be
       -0.4111275 -1.1427934 0.4902307 -0.3479366
0000a0 bd 8d f6 3e 78 12 72 be 28 58 69 bf e5 82 ee 3d
       0.48155013 -0.23639858 -0.9115014 0.1164606
0000b0 93 1b 50 3f ed 0f 87 3e ea 40 12 be 3b be 9a be
       0.81292075 0.26379338 -0.14282575 -0.3022326
0000c0 ad de 22 be e7 88 2f 3e f1 ed e9 bd 05 1b 81 3e
       -0.15905257 0.17142068 -0.11422337 0.25215927
0000d0 82 86 54 bf 63 23 1a be 27 54 18 bf ed 94 3f 3f
       -0.8301774 -0.15052561 -0.59503406 0.7483662
0000e0 92 6c 93 3d 25 f7 81 bd 73 bd a1 3e b7 20 ae 3e
       0.071984425 -0.06345967 0.3158985 0.34009334
0000f0 fa a6 11 3e b5 70 71 3e 68 01 c5 be b3 dc b0 bc
       0.14223853 0.2357815 -0.38477635 -0.021589613
000100 1a 84 38 3f 0a c9 34 bf 91 8a ea 3e 7a 4a a0 be
       0.7207657 -0.7061926 0.45808843 -0.3130682
000110 b2 4f 08 bf cf f3 47 be 5c ea a7 bc 01 eb 35 3e
       -0.53246605 -0.195266 -0.020497493 0.17765428
000120 fd c2 04 be 0d 62 1f 3f cf bd ad be 44 2f 3d 3f
       -0.12965007 0.6225899 -0.33933875 0.73900247
000130 b1 32 74 bf 4a a5 09 3f 90 37 db 3d f3 b2 9b be
       -0.9538985 0.53767836 0.10703957 -0.30409965
000140 7b 2e 94 bf 6e b4 a2 be 32 2c a8 be 5c f9 ab 3e
       -1.1576685 -0.31778282 -0.32846218 0.33588684
000150 72 04 2c 3e c7 ae 03 bf 49 0e 93 be 8e a3 8a 3e
       0.16798571 -0.51438564 -0.28721836 0.27077907
000160 1d 2d 00 3f 68 da 30 3e 3c 1b 3d 3e 2e 3e cc bd
       0.5006884 0.17270815 0.1846742 -0.09972797
000170 9b 61 85 3e 98 5f 3d 3e d6 4b d3 be e8 57 18 3e
       0.2605103 0.18493497 -0.41268796 0.14877284
000180 3f d4 30 3d 94 9c 56 3d d7 38 dc 3e f0 ba ec 3c
       0.043171164 0.05239542 0.43012115 0.028897732
000190 93 1c 9e 3e 2e c6 0e 3f 18 e5 08 3f d0 6a 96 bf
       0.30881175 0.5577115 0.5347457 -1.1751347
0001a0 26 db 2b 3e d3 74 36 be 79 3e d9 be b1 74 31 bf
       0.16782817 -0.17818002 -0.42430475 -0.6931868
0001b0 32 33 af be d9 6d 1b be 60 51 a4 bd 99 c4 e1 3d
       -0.34218746 -0.15178622 -0.080233335 0.11023826
0001c0 a1 d7 9e 3e 5f b9 0d 3f f3 17 44 3e 33 5b 05 be
       0.31023887 0.5536098 0.19149761 -0.13023071
0001d0 71 ea 07 3f e8 93 f6 3e c8 06 c0 be 7a dd 67 3f
       0.53092104 0.4815972 -0.37505174 0.9057232
0001e0 07 15 5e 3f 34 ce fd be c2 af ec bd a5 19 3e bf
       0.86750835 -0.49571383 -0.11556961 -0.7425788
0001f0 3c 70 1c bf 80 59 ee be 01 6b 5b be f5 72 ae be
       -0.61108756 -0.46552658 -0.21427538 -0.3407208
000200 42 f1 d1 3e 29 ec 67 3d ae 6c 50 bf bb 41 96 3e
       0.41004378 0.056621704 -0.8141583 0.29347023
000210 19 6a 36 be 67 ce 0c 3e eb 8e b5 3e 5b 7c 58 be
       -0.1781391 0.13750611 0.354606 -0.21141188
000220 9c 40 04 bf 9e f6 29 3e f0 e2 c9 3e 3f 19 25 bf
       -0.51661086 0.16597983 0.39430952 -0.6449165
000230 8a b6 25 3e 60 62 1e 3f 67 e6 31 bf 5c 27 38 bd
       0.16182914 0.6186886 -0.6949219 -0.04495941
000240 d2 df 10 3e 4c e0 aa be bb 4f 0e 3e c1 32 d0 be
       0.1414788 -0.3337425 0.13897602 -0.40663722
000250 52 7f 62 3e 0f ec 47 bf 65 f4 0c bd 99 9b 62 bf
       0.22118881 -0.7809457 -0.03441276 -0.88518673
000260 76 23 92 be 97 71 80 bf d8 55 f7 3e a3 61 83 3e
       -0.2854268 -1.0034665 0.4830768 0.25660428
000270 26 b2 8a 3e 3a 5b 3c bf be a2 8b 3f 7b 31 1b 3e
       0.2708904 -0.735767 1.090904 0.15155594
000280 b9 76 2f 3e ff 29 00 bd 31 8e 8d be aa 5f 64 bb
       0.17135133 -0.03129005 -0.27647546 -0.003484706
000290 30 07 e1 3f 26 44 8d bc 04 fd 01 3f fb ad 51 3e
       1.7580318 -0.01724441 0.50776696 0.20476525
0002a0 f5 17 22 3f 72 82 a8 3d 70 1a ec be a3 d6 ec 3e
       0.63317806 0.082280055 -0.4611392 0.46257505
0002b0 e3 15 d8 be 20 0f 68 3e e2 0d 18 bf 19 20 08 3f
       -0.42204198 0.2266202 -0.59396183 0.5317398
0002c0 f9 c4 72 3f b0 f1 74 3e 9d 86 00 bf 81 81 ae 3e
       0.94831806 0.23920321 -0.50205404 0.3408318
0002d0 9d fe ce bc ed 92 e6 bd d0 a0 80 bf 61 a4 75 3f
       -0.025267893 -0.112584926 -1.0049076 0.9595395
0002e0 9e 6e 57 bf 42 45 dc bd 60 c1 d5 bd 35 79 ae 3e
       -0.84153163 -0.107553974 -0.10437274 0.3407685
0002f0 ce b4 17 3f 70 cf ec be b1 6a 39 3d 3d 9b fa 3c
       0.5926026 -0.46252012 0.045267764 0.030591602
000300 91 1d 91 3e 6d ee 9a 3e 0c 21 90 bf 2a 95 08 3e
       0.2834287 0.3026003 -1.1260085 0.13338152
000310 4c 43 4a 3e 27 95 29 3e b0 b6 61 bd ad 81 82 be
       0.19752234 0.16560803 -0.055105865 -0.2548956
000320 d2 4e 1a 3d 0d 60 9d 3e 50 f7 d3 be 27 1f 84 bf
       0.037672825 0.30737343 -0.41399622 -1.0322007
000330 1f 68 96 3f d5 3f 3d be 2e b1 85 3d 1e ef ec 3f
       1.1750525 -0.18481381 0.06527935 1.8510473
000340 36 0c b7 be c7 43 d6 be a0 4a c6 3d 92 7a 86 be
       -0.35751504 -0.41848585 0.09682202 -0.2626539
000350 88 05 a5 bf 0e 1f b2 bd cc cb 36 3f bc 3d 39 bf
       -1.2892313 -0.086973295 0.7140472 -0.72359824
000360 c6 ef 23 3e c9 6f 17 3f 18 2d 6a bf 07 9b c0 3d
       0.16009435 0.59154946 -0.9147506 0.09404569
000370 ae 19 d9 be 5d ed 33 3f ea c4 b2 3e 1f 29 18 bf
       -0.42402405 0.7028406 0.34915859 -0.59437746
000380 23 c3 ec bd 83 12 82 be a6 e6 b5 be ee e3 96 3d
       -0.11560657 -0.25404748 -0.35527533 0.07367693
000390 4d 66 54 be 86 12 c8 be fa cb 42 bf 8e af 10 3f
       -0.2074215 -0.39076632 -0.76092494 0.56517875
0003a0 43 f8 ca be d0 96 98 3d 98 e1 f4 be 50 50 d3 be
       -0.39642534 0.0745064 -0.47828364 -0.4127221
0003b0 03 01 f4 bc ac 63 c5 be 45 71 fb 3e 6c b1 ba be
       -0.029785639 -0.38552606 0.49109855 -0.36463487
0003c0 99 e8 f5 bd 2d 54 37 bf a6 f1 05 bf 60 02 4d 3e
       -0.12007255 -0.7161282 -0.5232185 0.20020437
0003d0 e0 77 5d 3e 0c 56 ba be 99 f1 a8 be 8d bf d1 be
       0.2162776 -0.36393774 -0.32996824 -0.40966454
0003e0 ab 8f bd be 16 0b 99 3e 84 47 e7 3e 94 3b 89 3f
       -0.37023672 0.2989127 0.4517175 1.0721307
0003f0 8a 71 64 be 87 f1 0a bf 2a b5 6c 3e 8d 37 19 bf
       -0.22308937 -0.5427479 0.23115984 -0.5985039

actor.4.bias f4 [40]
000000 de 7e c5 be ac a1 6d 3e 0e c6 8d be a8 56 d6 bd
       -0.38573354 0.23206204 -0.27690166 -0.10465747
000010 2c 0f 3e 3b 83 5d 25 be 0d 21 8f 3d b4 62 05 3f
       0.0029000742 -0.16148953 0.06988726 0.52103734
000020 39 cb c3 3e f2 f9 6c 3e f8 41 43 bf 29 fd a3 3d
       0.38240984 0.23142222 -0.76272535 0.08007271
000030 8d d2 4f be 77 79 19 be b5 37 93 bd 88 66 0d be
       -0.20295162 -0.14987741 -0.0718836 -0.13808644
000040 b1 8b 46 3e 2b 34 01 3f 25 c5 0a 3f a6 19 e1 3e
       0.19389226 0.50470227 0.5420707 0.4396488
000050 8f 70 e5 be 3b 4f 27 be d4 a2 83 bf 61 26 83 be
       -0.44812438 -0.16338818 -1.0284066 -0.25615218
000060 3a aa 10 3e 54 c4 12 be c9 50 1d bd 00 88 8a bd
       0.14127436 -0.14332706 -0.03840712 -0.06764221
000070 6f 42 1b 3f b5 65 2c 3e d7 9a 55 bf 69 e8 f8 bd
       0.60648245 0.16835673 -0.8343939 -0.12153704
000080 c3 3d 0a bf 67 40 84 3e 81 e0 22 bc b5 f3 ad 3e
       -0.5400049 0.25830385 -0.009941221 0.33974996
000090 b2 5d 65 3e bb c6 d1 3e 7c 9b c0 3e 1a e4 6a 3e
       0.22399023 0.40971932 0.37618625 0.22938576
