pretrained_models/briscola-bot-v3.pt (torch, 905573 bytes, 11 tensors)

critic.0.weight f4 [256, 162]
0	0x3e01a9a4	0.12662369
1	0xbdb240f9	-0.08703799
2	0x3e140d39	0.14458169
3	0xbd958796	-0.073012516
4	0xbdd85c31	-0.10564459
5	0xbd9f4e98	-0.077786624
6	0xbdc8ff84	-0.09814361
7	0xbdd1c87a	-0.10243316
8	0xbd902f5d	-0.07040284
9	0xbdb72a4f	-0.089436166
10	0x3e7abaf2	0.24485376
11	0xbde1d6fe	-0.11027335
12	0x3e239e92	0.15978459
13	0xbdf70845	-0.12062124
14	0xbe03b899	-0.12863387
15	0xbd83412d	-0.06408916
16	0xbdb343ed	-0.0875319
17	0xbdcd1af1	-0.10014904
18	0xbdbcd1d4	-0.09219709
19	0xbd5d0782	-0.053962238
20	0x3d7d50f9	0.0618448
21	0x3cb93c8f	0.022611884
22	0x3cb2b3e6	0.021814298
23	0xbb870e92	-0.00412161
24	0x3c259e44	0.010108534
25	0x3d058545	0.0325978
26	0xbb051d29	-0.002031157
27	0x3d47063e	0.048589937
28	0x3e0fe157	0.14050804
29	0x3de35f5d	0.111021735
30	0x3d4f229b	0.05057011
31	0xbdbc2fbd	-0.09188793
32	0x3e0ff7b2	0.14059332
33	0xbde20ffe	-0.110382065
34	0xbddae2b6	-0.10687773
35	0xbde1273c	-0.109938115
36	0xbe1a4e3a	-0.15068904
37	0xbda20572	-0.07911195
38	0xbddd2560	-0.10798144
39	0x3d28a27f	0.041170593
40	0x3e510fa2	0.2041612
41	0x3e9f784a	0.3114646
42	0x3e9ee171	0.31031373
43	0x3ea15b49	0.31514958
44	0x3e8f7282	0.2801705
45	0x3e959f35	0.29223028
46	0x3eddd3f3	0.43325767
47	0x3ea64bed	0.32479802
48	0x3ed76872	0.42071873
49	0x3e8717e1	0.26385406
50	0xbd5e7f8a	-0.05432085
51	0xbb922570	-0.0044600293
52	0xbc71f723	-0.014768395
53	0xbc93eb30	-0.018056482
54	0x3d0391ff	0.032121655
55	0x3dfcbb49	0.12340409
56	0x3e5880ec	0.2114293
57	0x3dc5b7b0	0.09654176
58	0xbe116003	-0.14196782
59	0xbd654483	-0.05597354
60	0xbde3638d	-0.11102972
61	0xbd0bb42d	-0.034107376
62	0xbec67330	-0.38759756
63	0xbd87012c	-0.065920204
64	0xbe1f41a8	-0.1555239
65	0xbe229411	-0.15876795
66	0xbe1c18f0	-0.15243888
67	0xbe7f3ae3	-0.24924807
68	0xbe822659	-0.25419882
69	0xbe15c722	-0.14626744
70	0xbe28275c	-0.16421264
71	0xbdfb4e13	-0.12270751
72	0xbe57311e	-0.2101483
73	0xbbbaf25d	-0.0057051615
74	0x3d8c3454	0.06845918
75	0x3da9ad50	0.0828501
76	0xbd8a9ac4	-0.067678005
77	0xbddf8255	-0.10913531
78	0xbe27174f	-0.16317485
79	0xbd9e285b	-0.07722541
80	0xbd71ca76	-0.059030972
81	0x3d96019e	0.07324527
82	0xbe9021df	-0.28150842
83	0x3dc72316	0.09723489
84	0x3d7834a0	0.060597062
85	0x3d4ba4d3	0.049717735
86	0xbd25786c	-0.040398046
87	0x3e10b3a0	0.14131021
88	0x3e391e1e	0.18077895
89	0x3dcf1884	0.10112098
90	0xbe84b8ef	-0.25922343
91	0xbdafd71f	-0.08585953
92	0xbefe486a	-0.49664623
93	0xbcd30d66	-0.025763225
94	0xbd7d8979	-0.061898682
95	0x3d011ae6	0.031519793
96	0x3cc4d796	0.02402858
97	0xbd126d91	-0.035749022
98	0xbd1390b9	-0.03602669
99	0xbd67773f	-0.056510206
100	0xbee64c54	-0.4498011
101	0xbc5155f8	-0.012776844
102	0xbf0baabd	-0.545574
103	0xbdf79a68	-0.120899975
104	0xbdba57d5	-0.09098784
105	0xbdba14c0	-0.09085989
106	0xbe24b7ec	-0.16085786
107	0xbe257044	-0.16156107
108	0xbe280389	-0.16407599
109	0xbe548091	-0.20752169
110	0xbf0a7a4a	-0.5409285
111	0xbd72c55d	-0.05927025
112	0xbeffbf1f	-0.499505
113	0xbe226999	-0.15860595
114	0xbddda9f2	-0.1082343
115	0xbdeb9774	-0.11503497
116	0xbe233ab5	-0.15940364
117	0xbe7e5e37	-0.24840628
118	0xbe9d6d4e	-0.30747455
119	0xbe994d26	-0.29941672
120	0x3cf3f3f5	0.029779414
121	0x3d405402	0.046955116
122	0xbe2fd4f8	-0.17171085
123	0x3dab3e37	0.08361476
124	0x3d0f2aad	0.03495281
125	0x3da75174	0.08169833
126	0x3cd905b3	0.026491975
127	0xbe0c53ec	-0.13703889
128	0xbe011027	-0.12603818
129	0xbe748c5a	-0.23881665
130	0x3c850dfd	0.016242022
131	0xbdac352d	-0.0840858
132	0xbdebb906	-0.115099
133	0xbc7e2bbf	-0.01551336
134	0xbdcf9bb1	-0.10137118
135	0xbd682c7a	-0.05668304
136	0xbd25148f	-0.04030281
137	0xbe0d4708	-0.13796628
138	0xbe047724	-0.12936074
139	0xbdcc9d95	-0.09990994
140	0x3d53e7bf	0.051734682
141	0x3df86565	0.121287145
142	0x3e9202b4	0.28517687
143	0x3d896a56	0.06709735
144	0x3dd04de0	0.101711035
145	0x3db6a4e8	0.08918172
146	0x3db5009b	0.08838006
147	0x3dd676f2	0.10471906
148	0x3e49adb8	0.19695175
149	0x3e785978	0.2425288
150	0x3d69401a	0.056945898
151	0x3db0248d	0.086007215
152	0x3e9d7b43	0.30758104
153	0x3d594dcc	0.05305271
154	0x3db0957e	0.08622263
155	0x3d9d7986	0.076891944
156	0x3df4d7c9	0.1195522
157	0x3d8c1c2f	0.06841313
158	0x3db5e358	0.08881253
159	0x3e737753	0.23775987
160	0xbfb740f5	-1.4316698
161	0x3fc974ac	1.573873
162	0xbdfd0142	-0.123537555
163	0x3ccb2dbf	0.024802087
164	0xbd6d0095	-0.057861883
165	0x3c828a63	0.015935129
166	0xbbe024b7	-0.0068403143
167	0x3c72a39b	0.014809514
168	0x3d055003	0.03254701
169	0x3d16641a	0.036716558
170	0x3cf71c95	0.030164996
171	0xbce85a2d	-0.028363312
172	0xbe07200c	-0.13195819
173	0xbd61e43d	-0.055149306
174	0xbeadf373	-0.339748
175	0xbba3a453	-0.004993954
176	0xbcf6c2cb	-0.030122181
177	0xbcd7c918	-0.026341006
178	0xbd696778	-0.05698344
179	0xbc82fa5f	-0.015988527
180	0xbd81af57	-0.063322715
181	0xbc76e0e5	-0.0150682675
182	0xbe5d1677	-0.21590601
183	0xbd2d1dd9	-0.042264793
184	0xbe4ac99f	-0.19803475
185	0xbca75c7c	-0.020429842
186	0xbd903c65	-0.07042769
187	0xbd3fe48a	-0.04684881
188	0xbce82aa9	-0.028340654
189	0xbcda821a	-0.026673365
190	0x3c3b48be	0.011430917
191	0xbd9329a6	-0.07185678
192	0xbe67be1b	-0.22631113
193	0xbce69860	-0.02814883
194	0xbe3ff209	-0.18744673
195	0xbbfb3885	-0.0076666498
196	0x3db0a142	0.086245075
197	0x3d2313eb	0.039813917
198	0x3cd25e80	0.025679827
199	0x3dc5cd6c	0.09658322
200	0x3df20b0b	0.118185125
201	0x3d954167	0.07287865
202	0x3e3283b4	0.17433053
203	0x3d37fd94	0.044919565
204	0x3e7e5d9d	0.24840398
205	0x3e250bda	0.16117802
206	0x3e609241	0.21930791
207	0x3def86b1	0.11695612
208	0x3dc75e0d	0.09734736
209	0xbdb2613b	-0.087099515
210	0x3e0e5408	0.13899243
211	0x3cb55999	0.02213745
212	0x3dc33349	0.09531266
213	0xbe3ece9f	-0.18633507
214	0x3e30717e	0.17230794
215	0xbe537a3a	-0.20652094
216	0xbe3da2da	-0.18519154
217	0xbe02f747	-0.12789641
218	0xbe3b4c02	-0.18290713
219	0xbd85255e	-0.06501268
220	0xbe4a5574	-0.1975916
221	0x3ca3aac2	0.019978885
222	0x3e8d9622	0.27653605
223	0x3c86042d	0.016359413
224	0x3db4bc3d	0.08824966
225	0x3dbf8f18	0.09353465
226	0x3d459e00	0.048246384
227	0x3e152b8d	0.14567395
228	0xbd322ded	-0.04350083
229	0xbc69c8fb	-0.014269109
230	0x3c3ec613	0.011643904
231	0x3d7093ae	0.05873459
232	0x3e221094	0.15826637
233	0x3d9e406e	0.07727133
234	0x3e301982	0.1719723
235	0x3d920180	0.07129192
236	0xbdaa16d3	-0.083051346
237	0x3e21fbc2	0.15818694
238	0xbbbbb1e6	-0.0057279943
239	0x3e5983c6	0.21241674
240	0x3e2e2c2a	0.17009035
241	0x3e27b7b3	0.1637867
242	0x3eb4d304	0.35317242
243	0x3d1b2c0a	0.037883796
244	0x3e4e9223	0.20172934
245	0x3d1cd917	0.03829297
246	0xbb95d676	-0.004572685
247	0xbcc0d01c	-0.023536734
248	0x3d74757e	0.05968236
249	0x3d247353	0.040149044
250	0x3bc948eb	0.0061427257
251	0xbce82ed5	-0.028342644
252	0x3e9f0d65	0.31064907
253	0xbccc5f7d	-0.024947876
254	0xbe8e925d	-0.2784604
255	0x3bef9800	0.007311821

critic.0.bias f4 [256]
0	0x3ea0b5c2	0.3138867
1	0x3ecf5b9f	0.4049959
2	0xbe912f4d	-0.283564
3	0xbe169722	-0.1470609
4	0xbed7ea41	-0.4217091
5	0xbda2b6aa	-0.07944997
6	0xbe142223	-0.14466147
7	0xbf07cc69	-0.5304628
8	0xbe4f22f5	-0.20228179
9	0xbdbb881b	-0.091568194
10	0x3dea043d	0.1142659
11	0x3ed75a63	0.42061147
12	0xbb673b75	-0.0035283242
13	0xbe800633	-0.2500473
14	0xbe0782b3	-0.13233452
15	0xbd24870e	-0.04016786
16	0x3dccf214	0.1000711
17	0xbf060fe1	-0.5236798
18	0xbd046104	-0.032319084
19	0xbf39f9a6	-0.7264656
20	0xbea7dd69	-0.3278611
21	0x3ecc28f7	0.39875004
22	0xbeedc739	-0.46441057
23	0xbe2395c9	-0.15975107
24	0x3d95987f	0.07304477
25	0xbe8c601c	-0.27417076
26	0xbe1516e4	-0.14559513
27	0xbe7eb329	-0.24873032
28	0x3d9299cf	0.07158243
29	0xbea53020	-0.3226328
30	0xbe9e6c95	-0.30942217
31	0xbedfbd00	-0.43698883
32	0xbf449fd6	-0.7680639
33	0xbe82a19f	-0.25513932
34	0xbea78ada	-0.32723123
35	0x3f01f5be	0.507656
36	0xbe45b09b	-0.19305651
37	0xbf666c91	-0.9000941
38	0xbf1056fd	-0.56382734
39	0xbdd04786	-0.10169892
40	0xbe312024	-0.17297417
41	0x3d86cca1	0.065819986
42	0x3b22a064	0.0024814839
43	0xbe8e9fc4	-0.27856266
44	0xbe19714a	-0.14984623
45	0x3ea8fd12	0.33005577
46	0xbf11e099	-0.56983334
47	0x3dce068a	0.10059841
48	0xbebfa72f	-0.37432238
49	0x3d2ad39b	0.04170571
50	0xbce7cecc	-0.02829685
51	0xbea2d431	-0.31802514
52	0xbc5e0b5c	-0.013552513
53	0xbebbc39f	-0.36672685
54	0xbf1f10fd	-0.621353
55	0xbed7f6a7	-0.42180368
56	0xbe4cd7c0	-0.20004177
57	0x3ecf4782	0.40484244
58	0x3da70e70	0.081570506
59	0xbce10d4d	-0.027472163
60	0xbe8fa8f9	-0.28058603
61	0xbd328a5a	-0.043588974
62	0xbd61bc8e	-0.05511146
63	0xbe007002	-0.12542728
64	0xbfb4582f	-1.4089411
65	0xbdf852c3	-0.121251605
66	0xbe157060	-0.14593649
67	0x3e66f2e2	0.2255359
68	0xbe271df0	-0.16320014
69	0xbeb8cd89	-0.3609431
70	0xbe90ddc1	-0.28294185
71	0x3dc8a419	0.09796924
72	0xbce95a4f	-0.028485445
73	0x3ecb545e	0.39712805
74	0x3e5e0199	0.21680297
75	0x3da565a2	0.080760255
76	0xbf1bf2dd	-0.60917455
77	0xbe130cd0	-0.14360356
78	0xbf03f46f	-0.5154485
79	0x3e226946	0.15860471
80	0xbe611ac6	-0.2198287
81	0xbd61cb29	-0.05512539
82	0xbc3f74e1	-0.011685581
83	0x3f78cf2e	0.9719113
84	0xbebbdfe9	-0.36694267
85	0xbe6bb9ad	-0.23020048
86	0x3da957de	0.082687125
87	0x3e909711	0.28240255
88	0xbead90ee	-0.33899635
89	0xbe54a017	-0.20764194
90	0xbe711472	-0.23542956
91	0xbdc0cd8a	-0.094142035
92	0xbe95526b	-0.29164442
93	0xbd08d49f	-0.033405896
94	0xbe909c9d	-0.28244486
95	0xbf73505b	-0.9504449
96	0xbed300ae	-0.41211456
97	0xbe759389	-0.23982061
98	0x3e832d0b	0.25620303
99	0xbe9a0e69	-0.3008912
100	0x3e477ef8	0.19482028
101	0xbe988ff5	-0.2979733
102	0xbefb9442	-0.4913655
103	0x3def3bc0	0.11681318
104	0xbf5af169	-0.8552461
105	0x3e3c6892	0.18399265
106	0x3dc3ba00	0.09556961
107	0xbda886a5	-0.082288064
108	0xbe1efedb	-0.15526907
109	0xbf1e663a	-0.61874735
110	0xbf6cd52b	-0.9251277
111	0xbd86a755	-0.06574885
112	0xbef4b56f	-0.47794673
113	0xbf3aae6c	-0.72922397
114	0xbec1e4fc	-0.37870014
115	0xbe1fb407	-0.15596019
116	0xbea19298	-0.31557155
117	0xbeae2ce9	-0.3401864
118	0xbe24edd8	-0.16106355
119	0xbe7579d6	-0.23972258
120	0xbd8544a4	-0.06507233
121	0xbeb0b434	-0.34512484
122	0x3e155a19	0.14585151
123	0xbf4097fa	-0.752319
124	0x3efe1b1c	0.49630058
125	0xbfa327e8	-1.2746553
126	0xbf8c0e20	-1.0941811
127	0xbe29c818	-0.16580236
128	0xbe83c45a	-0.25735742
129	0xbefb90e3	-0.49133977
130	0xbee9f9e3	-0.4569846
131	0x3ed87568	0.42277074
132	0x3e6022e1	0.21888305
133	0xbec7a3f0	-0.38992262
134	0x3dea5cc7	0.11443477
135	0xbdf978ab	-0.12181219
136	0xbeac6102	-0.3366776
137	0xbed4c353	-0.4155527
138	0xbdc9c9c8	-0.0985294
139	0xbeb4dbb7	-0.3532388
140	0xbecc15f0	-0.39860487
141	0x3d950d43	0.0727792
142	0xbc34d33a	-0.011036688
143	0xbe05f537	-0.13081823
144	0xbe2f9ef9	-0.17150487
145	0xbeb35dd9	-0.35032538
146	0xbc5df433	-0.013546991
147	0xbe382a3a	-0.17984858
148	0xbeacedcd	-0.33775178
149	0x3b2bac5b	0.002619526
150	0x3d179261	0.037004832
151	0x3c1d898e	0.009615315
152	0xbe678f93	-0.22613363
153	0x3e25f0b1	0.16205098
154	0x3e50ab6c	0.20377892
155	0xbe87a834	-0.26495516
156	0xbeb4830c	-0.3525623
157	0xbeae8751	-0.34087613
158	0xbe2a1605	-0.16609962
159	0xbe90f7ac	-0.2831396
160	0xbf2e2f4f	-0.6804094
161	0x3dcfe915	0.10151879
162	0xbfaad4a9	-1.3346149
163	0xbea0f28a	-0.31435043
164	0xbe0fd921	-0.14047672
165	0xbe9a5131	-0.3014007
166	0x3d92cbfc	0.07167813
167	0xbe3e1d3b	-0.18565838
168	0xbea9f70d	-0.33196297
169	0x3e9421e1	0.28932098
170	0xbea12c0e	-0.31478924
171	0xbed37fc3	-0.41308412
172	0xbeb53aa6	-0.35396308
173	0xbe5d5b41	-0.21616842
174	0xbdb80842	-0.0898595
175	0xbd98da7c	-0.074635476
176	0x3e6f15d7	0.23348175
177	0x3b8ad037	0.004236247
178	0x3da92f11	0.0826093
179	0x3d2263c5	0.03964593
180	0x3db2fcb4	0.087396055
181	0xbe479160	-0.1948905
182	0xbe2e6455	-0.17030461
183	0xbdc361ef	-0.09540164
184	0xbece68cb	-0.40314326
185	0xbea82379	-0.32839563
186	0xbeabff82	-0.33593374
187	0x3d85f760	0.06541324
188	0xbe38f259	-0.18061198
189	0xbf5357cb	-0.82555836
190	0xbd6cc9dd	-0.0578097
191	0xbe99e879	-0.30060175
192	0xbea6da03	-0.32588205
193	0xbf3844bc	-0.7197988
194	0xbf309acb	-0.68986195
195	0xbcbe511a	-0.023232032
196	0xbf5b47f8	-0.8565669
197	0xbd7b9abd	-0.061426867
198	0x3e7be63b	0.24599545
199	0xbef45844	-0.4772359
200	0xbf3533ce	-0.7078217
201	0xbdd033aa	-0.10166104
202	0xbe46c7f1	-0.19412209
203	0x3e917cbe	0.28415483
204	0xbc93afbc	-0.018028133
205	0xbdcd804b	-0.100342356
206	0xbfa42bca	-1.2825863
207	0x3d4fbfda	0.050720073
208	0x3e0a96e4	0.13534123
209	0xbdd4de9d	-0.103940226
210	0xbe33b940	-0.17551136
211	0xbe985bb2	-0.29757458
212	0x3e14fbbd	0.14549156
213	0x3eab69dc	0.33479202
214	0xbf3b7410	-0.7322397
215	0xbd80c69d	-0.062878825
216	0xbda9346d	-0.082619525
217	0xbe253e5b	-0.16137068
218	0xbf8005a4	-1.0001721
219	0xbea537c8	-0.3226912
220	0xbe125b6b	-0.14292686
221	0x3d72cf50	0.05927974
222	0xbefe905f	-0.4971952
223	0xbe28f0b3	-0.1649807
224	0xbe33b792	-0.17550495
225	0xbe80a4d7	-0.25125763
226	0x3ed5973a	0.4171694
227	0xbe3b8883	-0.18313794
228	0xbe0f7b6e	-0.14011928
229	0x3be1272b	0.0068711243
230	0xbe5e5a6f	-0.21714185
231	0xbd096549	-0.03354386
232	0x3e0987a9	0.13430656
233	0xbe9c2c90	-0.30502748
234	0xbd54ade1	-0.051923636
235	0xbdfb10da	-0.122590736
236	0xbee4a77e	-0.44659036
237	0xbe93ebdf	-0.28890893
238	0x3d06997d	0.03286122
239	0xbdcbab0f	-0.09944736
240	0xbee1351c	-0.43985832
241	0xbf3f45b8	-0.7471576
242	0x3e15dad1	0.14634253
243	0xbd8888da	-0.06666727
244	0xbe8557e2	-0.26043612
245	0xbe333a5d	-0.17502733
246	0xbe898338	-0.26857924
247	0xbe4c7ac0	-0.199687
248	0xbf0fdfb4	-0.5620072
249	0xbf049751	-0.5179339
250	0xbf42f5c6	-0.7615627
251	0xbd3fe610	-0.046850264
252	0xbe142e72	-0.14470842
253	0x3ccdd0c8	0.025123969
254	0x3ed1d91f	0.40985963
255	0xbf075a17	-0.5287184

critic.2.weight f4 [256, 256]
0	0x3d7bda5e	0.061487548
1	0x3c253c80	0.010085225
2	0x3ce01ecc	0.027358435
3	0xbd88f2c4	-0.06686929
4	0xbe618121	-0.22021915
5	0x3ddf8662	0.10914303
6	0xbdc6022f	-0.09668385
7	0xbd44b1b4	-0.048021033
8	0xbc7b52ff	-0.015339612
9	0xbda21a9a	-0.0791523
10	0xbda49169	-0.08035547
11	0xbaf6dc1f	-0.0018833912
12	0x3cb55353	0.022134459
13	0x3d80e098	0.06292838
14	0xbdb2b5dd	-0.08726094
15	0xbd102f05	-0.03520109
16	0xbd89b166	-0.06723289
17	0xbd2b8db7	-0.041883197
18	0xbe0c366d	-0.13692637
19	0xbcd60751	-0.026126536
20	0xbcaff6c1	-0.021479966
21	0x3d59ec19	0.053203676
22	0x3d107c2f	0.03527468
23	0x3cd68a4d	0.026188994
24	0xba632035	-0.0008664162
25	0x3d246db3	0.04014368
26	0x3c16fb5c	0.009215202
27	0xbdeee35f	-0.11664461
28	0x3ca28568	0.019839004
29	0x3d8e8a82	0.06960012
30	0xbd1732a7	-0.03691354
31	0x3d3ab30d	0.045580912
32	0x3d94f52d	0.07273326
33	0x3ccd6973	0.025074696
34	0x3dfd6302	0.123724
35	0xbe141cae	-0.14464065
36	0xbd9d3dd9	-0.07677812
37	0x3e0a0b9e	0.13480994
38	0xbcfaf004	-0.030632026
39	0x3de40d26	0.1113532
40	0x3da7b891	0.081895
41	0xbde9e7dd	-0.114211775
42	0x3dbce32d	0.09223018
43	0xbd2ac6e1	-0.041693572
44	0x3d0a1db2	0.033719726
45	0x3e01bb66	0.12669143
46	0xbd79368a	-0.060843028
47	0x3dc4ed9f	0.09615635
48	0xbd0718a9	-0.032982502
49	0x3d9dc5a0	0.077037096
50	0x3d66bd8e	0.056333117
51	0x3c846487	0.016161216
52	0x3c6486a0	0.013948113
53	0xbd2110e8	-0.039322764
54	0xbd0b74a1	-0.034046773
55	0x3d5f7c49	0.054561887
56	0x3d8df37d	0.06931207
57	0xbd977f8d	-0.07397375
58	0xbd322ad8	-0.04349789
59	0xbe280ced	-0.16411181
60	0x3d4ea207	0.05044749
61	0x3e37e269	0.17957462
62	0x3cae15aa	0.021250565
63	0xbb5e7206	-0.0033942475
64	0xbdd22f32	-0.10262908
65	0x3d44a0e8	0.048005015
66	0xbe1203b2	-0.14259222
67	0xbdf1a2e9	-0.11798651
68	0xbcb16994	-0.021656789
69	0x3b962a50	0.0045826808
70	0xbd9372c7	-0.071996264
71	0x3b97eb58	0.0046362095
72	0x3d94c328	0.072637856
73	0xbd95d1ff	-0.07315444
74	0x3d80fc3c	0.0629811
75	0x3da0a95d	0.078448035
76	0x3ccb5586	0.024821054
77	0x3c854de2	0.016272489
78	0xbc447e20	-0.011992961
79	0xbc128ced	-0.008944732
80	0xbd995e17	-0.07488649
81	0x3d857b52	0.06517662
82	0x3c5d417e	0.013504384
83	0x3cdc6bd3	0.026906883
84	0x3d9dff10	0.07714665
85	0xbd15b4ec	-0.036549494
86	0xbd03bb72	-0.032161184
87	0x3b9892f8	0.004656192
88	0xb9d573b6	-0.00040712737
89	0x3c22c58c	0.009934794
90	0x3e4f04ed	0.20216723
91	0x3998100f	0.00029003664
92	0xbcdb4076	-0.026764136
93	0x3db584cb	0.08863219
94	0x38ef0d48	0.00011398882
95	0xbce51acb	-0.027966877
96	0xbd67fbba	-0.05663655
97	0xbe31939d	-0.17341466
98	0xbca90469	-0.020631986
99	0xbe16b621	-0.14717914
100	0x3da9bbd9	0.08287782
101	0xbcbacc5d	-0.022802526
102	0xbd25e604	-0.040502563
103	0x3d88c95a	0.0667903
104	0xbccf656f	-0.025316922
105	0xbce7d75c	-0.028300934
106	0xbcd32024	-0.025772162
107	0xbd8bc360	-0.06824374
108	0xbdda64f4	-0.106637865
109	0xbdb273d1	-0.087134965
110	0x3ac84c92	0.0015281609
111	0xbd6f8631	-0.058477584
112	0x3b39ef04	0.0028371224
113	0x3c343939	0.010999971
114	0xbd65c1d7	-0.056093063
115	0xbe0320fd	-0.12805553
116	0xbcdc1acf	-0.026868252
117	0x3e4a51a0	0.197577
118	0xbcd847ef	-0.026401488
119	0xbd50291e	-0.050820462
120	0x3d69d6a8	0.057089478
121	0x3e218728	0.15774214
122	0xb9b68e64	-0.00034819834
123	0x3d851a6a	0.06499179
124	0xbd18b17a	-0.03727863
125	0x3d895893	0.06706347
126	0xbd7ecd11	-0.062207285
127	0xbd82f845	-0.0639501
128	0x3d3657c9	0.044517312
129	0x3d8439ad	0.06456313
130	0x3c72f8c3	0.014829817
131	0xbd03b1df	-0.032152053
132	0x3d85cdc3	0.065333866
133	0xbd6d70dc	-0.05796896
134	0x3d2a8315	0.041628916
135	0x3da34547	0.07972198
136	0xbd758a9a	-0.059946634
137	0xbcd02beb	-0.025411567
138	0xbcbc51f8	-0.022988304
139	0x3d6b0cc3	0.057385217
140	0xbd8262cc	-0.063665
141	0x3d36c84f	0.044624623
142	0xbde33b8b	-0.11095341
143	0x3d300f2f	0.04298323
144	0xbe63aca4	-0.22233826
145	0x3d44d14c	0.048051164
146	0x3c9b26e6	0.018939447
147	0xbd7b90ad	-0.06141727
148	0xbd497e99	-0.049193
149	0x3d6317b4	0.055442527
150	0x3da5917b	0.08084389
151	0xbd8356a3	-0.06413009
152	0x3e438493	0.19093542
153	0x3b2c0e71	0.0026253725
154	0xbb7433aa	-0.003726224
155	0xbcae60ea	-0.021286447
156	0x3ad6f454	0.001639972
157	0xbe4a05c8	-0.19728768
158	0x3e582a01	0.21109773
159	0xbbb07932	-0.0053855414
160	0xbe0b35f7	-0.13594805
161	0xbd13abf4	-0.03605266
162	0x3ccafca2	0.024778668
163	0x3da98cd7	0.08278816
164	0x3d016220	0.03158772
165	0x3d2adc60	0.041714072
166	0xbd82f3cf	-0.06394159
167	0xbc822ceb	-0.01589056
168	0x3bd95acc	0.0066331383
169	0x3d2e205b	0.042511325
170	0x3da8e2ce	0.082463846
171	0x3d54c486	0.05194523
172	0xbdbc9f5d	-0.09210084
173	0xbda081ba	-0.078372434
174	0x3c0f7ed5	0.008758266
175	0xbc8c3e01	-0.01711941
176	0x3d8989cf	0.06715738
177	0x3c0782c3	0.008270922
178	0x3d5121d5	0.051057655
179	0x3d81d313	0.06339087
180	0xbd7de3fd	-0.061985005
181	0x3c3c2128	0.011482514
182	0xbbfe0d6e	-0.007753066
183	0x3b16450a	0.0022929334
184	0x3c8d1a4f	0.017224459
185	0xbdaf956a	-0.0857342
186	0x3c8e0b0e	0.017339256
187	0x3de6ac74	0.112633616
188	0x3d421cd0	0.04739076
189	0x3e0ab845	0.13546856
190	0xbc57d9bd	-0.013174471
191	0xbce94bcd	-0.028478527
192	0x3c9d59e9	0.019207912
193	0xbcdf58f9	-0.027264105
194	0x3cb66a27	0.022267414
195	0xbd23e8ef	-0.040017065
196	0x3c9341b7	0.017975671
197	0xbd3e26e3	-0.046423804
198	0x3c348583	0.01101816
199	0x3d6b4f61	0.05744875
200	0xbddf1577	-0.10892766
201	0xbcc48b4f	-0.023992209
202	0xbd30800d	-0.04309087
203	0xbd7051f2	-0.0586719
204	0xbd7a7e86	-0.06115582
205	0xbe037327	-0.12836896
206	0x3d2747e0	0.04084003
207	0xbd35cbec	-0.04438393
208	0xbce70a1c	-0.028203063
209	0x3ddb2a30	0.10701406
210	0xbd5c23ce	-0.053745084
211	0x3c0a3b52	0.008436995
212	0xbdddcfe7	-0.1083067
213	0xbdabbace	-0.083852395
214	0x3cde5be7	0.027143432
215	0xbd983305	-0.07431606
216	0xbe1a33e8	-0.15058863
217	0x3d5e9f3d	0.05435108
218	0xbd8cb8ae	-0.06871162
219	0xbbb77896	-0.0055990918
220	0xbdc8e25a	-0.09808798
221	0x3c84e84e	0.016224053
222	0x3e355e76	0.17711815
223	0x3bb41afc	0.005496381
224	0xbd5d27d2	-0.053993054
225	0x3e12e4e2	0.14345124
226	0xbd931958	-0.07182568
227	0xbd9aa96f	-0.07551848
228	0xbcb35133	-0.021889305
229	0x3da39469	0.07987291
230	0xbd096a21	-0.033548478
231	0x3cecee5c	0.028922252
232	0xbb7eb281	-0.003886372
233	0x3e49363e	0.19649598
234	0xbd85f876	-0.06541531
235	0x3c4aed4f	0.01238568
236	0xbcc6c55d	-0.024264032
237	0xbc9697e9	-0.018382983
238	0x3cd4e278	0.025986895
239	0xbc6abf30	-0.014327809
240	0xbd5d5543	-0.05403639
241	0x3dbae93a	0.09126516
242	0x3d8249d2	0.06361736
243	0xbb1a7fc8	-0.0023574699
244	0x3e066e83	0.13128094
245	0xbc22889a	-0.009920264
246	0xbd02d170	-0.031938016
247	0xbc2b9943	-0.010473552
248	0x3cdbe47e	0.026842352
249	0x3d913617	0.07090395
250	0x3d702de7	0.058637526
251	0xbcf990c9	-0.030464547
252	0xbda0a39a	-0.078437045
253	0x3ca60cbe	0.020269748
254	0xbbd34c90	-0.006448336
255	0xbd32822e	-0.04358118

critic.2.bias f4 [256]
0	0x3b394c99	0.0028274416
1	0xbd0adf7a	-0.03390453
2	0xbd5e2b7f	-0.0542407
3	0x3b626a5d	0.003454826
4	0xbb5e35c1	-0.0033906552
5	0xbca4b11a	-0.02010398
6	0xbd506d78	-0.050885648
7	0xbe0b4d78	-0.1360377
8	0x3c12eb71	0.008967266
9	0xbdffa0c9	-0.12481839
10	0xbdba4a03	-0.09096148
11	0x3d27bb61	0.040950183
12	0xbdf500b0	-0.11963022
13	0xbd4b7ee8	-0.049681574
14	0xbd475565	-0.048665423
15	0xbe867526	-0.26261252
16	0xbcaf130b	-0.021371385
17	0x3b068d34	0.002053094
18	0xbcb665dc	-0.022265367
19	0x3d708efe	0.058730118
20	0xbc39df28	-0.0113447085
21	0xbb932812	-0.0044908607
22	0xbcc2e9a2	-0.023793045
23	0xbec3748e	-0.38174862
24	0x3c978f98	0.018501088
25	0x3d65baed	0.05608647
26	0xbc173df1	-0.009231077
27	0xbc5178d0	-0.012785152
28	0xbc9b29ca	-0.018940825
29	0x3b4c3ad0	0.0031162985
30	0x3d096ba8	0.033549935
31	0xbd280eef	-0.041029867
32	0xbd201b7b	-0.039088707
33	0xbe2d6091	-0.16931368
34	0xbd8afb20	-0.067861795
35	0xbd007df3	-0.031370115
36	0xbd71ca10	-0.059030592
37	0xbd2c34dd	-0.0420426
38	0xbebdb2a1	-0.37050346
39	0x3d5aaded	0.053388525
40	0x3c9af00e	0.018913295
41	0x3d548a37	0.051889624
42	0x3b33c79e	0.0027432214
43	0x3a1ec904	0.00060571753
44	0x3cdc80d3	0.026916897
45	0x3d52793b	0.051385146
46	0x3b0b496c	0.002125348
47	0xbcffb42d	-0.031213844
48	0xbdb0c908	-0.08632094
49	0xbd7db81a	-0.06194315
50	0xbd4399c5	-0.047754068
51	0xbca5ac32	-0.02022371
52	0x3d3c3761	0.04595125
53	0x3c866aed	0.016408408
54	0x37ffbcda	3.048631e-05
55	0xbc8abe02	-0.016936306
56	0x3c9159b7	0.017742975
57	0xbafb36d1	-0.0019166117
58	0x3ca66839	0.02031337
59	0xbc62e233	-0.013847875
60	0xbd1efec1	-0.03881717
61	0xbebef2c1	-0.37294582
62	0xbbe01831	-0.0068388213
63	0xbccc29cf	-0.02492228
64	0x3c3c0a58	0.0114770755
65	0x3c9e1dc9	0.019301312
66	0xbe616acd	-0.22013398
67	0xbd295e52	-0.041349716
68	0xbdcf2368	-0.10114175
69	0xbddcf844	-0.107895404
70	0x3d1d3660	0.038381934
71	0xbd043f42	-0.03228689
72	0xbb83303b	-0.0040035523
73	0x3cbc35de	0.022974905
74	0xbcc59cc7	-0.024122609
75	0xbd278549	-0.040898595
76	0xbd2af058	-0.041733116
77	0x3ba8740b	0.0051407865
78	0xbd9b3544	-0.07578519
79	0xbdb6f748	-0.08933884
80	0xbd3ff865	-0.046867747
81	0x3cc8a8bc	0.024494521
82	0xbd0aaf47	-0.033858564
83	0xbd2d0774	-0.042243436
84	0xbe46196d	-0.19345637
85	0xbe7d321e	-0.2472615
86	0xba82f9f0	-0.00099927
87	0xbb78b665	-0.0037950512
88	0xbdf2e537	-0.118601255
89	0xbed70c17	-0.4200141
90	0x3b3d06fc	0.0028843274
91	0xbc8e5ea1	-0.017379107
92	0xbbe55b58	-0.0069994144
93	0xbacd7833	-0.0015676081
94	0xbdab240d	-0.083564855
95	0xbd37c0e3	-0.044861685
96	0x3b5411cf	0.0032359248
97	0xbc186f29	-0.009303846
98	0xbda26b32	-0.07930602
99	0xbde11e9d	-0.10992167
100	0x3cd1803f	0.025573848
101	0xbd31967e	-0.04335641
102	0xbc787998	-0.015165709
103	0xbc327c94	-0.01089396
104	0xbdd7a9d0	-0.10530436
105	0xbd082998	-0.033242792
106	0xbb059034	-0.0020380141
107	0xbde669cc	-0.11250648
108	0xbd6fc199	-0.05853424
109	0x3d7284ec	0.059208795
110	0xbc6d99c1	-0.01450199
111	0xbe555a97	-0.20835339
112	0xbcc507c6	-0.024051558
113	0xbd83881e	-0.06422447
114	0xbd44af35	-0.048018653
115	0xbd24f9c8	-0.040277272
116	0x3c996faf	0.018730013
117	0xba7bb91c	-0.00096024736
118	0x3c46d220	0.012135059
119	0xbd0bbee8	-0.03411761
120	0xbc870b0a	-0.016484756
121	0x3ce376e6	0.027766656
122	0xbd94562a	-0.07242997
123	0xbd26fe74	-0.04077001
124	0xbc669754	-0.014074165
125	0xbe58236f	-0.21107267
126	0xbcf2afdb	-0.02962487
127	0xbd769963	-0.060204875
128	0xbd35a462	-0.04434622
129	0xbc52d3c4	-0.012867872
130	0xbbf14e26	-0.0073640523
131	0x3b4dba69	0.0031391627
132	0xbce29709	-0.02765991
133	0xbe79ce48	-0.24395096
134	0x3cebc417	0.028780026
135	0x3be5226e	0.0069926297
136	0x3cc5f572	0.024164889
137	0xbedc3c23	-0.4301463
138	0xbe57b5ba	-0.21065417
139	0x3d1df27b	0.038561326
140	0x3bba2862	0.0056810835
141	0x3c942b9e	0.018087205
142	0xbc274da0	-0.010211378
143	0xbb9e4987	-0.0048305425
144	0xbe3a29ea	-0.18180051
145	0xbd50b695	-0.050955374
146	0xbbd9fd49	-0.0066525084
147	0xbcb19178	-0.02167581
148	0x3d1b074b	0.037848752
149	0xbd4db86a	-0.0502247
150	0xbba4e253	-0.0050318628
151	0xbb313eb9	-0.0027045442
152	0xbac774dd	-0.0015217323
153	0xbd673676	-0.056448422
154	0x3beb6545	0.007183703
155	0xbb0f8ab0	-0.0021902733
156	0xbccc4667	-0.024935914
157	0xbb2af7eb	-0.0026087712
158	0xbd3b3914	-0.04570873
159	0xbbab59f9	-0.0052292314
160	0xbe1a65f1	-0.1507795
161	0xbd001545	-0.031270284
162	0xbe56abd9	-0.20963992
163	0x3c093f52	0.008376913
164	0xbcacb94d	-0.021084452
165	0xbc7dcee9	-0.015491226
166	0xbc6f4445	-0.014603679
167	0x3b74bcde	0.003734402
168	0xbe56dcb7	-0.20982634
169	0xbd76812c	-0.06018178
170	0xbed05f7a	-0.40697843
171	0x3cdb5664	0.026774593
172	0xbd168804	-0.03675081
173	0xbc9f0334	-0.019410707
174	0xbdbcd235	-0.09219781
175	0x383493d8	4.3053034e-05
176	0x3c4b5949	0.012411424
177	0xbef084c3	-0.4697629
178	0xbda8e54c	-0.0824686
179	0xbd001b73	-0.031276178
180	0xbd450bb4	-0.048106864
181	0xbd578572	-0.052617498
182	0xbbdf0354	-0.0068058167
183	0x3d397b14	0.045283392
184	0xbe3f2a12	-0.18668392
185	0xbd99e047	-0.07513481
186	0x3c6f1c11	0.014594094
187	0x3d1533f9	0.036426518
188	0x3cce85e0	0.025210321
189	0xbc0230ad	-0.0079461755
190	0xbd020e8c	-0.031752154
191	0x3c9634e6	0.01833577
192	0x3ac138cf	0.0014741662
193	0x3a85741e	0.00101817
194	0x3c576509	0.013146647
195	0xbe5839c9	-0.21115793
196	0xbd6f1048	-0.058365136
197	0xbc28470a	-0.010270843
198	0xbcb445cf	-0.022005944
199	0xbd8bad36	-0.06820147
200	0xbdc2e4ff	-0.09516334
201	0xbdd4a1d9	-0.103824325
202	0xbd7efee7	-0.062254813
203	0xbcb7e1b2	-0.022446487
204	0xbe8a7d46	-0.270487
205	0xbce72d0c	-0.028219722
206	0xbcf69a09	-0.030102747
207	0xbc88830d	-0.016664052
208	0xbd063eaf	-0.032774623
209	0x3d1db0d8	0.03849873
210	0x3cc309ef	0.023808448
211	0xbb142658	-0.0022605862
212	0xba1bd8d9	-0.00059450936
213	0xbc86813b	-0.016419044
214	0x3d124ae0	0.035715938
215	0xbb8d1882	-0.0043059
216	0xbc940ac5	-0.018071542
217	0xbc7a7376	-0.015286317
218	0xbd00b6c0	-0.031424284
219	0xbcaa85df	-0.020815788
220	0xbe6483d4	-0.22315913
221	0x3d645922	0.055749066
222	0x3cbe3b78	0.023221716
223	0xbd0af99c	-0.033929452
224	0x3d38bbe1	0.04510105
225	0xbc937eab	-0.018004736
226	0xbce74261	-0.028229894
227	0xbacb934b	-0.0015531568
228	0xbc942d10	-0.018087894
229	0xbc1c0a14	-0.009523887
230	0xbd304ee8	-0.043044
231	0xbd59637a	-0.053073384
232	0x3c74bbf6	0.0149373915
233	0xbbd1a4e2	-0.0063978294
234	0xbe2bb28f	-0.16767333
235	0xbca28f25	-0.019843647
236	0x3bb3e599	0.0054900167
237	0x3c88c610	0.016696006
238	0xbd3b103b	-0.045669775
239	0x3cf62957	0.03004901
240	0xbd1d49d4	-0.038400486
241	0xbc763033	-0.01502614
242	0x3b304a03	0.0026899583
243	0xbdd8a610	-0.10578549
244	0xbc26969e	-0.010167746
245	0xbd3372f1	-0.04381079
246	0xbdb1453c	-0.086557835
247	0xbeaeb6b5	-0.3412377
248	0x3d9189b9	0.07106347
249	0xbd533912	-0.0515681
250	0xbdc386dd	-0.095472075
251	0xbc84ee55	-0.016226927
252	0x3d185445	0.03718974
253	0xbd7b3847	-0.061332967
254	0xbd8430b2	-0.064546004
255	0xbc938d0f	-0.018011598

critic.4.weight f4 [1, 256]
0	0xbb15eca3	-0.0022876642
1	0x3c04bb70	0.008101329
2	0x3b76fc3e	0.003768697
3	0x3b2b448e	0.002613339
4	0x3ba62eb1	0.005071484
5	0xbc726832	-0.01479535
6	0x39e313f9	0.00043311695
7	0xbd24cefd	-0.040236462
8	0xbbb907ab	-0.005646666
9	0xbd8258c1	-0.06364585
10	0xbbb27987	-0.005446616
11	0xb94d2ef0	-0.00019567809
12	0x3cd7b2cd	0.026330376
13	0x3d6107b0	0.054938972
14	0x3c289506	0.010289436
15	0xbdc94001	-0.09826661
16	0xba7eaeee	-0.00097153976
17	0xbaa39fea	-0.0012483571
18	0xba6ca8ff	-0.0009027868
19	0x3a87f282	0.0010371956
20	0x3e14bafc	0.14524454
21	0x3c4e27cc	0.0125827305
22	0x3b28ade4	0.0025738413
23	0xbe203153	-0.15643816
24	0x390ee8fa	0.00013628966
25	0xbb4819ca	-0.003053295
26	0x3a804653	0.0009786583
27	0xbbc0b9a2	-0.005881504
28	0x3d61ed3c	0.055157885
29	0x3b8799f5	0.004138226
30	0xbb5a5d0a	-0.0033319616
31	0x3b74966b	0.0037321101
32	0xbbe884f8	-0.0070959292
33	0xbd71e2ec	-0.0590543
34	0xbb5393a7	-0.0032284053
35	0x3c0574be	0.008145509
36	0xbc0b5565	-0.008504246
37	0xba0dbd6e	-0.00054069504
38	0xbd37a1b7	-0.044831958
39	0x3bcba54a	0.0062147724
40	0x3bb3e21f	0.005489602
41	0x3b9e5364	0.0048317183
42	0x3d168bea	0.036754526
43	0xbb21ae3c	-0.0024670502
44	0x3d2001d2	0.039064236
45	0x3b4c44ed	0.0031169013
46	0xbbf79940	-0.0075561106
47	0xbb515f17	-0.0031947547
48	0x3bea7511	0.0071550687
49	0x3c6595c9	0.014012762
50	0x3b83eb16	0.004025827
51	0xbbcd9756	-0.006274144
52	0x3ab88efe	0.0014080701
53	0x3bbf84e4	0.005844699
54	0xbbbdabd5	-0.0057883062
55	0xbbc80996	-0.0061046584
56	0xbb769807	-0.0037627236
57	0xbb845696	-0.004038642
58	0xbbbc9b96	-0.005755852
59	0xbbe69ab7	-0.0070374864
60	0xbb9fdab2	-0.0048783654
61	0xbe38e5eb	-0.18056457
62	0x3bb40217	0.005493413
63	0x3c017fa4	0.007903967
64	0x3baa8528	0.0052038617
65	0x39946328	0.00028302637
66	0x3e1b13ba	0.15144244
67	0x3d2c3749	0.04204491
68	0xb85ee4e8	-5.314211e-05
69	0xbe77a7c9	-0.24185099
70	0x3e9afb3e	0.30269808
71	0xbaa9b1bd	-0.0012946647
72	0x3bb74acb	0.005593633
73	0xbb42f812	-0.0029749912
74	0xba2749c2	-0.0006381535
75	0x3b587284	0.003302724
76	0x3957fb57	0.00020597629
77	0xbc0ecc00	-0.00871563
78	0x3be2ee0a	0.006925349
79	0x3cfab760	0.030605018
80	0xbc1a4437	-0.009415678
81	0xbb4376ca	-0.0029825442
82	0xbc0ce82e	-0.008600278
83	0xbb0993ad	-0.0020992563
84	0xbd306525	-0.04306521
85	0xbdb3d2b7	-0.08780425
86	0xbc15bbd2	-0.009139018
87	0x3c77d2ca	0.01512594
88	0xbc04c20d	-0.008102906
89	0xbebbe3bc	-0.36697185
90	0x3e200ea7	0.1563059
91	0xbb839270	-0.0040152594
92	0xbbc4f52f	-0.0060106735
93	0x3bb2180d	0.005434996
94	0xbe1fdfcd	-0.15612717
95	0xbaa4df05	-0.0012578672
96	0x3a805de5	0.0009793608
97	0xbadf5938	-0.0017040139
98	0x3cd19526	0.025583815
99	0x3d2c79eb	0.042108458
100	0xbb816290	-0.003948517
101	0xbb9bf5a3	-0.004759507
102	0xbc266cca	-0.010157773
103	0x3a377c1f	0.00069993915
104	0xbda48695	-0.08033482
105	0x3baa4fa9	0.0051974845
106	0x3b0a23f3	0.0021078556
107	0xbcb5e13c	-0.022202127
108	0x3b81f96e	0.003966502
109	0xbaef31ab	-0.0018249055
110	0x3a1042be	0.00055031094
111	0xbd88b8f1	-0.066759
112	0x3bceb282	0.006307901
113	0xbc55823c	-0.013031539
114	0x3bf80c03	0.0075697913
115	0x3bda1d65	0.006656336
116	0x3b3c564a	0.0028737956
117	0xbb1f6505	-0.0024321687
118	0x3d0c4629	0.034246597
119	0xbb1bb014	-0.0023756074
120	0x3c9d9b2d	0.019239033
121	0xbb9d6b08	-0.004804019
122	0xbb85a235	-0.0040781745
123	0x3b8cc26d	0.0042956383
124	0x3d2539fc	0.0403385
125	0xbd4bad24	-0.049725667
126	0x3ba5d3c5	0.0050606453
127	0xbade3ff9	-0.0016956321
128	0xbb184c08	-0.0023238678
129	0xbbd6ae43	-0.0065515353
130	0xbaa83600	-0.0012833476
131	0x3aabe3bc	0.0013114135
132	0x3b0196a5	0.001977363
133	0xbef1a73f	-0.4719791
134	0x3cb46b1a	0.022023726
135	0xbb6359c3	-0.0034690953
136	0x3c30caba	0.010790521
137	0xbe0841e7	-0.1330639
138	0xbdbdb6a4	-0.092633516
139	0x3b79501d	0.0038042136
140	0x3ac31301	0.0014882983
141	0x3af9a3fc	0.0019046064
142	0x3ba19326	0.0049308715
143	0xbbf02f7d	-0.00732988
144	0xbe3cb08a	-0.1842672
145	0xbbd6dca1	-0.0065570627
146	0xbb65b8fd	-0.0035052889
147	0x3a79f68d	0.0009535335
148	0x3b889e46	0.0041692583
149	0xbbda7f61	-0.006668017
150	0xbb852a6a	-0.004063894
151	0x3c4c25a7	0.012460149
152	0xbbcd303b	-0.006261853
153	0xb99fd665	-0.0003048658
154	0xbb3ac55d	-0.0028498985
155	0xbb8d1b92	-0.004306265
156	0x3b5a1df8	0.0033282023
157	0x3c8153d8	0.01578705
158	0x3ae6e57c	0.0017615999
159	0x3c6dcae7	0.014513708
160	0xbd0c271c	-0.034216985
161	0xbb5a69e3	-0.0033327274
162	0xbddd28a7	-0.107987694
163	0x3b3dad83	0.0028942532
164	0xbaa8296f	-0.0012829731
165	0xbb1f932a	-0.0024349191
166	0x3b8e4834	0.0043421034
167	0xbbac9595	-0.005266855
168	0xbe5a6c55	-0.21330388
169	0xbbe84a71	-0.007088952
170	0xbe3811c7	-0.17975532
171	0xbbeb2d13	-0.007177004
172	0xbb4a5fac	-0.0030879779
173	0x38c40d1c	9.34845e-05
174	0xbac4b698	-0.001500803
175	0xbabb7c9a	-0.0014304102
176	0x3b91391c	0.004431857
177	0xbe5334ad	-0.20625563
178	0x3caa7f47	0.020812644
179	0x38e25de0	0.00010794005
180	0xbbaac944	-0.005211981
181	0xbbbcfd50	-0.005767502
182	0x3baaa38e	0.0052074855
183	0xbb34abbe	-0.0027568187
184	0xbd6d7011	-0.057968203
185	0x3df7aa76	0.1209306
186	0xbc19324d	-0.009350372
187	0x3b2275c5	0.0024789434
188	0x3b4be5f9	0.0031112416
189	0xbb654065	-0.003498101
190	0xba377284	-0.000699796
191	0x3943f514	0.00018687948
192	0x3b1d9b61	0.0024048912
193	0x3b2938ee	0.0025821286
194	0x3de024ac	0.109444946
195	0xbd85b325	-0.0652831
196	0x3bc84bcd	0.006112552
197	0x3df9281b	0.12165853
198	0xba7789a2	-0.0009442811
199	0x3b592848	0.0033135582
200	0xbc3c1666	-0.01147995
201	0x3de6705e	0.11251901
202	0xbbee46a7	-0.007271606
203	0xba5bdfa1	-0.00083875103
204	0xbe23a654	-0.15981418
205	0xbc80c02a	-0.015716631
206	0xbb7bd14f	-0.0038424318
207	0x3b40abd9	0.0029399304
208	0xbbe11056	-0.0068684025
209	0x3c08f4ef	0.008359178
210	0x3c0dde2b	0.008658926
211	0xbc157c1b	-0.009123827
212	0xbb8a4653	-0.004219809
213	0xbba65ab3	-0.00507673
214	0x3b981ebb	0.004642335
215	0xbc036e2d	-0.008021873
216	0x3c0a10b8	0.008426838
217	0x3d01cc17	0.031688776
218	0xbc6ddfe1	-0.014518709
219	0xbb70531b	-0.0036670628
220	0xbe43a3dc	-0.19105476
221	0x3c4d640b	0.012536059
222	0x3bd99471	0.00664001
223	0x3db3e0b6	0.087830946
224	0xbbb23d9b	-0.005439473
225	0x3df4966d	0.11942754
226	0xbab34d7f	-0.0013679712
227	0x3a904cf8	0.0011009267
228	0xbb0377d7	-0.0020060444
229	0x3b27c909	0.0025602004
230	0x398399b4	0.00025100785
231	0x3c076520	0.008263856
232	0x38b626d7	8.685671e-05
233	0x3c30de22	0.010795148
234	0x3d3065ca	0.043065824
235	0xbba9e928	-0.005185265
236	0x3acfc166	0.0015850484
237	0x3ba3d908	0.0050002374
238	0x3d89825c	0.06714317
239	0xbaa9138f	-0.0012899506
240	0x3d3138c3	0.043267023
241	0x3d24eb86	0.040263675
242	0x3ab83727	0.0014054523
243	0x3d05f378	0.032702893
244	0x39e61d9b	0.00043891076
245	0x3914d225	0.00014192665
246	0xbc210692	-0.009828227
247	0x3eac4ec1	0.33653834
248	0xba06ae34	-0.00051376526
249	0xbb805008	-0.0039157905
250	0xbbb74c22	-0.0055937925
251	0xbb3dba8f	-0.002895031
252	0xba38bf8f	-0.00070475874
253	0x3d338867	0.043831255
254	0x3c487ca8	0.012236752
255	0x3a9b645a	0.0011855469

actor.0.weight f4 [256, 162]
0	0xbd8ca808	-0.06867987
1	0x3e0ad84d	0.13559075
2	0xbeca5876	-0.39520615
3	0xbbf91a52	-0.0076020146
4	0xbea14fe2	-0.31506258
5	0x3f106622	0.5640584
6	0xbe84477e	-0.25835794
7	0xbedabe21	-0.42723182
8	0xbdc88f0d	-0.0979291
9	0xbf316b8b	-0.6930472
10	0xbe2355a5	-0.1595064
11	0xbe8251d2	-0.2545305
12	0xbddbba2a	-0.10728867
13	0xbec3457e	-0.38138956
14	0xbeb80bf0	-0.35946608
15	0x3b2d7842	0.0026469384
16	0x3ba0e06b	0.004909565
17	0xbf15f82d	-0.5858181
18	0x3deea971	0.11653412
19	0xbe355cfe	-0.17711255
20	0xbe9aacec	-0.30210054
21	0xbf034fe0	-0.51293755
22	0xbc0349c5	-0.0080131935
23	0x3e1699ba	0.1470708
24	0xbebb6d4a	-0.36606818
25	0xbe818b62	-0.25301653
26	0xbf19491f	-0.598772
27	0xbe8256f1	-0.25456956
28	0xbe66ce81	-0.22539712
29	0xbf254a57	-0.6456656
30	0x3f159e9f	0.5844516
31	0x3d424c6e	0.04743617
32	0xbf002431	-0.50055224
33	0xbf054037	-0.5205111
34	0xbeba7bbe	-0.36422533
35	0xbf2d49c4	-0.6769068
36	0x3e0dc7b8	0.13845718
37	0xbdb138e6	-0.08653431
38	0xbe648c7e	-0.22319219
39	0x3d304165	0.043031115
40	0xbf52356f	-0.82112783
41	0xbf4123af	-0.75445074
42	0xbf2d7714	-0.67759824
43	0xbf34a8ab	-0.70569867
44	0xbf0a087b	-0.5391919
45	0xbe311c6d	-0.17296
46	0xbf1e9a01	-0.6195374
47	0xbf184aac	-0.5948894
48	0xbe77d5a1	-0.24202587
49	0xbec0bfd7	-0.37646362
50	0x3ec55e3c	0.38548458
51	0xbe946276	-0.2898137
52	0xbee7de81	-0.45286945
53	0xbe31d473	-0.17366199
54	0x3dcec880	0.10096836
55	0x3c8f2d98	0.017477795
56	0xbe8aa51d	-0.27079096
57	0xbda484d3	-0.08033147
58	0xbeeae63e	-0.45878786
59	0xbefb8b90	-0.49129915
60	0x3f19723e	0.59939945
61	0x3f62faf8	0.886642
62	0xbe38616f	-0.18005918
63	0x3edc400d	0.43017617
64	0x3fa939c1	1.322075
65	0x3e7f704a	0.24945179
66	0x3f4870c8	0.7829709
67	0x3f4f58c9	0.8099485
68	0xbca64737	-0.02029763
69	0x3eb6c0ae	0.35693878
70	0xbeb12a73	-0.346027
71	0x3eaf4667	0.342334
72	0xbc56803c	-0.013092097
73	0xbef8814b	-0.48536143
74	0x3d829e02	0.06377794
75	0xbe17b6a5	-0.14815767
76	0x3e32497c	0.17410845
77	0xbde164e8	-0.110055745
78	0x3dbbc4fc	0.09168431
79	0xbeaac1f6	-0.33351105
80	0x3f4a3d98	0.79000235
81	0xbf17dd26	-0.5932182
82	0xbe5ed133	-0.2175949
83	0xbe638621	-0.22219135
84	0xbf881414	-1.0631127
85	0xbf05bc85	-0.5224078
86	0xbe2e6af3	-0.17032985
87	0xbe9ad3d5	-0.3023974
88	0x3f024dcb	0.5089995
89	0x3e40267a	0.18764678
90	0x3f4c03a0	0.7969303
91	0x3de0c11d	0.109743334
92	0x3dd4ed59	0.10396833
93	0x3ee35faf	0.44408938
94	0xbf11e05a	-0.5698296
95	0xbe28a7c1	-0.16470243
96	0xbef01bf8	-0.46896338
97	0x3e9ff2d9	0.31239966
98	0x3eefae27	0.46812555
99	0x3ea72b19	0.32650068
100	0xbf092c67	-0.5358338
101	0xbda864d6	-0.08222358
102	0xbe68353d	-0.22676559
103	0xbf390e29	-0.7228723
104	0xbedd2c11	-0.43197682
105	0xbe5f3a93	-0.21799688
106	0xbe855329	-0.2604001
107	0xbd53ca2d	-0.05170648
108	0xbeb73909	-0.35785702
109	0xbe320bf0	-0.17387366
110	0x3d9a9adc	0.07549068
111	0xbe460cd4	-0.19340831
112	0x3f7edda3	0.9955694
113	0xbf0bb528	-0.545733
114	0x3de956db	0.113935195
115	0xbf003737	-0.5008425
116	0x3ebe34f3	0.37149772
117	0xbeb2e95f	-0.34943673
118	0xbd4486ff	-0.047980305
119	0x3f018a98	0.506021
120	0xbbc11453	-0.0058923154
121	0xbd5e4c25	-0.054271836
122	0xbf68373e	-0.9070929
123	0x3e871bc6	0.26388377
124	0x3b3b2569	0.0028556234
125	0x3e868c04	0.26278698
126	0x3ecde758	0.40215564
127	0xbf3e53d4	-0.7434666
128	0x3eb40cb9	0.35165957
129	0x3e0ec493	0.13942175
130	0xbec0447d	-0.37552252
131	0x3ea6ce73	0.32579383
132	0xbef5c3a5	-0.48000827
133	0xbea00c8e	-0.31259578
134	0xbd28588d	-0.041100074
135	0xbe1e18cd	-0.15439148
136	0x3ed62e4c	0.41832197
137	0xbf090444	-0.53522134
138	0xbe3c6d8a	-0.18401161
139	0xbeece740	-0.4627018
140	0xbdbddf01	-0.0927105
141	0x3e2a90b4	0.16656762
142	0xbe8c7cb7	-0.274389
143	0x3ed1ef95	0.410031
144	0x3ed108a5	0.40826908
145	0x3f0517dd	0.5198954
146	0xbde5b7cb	-0.11216696
147	0xbe41ee8b	-0.18938653
148	0xbedaa9dd	-0.4270772
149	0xbe5c10d2	-0.21490791
150	0xbf14f7ef	-0.58190817
151	0x3d824c33	0.0636219
152	0xbeaf1db5	-0.34202352
153	0xbe99b4ea	-0.3002084
154	0x3f1120d3	0.5669071
155	0xbee4f0c2	-0.44714934
156	0x3bdc3fa2	0.006721453
157	0x3e84e8f2	0.25958973
158	0xbe88b48f	-0.26700255
159	0x3eb043ea	0.34426814
160	0xbc14f2e7	-0.009091116
161	0xbebdf90b	-0.37104067
162	0x3e59873b	0.21242993
163	0xbd9fd396	-0.07804029
164	0x3e0d4c4b	0.13798635
165	0x3e2806e7	0.16408883
166	0x3e0fd2dc	0.1404528
167	0xbe1a50e6	-0.15069923
168	0xbe037728	-0.12838423
169	0x3dc33eda	0.09533472
170	0xbd994d4d	-0.07485447
171	0x3e1a06c8	0.1504165
172	0xbd7404fe	-0.059575073
173	0x3cd9a37c	0.026567213
174	0x3a28d748	0.0006440771
175	0xbe1c09d0	-0.15238118
176	0xbdc3ff33	-0.0957016
177	0xbc847c29	-0.016172485
178	0xbe5e2258	-0.21692789
179	0xbde87e8c	-0.11352262
180	0xbd6da4c5	-0.058018465
181	0x3e5f8f79	0.21832074
182	0x3dcb087d	0.099137284
183	0x3e012957	0.12613426
184	0xbe2302ac	-0.15918988
185	0x3e82151a	0.25406724
186	0x3dfe8863	0.124283575
187	0x3d86a536	0.0657448
188	0xbcee1fa6	-0.029067826
189	0xbd03ff4f	-0.032225903
190	0x3c07e89e	0.008295206
191	0xbd4d543c	-0.05012916
192	0xbe9cf270	-0.30653715
193	0x3e37b538	0.17940223
194	0xbcfa86be	-0.030581828
195	0x3dfe2147	0.12408691
196	0x3d974603	0.073864006
197	0x3e117ddd	0.1420817
198	0x3e56107f	0.2090473
199	0xbde91101	-0.11380196
200	0xbe029915	-0.12753709
201	0xbda33b84	-0.07970336
202	0x3f03fe4b	0.51559895
203	0x3ebe82d8	0.372092
204	0x3f06a8e6	0.5260147
205	0x3ee87568	0.45402074
206	0x3e18166f	0.14852308
207	0xbdf36008	-0.11883551
208	0x3edfbddb	0.43699536
209	0xbdecae3e	-0.115566716
210	0xbd069674	-0.032858327
211	0x3e5676dd	0.2094378
212	0x3d918184	0.07104781
213	0x3ef35f9e	0.47533888
214	0x3f085136	0.5324892
215	0x3eb7531f	0.35805604
216	0xbd19d1ef	-0.037553724
217	0x3f01d240	0.5071144
218	0x3f341146	0.7033886
219	0x3e465846	0.19369611
220	0xbc99f55a	-0.01879375
221	0x3dfb3a6f	0.12267005
222	0xbf9c87e6	-1.2228973
223	0xbf50a122	-0.8149587
224	0xbf277891	-0.65418345
225	0xbf8abb5e	-1.083843
226	0xbf1c7541	-0.61116415
227	0xbf81993a	-1.0124886
228	0xbf4e5526	-0.80598676
229	0xbf80e1a8	-1.0068865
230	0xbf337eff	-0.70115656
231	0xbf4edecd	-0.80808717
232	0xbdc9be9e	-0.098508105
233	0xbd07c51f	-0.033146974
234	0x3cc93d34	0.024565317
235	0x3f0a164c	0.5394027
236	0x3f031104	0.5119784
237	0x3ec9b96d	0.3939928
238	0x3e90eb9a	0.2830475
239	0x3d066ed9	0.032820556
240	0x3db547a0	0.08851552
241	0xbd27687e	-0.040871136
242	0x3f164194	0.58693814
243	0x3f281432	0.65655816
244	0x3ed2e753	0.4119211
245	0x3f614746	0.8799938
246	0x3f3490cb	0.70533437
247	0x3f2fc071	0.6865302
248	0x3f911736	1.1335208
249	0x3ef78629	0.48344544
250	0x3f6e0bbd	0.9298666
251	0x3ee7b663	0.45256338
252	0x3ec93501	0.3929825
253	0x4022747f	2.5383604
254	0x3f9023da	1.1260941
255	0x40121757	2.2826746

actor.0.bias f4 [256]
0	0xbec6b972	-0.3881336
1	0xbd7773a0	-0.060413003
2	0xbeda0452	-0.4258142
3	0xbe4b2335	-0.19837649
4	0x3ca081a8	0.019593075
5	0x3e2eb504	0.1706124
6	0x3e4f679a	0.20254365
7	0x3ddae96d	0.10689054
8	0x3d0c2844	0.034218088
9	0x3da64840	0.08119249
10	0xbd3f60a9	-0.04672304
11	0xbd0e2818	-0.034706205
12	0xbe10e6a4	-0.14150482
13	0x3e6ce0af	0.23132585
14	0xbeef1b19	-0.4670036
15	0x3ca22f94	0.019798078
16	0xbaec8fe3	-0.0018048253
17	0x3e3fc9ab	0.18729274
18	0xbf19a9ce	-0.60024726
19	0xbe9469a5	-0.2898685
20	0xbe726086	-0.23669633
21	0xbdd49352	-0.103796616
22	0xbe589986	-0.21152315
23	0xbe1e3647	-0.15450393
24	0x3e88e330	0.2673583
25	0x3de47b90	0.1115638
26	0x3e0d2656	0.13784155
27	0xbdd2c73e	-0.10291909
28	0x3e5f2ef8	0.21795261
29	0xbd8c2a08	-0.06843954
30	0x3d0aa72c	0.033850834
31	0xbe05ad41	-0.13054372
32	0xbe46b791	-0.19405963
33	0xbc887723	-0.016658371
34	0xbf08b2e1	-0.5339795
35	0xbe25d2d2	-0.16193703
36	0xbe25d050	-0.16192746
37	0xbec0563b	-0.3756579
38	0x3d3a6e7b	0.04551552
39	0xbe8ab8a3	-0.27093992
40	0xbf0e187b	-0.55506104
41	0xbdc4105c	-0.09573433
42	0xbc6dbf7c	-0.014510985
43	0xbc69f5b6	-0.014279773
44	0x3db88c06	0.09011082
45	0xbed25090	-0.4107709
46	0xbf13a38c	-0.5767143
47	0x3db04a41	0.08607913
48	0xbe8cf72d	-0.2753233
49	0xbd35e6da	-0.04440961
50	0xbdd7b210	-0.105320096
51	0xbc45f90b	-0.012083302
52	0xbe11ec99	-0.14250411
53	0xbd9fcfe5	-0.078033246
54	0x3d5103a8	0.051028877
55	0x3e2b7d0d	0.16746922
56	0x3e4bf21c	0.19916576
57	0x3e24a047	0.16076766
58	0xbe53cae4	-0.20682865
59	0xbe6cc33d	-0.23121352
60	0x3e386844	0.18008524
61	0xbda49252	-0.08035721
62	0x3de5620f	0.11200344
63	0xbe8a746e	-0.27041954
64	0x3de5f365	0.112280644
65	0x3eb340cd	0.35010377
66	0xbe85252b	-0.2600492
67	0xbe462fba	-0.19354144
68	0x3dd56437	0.10419505
69	0xbef21eef	-0.47289225
70	0x3e312807	0.17300425
71	0xbe89e178	-0.26929832
72	0xbe445f64	-0.19177014
73	0xbe57c5d0	-0.21071553
74	0xbd3688cf	-0.044564065
75	0xbe009d61	-0.12560035
76	0x3d979f91	0.07403482
77	0x3d1d1951	0.03835422
78	0x3bd2bbd5	0.0064310827
79	0xba9dae65	-0.0012030123
80	0xbd0dfef4	-0.03466697
81	0x3d862489	0.06549937
82	0xbebfc8ec	-0.3745798
83	0xbf246773	-0.6422035
84	0xbd569a9e	-0.05239355
85	0xbe9e7523	-0.30948743
86	0xbeb36105	-0.35034958
87	0xbf0f7d66	-0.5605072
88	0xbeb3e20b	-0.35133395
89	0xbdce938a	-0.100867346
90	0xbf124608	-0.5713811
91	0x3e06d7bd	0.13168235
92	0xbf259ae5	-0.64689475
93	0xbdbcf902	-0.09227182
94	0xbdd33d16	-0.103143856
95	0xbe86f9da	-0.26362497
96	0xbe94aa70	-0.29036283
97	0x3e72ac7a	0.23698607
98	0xbeca41a5	-0.39503208
99	0x3e43c8f6	0.1911963
100	0xbd54df87	-0.051970985
101	0x3e0f2220	0.13977861
102	0xbea48fb9	-0.32140902
103	0xbee254cb	-0.44205317
104	0x3dc447bf	0.09583997
105	0xbdcab487	-0.09897714
106	0xbeb4fee4	-0.35350716
107	0xbef0bfb2	-0.47021252
108	0xbd475226	-0.048662327
109	0xbe83bcfc	-0.2573012
110	0xbf0452d7	-0.51688904
111	0xbe429f91	-0.19006182
112	0x3d68e3ca	0.05685786
113	0xbe89a6cc	-0.26885068
114	0xbf00beef	-0.5029134
115	0xbd6fd913	-0.058556627
116	0xbf453a34	-0.77041936
117	0xbe848c3a	-0.25888234
118	0xbd81fd5c	-0.063471526
119	0xbe43af3f	-0.1910982
120	0xbec6737f	-0.38759992
121	0xbf0ea0d9	-0.55714184
122	0xbed06687	-0.40703222
123	0x3d86940d	0.06571207
124	0xbd671d45	-0.056424398
125	0xbe82a4c3	-0.25516328
126	0xbf13a9e5	-0.57681113
127	0x3e8b6fcf	0.2723374
128	0xbdaa683f	-0.083206646
129	0xbe73fab3	-0.23826103
130	0x3e2bdfbd	0.16784568
131	0xbdcd6d38	-0.100305974
132	0xbeafacb4	-0.3431145
133	0x3e7a994a	0.24472538
134	0x3d1e687a	0.038673855
135	0x3d7754e1	0.06038368
136	0xbe4376b0	-0.19088244
137	0xbe4cf625	-0.20015772
138	0xbdafa5ca	-0.08576544
139	0x3ecd46f1	0.40093186
140	0xbf22b313	-0.63554496
141	0xbe6a1a6d	-0.22861643
142	0xbe849755	-0.25896707
143	0x3dcaf0c0	0.09909201
144	0xbe169412	-0.14704922
145	0xbd993df2	-0.07482518
146	0xbe686c99	-0.22697677
147	0xbe618d1b	-0.22026484
148	0xbd91f6db	-0.07127162
149	0xbee1de30	-0.44114828
150	0xbf3cf4e3	-0.7381117
151	0xbd69de60	-0.05709684
152	0xbec14d24	-0.37754166
153	0xbe9d729a	-0.30751497
154	0x3e06f169	0.13178028
155	0x3cc79b6c	0.024366103
156	0x3df9437f	0.12171077
157	0x3e854fc2	0.26037413
158	0xbe8e1484	-0.27750027
159	0xbe31a90b	-0.17349641
160	0x3dd244c2	0.10267021
161	0xbcd77dae	-0.026305046
162	0xbe85f0b6	-0.2616021
163	0xbca60e97	-0.020270629
164	0xbe3875f1	-0.18013741
165	0xbdabcd95	-0.08388821
166	0xbd57feaf	-0.05273312
167	0xbdb4a980	-0.08821392
168	0xbe5de4f0	-0.21669364
169	0x3cace686	0.021106016
170	0x3d0ef6e0	0.034903407
171	0xbdef4c19	-0.11684436
172	0xbe744bc8	-0.23857033
173	0x3b39d032	0.0028352854
174	0xbe5ad36f	-0.21369718
175	0x3e3f6257	0.18689857
176	0xbe241890	-0.16024995
177	0xbe5f0d95	-0.21782525
178	0xbf2eab8e	-0.6823052
179	0xbe4186f5	-0.18899138
180	0x3e7225e1	0.23647262
181	0x3cdd6dff	0.02702999
182	0xbf05a940	-0.5221138
183	0xbe34ec01	-0.17668153
184	0xbe8bf38c	-0.2733425
185	0xbdb29779	-0.08720297
186	0xbf15cbb8	-0.58513975
187	0xbd414381	-0.047183517
188	0x3e77b04b	0.24188344
189	0x3e332225	0.17493494
190	0xbe857ff2	-0.26074177
191	0xbe906594	-0.28202498
192	0xbee41351	-0.44545987
193	0xbec0b2fa	-0.37636548
194	0xbec632cb	-0.38710627
195	0xbdb60930	-0.08888471
196	0xbebf2deb	-0.3733972
197	0xbe47e692	-0.1952155
198	0x3d4d47ff	0.05011749
199	0xbe043ceb	-0.12913863
200	0xbd26c4eb	-0.04071514
201	0xbcfcb3d4	-0.030847467
202	0x3e6c3ca2	0.23070005
203	0xbe645734	-0.2229889
204	0x3e550229	0.20801605
205	0xbef2c614	-0.47416747
206	0xbef44fe5	-0.47717205
207	0xbd167f73	-0.03674264
208	0xbe45f88d	-0.19333096
209	0xbcbc2c79	-0.022970425
210	0xbe41b820	-0.18917894
211	0xbdc88710	-0.09791386
212	0xbdb20391	-0.086920865
213	0x3dfed627	0.1244319
214	0xbee255b3	-0.44206008
215	0xbe548a89	-0.20755972
216	0x3dd64c30	0.1046375
217	0xbf06cd30	-0.5265684
218	0xbd392789	-0.04520372
219	0x3e6c030e	0.2304804
220	0xbe444547	-0.19167052
221	0x3e0e51c4	0.13898379
222	0xbebca616	-0.36845464
223	0xbf148c3d	-0.58026487
224	0xbe418799	-0.18899383
225	0xbdf37f23	-0.11889484
226	0x3d06de43	0.03292681
227	0xbe8198c5	-0.25311866
228	0xbd6bb680	-0.057547092
229	0xbd225b1e	-0.039637677
230	0xbed7d07e	-0.42151254
231	0x3d9737a9	0.07383663
232	0x3d4b0e11	0.04957396
233	0x3e8ab38a	0.27090102
234	0xbecbace5	-0.39780346
235	0xbd9f56af	-0.077802055
236	0xbf033497	-0.5125212
237	0xbdd6daf2	-0.10490979
238	0x3e0f63b4	0.14002877
239	0xbec8efc2	-0.3924542
240	0x3eb73c08	0.35787988
241	0xbebf614b	-0.37378916
242	0xbe6a4348	-0.22877228
243	0x3d566b7c	0.0523486
244	0xbe91d2b1	-0.28481057
245	0xbeed52ca	-0.46352226
246	0xbe9f5181	-0.3111687
247	0x3e908b7a	0.28231412
248	0xbe6e752e	-0.23286888
249	0xbe8fbe83	-0.28075036
250	0x3daef9ca	0.08543737
251	0x3cf9da82	0.0304997
252	0x3e8d44da	0.27591592
253	0x3e525742	0.20541099
254	0xbe5438ca	-0.20724788
255	0xbc8cc4cf	-0.01718369
